…
I0814 08:44:24.423238 24030 net.cpp:275] The NetState phase (0) differed from the phase (1) specified by a rule in layer fc8_mat
I0814 08:44:24.423425 24030 net.cpp:39] Initializing net from parameters: 
name: "vgg128_noup"
layers {
  top: "data"
  top: "label"
  name: "data"
  type: IMAGE_SEG_DATA
  image_data_param {
    source: "voc12/list/train_aug.txt"
    batch_size: 20
    shuffle: true
    root_folder: "/media/Work_SSD/ali/VOCdevkit/VOC2012"
    label_type: PIXEL
  }
  include {
    phase: TRAIN
  }
  transform_param {
    mirror: true
    crop_size: 306
    mean_value: 104.008
    mean_value: 116.669
    mean_value: 122.675
  }
}
layers {
  bottom: "data"
  top: "conv1_1"
  name: "conv1_1"
  type: CONVOLUTION
  blobs_lr: 1
  blobs_lr: 2
  weight_decay: 1
  weight_decay: 0
  convolution_param {
    num_output: 64
    pad: 1
    kernel_size: 3
  }
}
layers {
  bottom: "conv1_1"
  top: "conv1_1"
  name: "relu1_1"
  type: RELU
}
layers {
  bottom: "conv1_1"
  top: "conv1_2"
  name: "conv1_2"
  type: CONVOLUTION
  blobs_lr: 1
  blobs_lr: 2
  weight_decay: 1
  weight_decay: 0
  convolution_param {
    num_output: 64
    pad: 1
    kernel_size: 3
  }
}
layers {
  bottom: "conv1_2"
  top: "conv1_2"
  name: "relu1_2"
  type: RELU
}
layers {
  bottom: "conv1_2"
  top: "pool1"
  name: "pool1"
  type: POOLING
  pooling_param {
    pool: MAX
    kernel_size: 2
    stride: 2
    pad: 1
  }
}
layers {
  bottom: "pool1"
  top: "conv2_1"
  name: "conv2_1"
  type: CONVOLUTION
  blobs_lr: 1
  blobs_lr: 2
  weight_decay: 1
  weight_decay: 0
  convolution_param {
    num_output: 128
    pad: 1
    kernel_size: 3
  }
}
layers {
  bottom: "conv2_1"
  top: "conv2_1"
  name: "relu2_1"
  type: RELU
}
layers {
  bottom: "conv2_1"
  top: "conv2_2"
  name: "conv2_2"
  type: CONVOLUTION
  blobs_lr: 1
  blobs_lr: 2
  weight_decay: 1
  weight_decay: 0
  convolution_param {
    num_output: 128
    pad: 1
    kernel_size: 3
  }
}
layers {
  bottom: "conv2_2"
  top: "conv2_2"
  name: "relu2_2"
  type: RELU
}
layers {
  bottom: "conv2_2"
  top: "pool2"
  name: "pool2"
  type: POOLING
  pooling_param {
    pool: MAX
    kernel_size: 2
    stride: 2
    pad: 1
  }
}
layers {
  bottom: "pool2"
  top: "conv3_1"
  name: "conv3_1"
  type: CONVOLUTION
  blobs_lr: 1
  blobs_lr: 2
  weight_decay: 1
  weight_decay: 0
  convolution_param {
    num_output: 256
    pad: 1
    kernel_size: 3
  }
}
layers {
  bottom: "conv3_1"
  top: "conv3_1"
  name: "relu3_1"
  type: RELU
}
layers {
  bottom: "conv3_1"
  top: "conv3_2"
  name: "conv3_2"
  type: CONVOLUTION
  blobs_lr: 1
  blobs_lr: 2
  weight_decay: 1
  weight_decay: 0
  convolution_param {
    num_output: 256
    pad: 1
    kernel_size: 3
  }
}
layers {
  bottom: "conv3_2"
  top: "conv3_2"
  name: "relu3_2"
  type: RELU
}
layers {
  bottom: "conv3_2"
  top: "conv3_3"
  name: "conv3_3"
  type: CONVOLUTION
  blobs_lr: 1
  blobs_lr: 2
  weight_decay: 1
  weight_decay: 0
  convolution_param {
    num_output: 256
    pad: 1
    kernel_size: 3
  }
}
layers {
  bottom: "conv3_3"
  top: "conv3_3"
  name: "relu3_3"
  type: RELU
}
layers {
  bottom: "conv3_3"
  top: "pool3"
  name: "pool3"
  type: POOLING
  pooling_param {
    pool: MAX
    kernel_size: 2
    stride: 2
    pad: 1
  }
}
layers {
  bottom: "pool3"
  top: "conv4_1"
  name: "conv4_1"
  type: CONVOLUTION
  blobs_lr: 1
  blobs_lr: 2
  weight_decay: 1
  weight_decay: 0
  convolution_param {
    num_output: 512
    pad: 1
    kernel_size: 3
  }
}
layers {
  bottom: "conv4_1"
  top: "conv4_1"
  name: "relu4_1"
  type: RELU
}
layers {
  bottom: "conv4_1"
  top: "conv4_2"
  name: "conv4_2"
  type: CONVOLUTION
  blobs_lr: 1
  blobs_lr: 2
  weight_decay: 1
  weight_decay: 0
  convolution_param {
    num_output: 512
    pad: 1
    kernel_size: 3
  }
}
layers {
  bottom: "conv4_2"
  top: "conv4_2"
  name: "relu4_2"
  type: RELU
}
layers {
  bottom: "conv4_2"
  top: "conv4_3"
  name: "conv4_3"
  type: CONVOLUTION
  blobs_lr: 1
  blobs_lr: 2
  weight_decay: 1
  weight_decay: 0
  convolution_param {
    num_output: 512
    pad: 1
    kernel_size: 3
  }
}
layers {
  bottom: "conv4_3"
  top: "conv4_3"
  name: "relu4_3"
  type: RELU
}
layers {
  bottom: "conv4_3"
  top: "pool4"
  name: "pool4"
  type: POOLING
  pooling_param {
    pool: MAX
    kernel_size: 2
    stride: 1
  }
}
layers {
  bottom: "pool4"
  top: "conv5_1"
  name: "conv5_1"
  type: CONVOLUTION
  blobs_lr: 1
  blobs_lr: 2
  weight_decay: 1
  weight_decay: 0
  convolution_param {
    num_output: 512
    pad: 2
    kernel_size: 3
    hole: 2
  }
}
layers {
  bottom: "conv5_1"
  top: "conv5_1"
  name: "relu5_1"
  type: RELU
}
layers {
  bottom: "conv5_1"
  top: "conv5_2"
  name: "conv5_2"
  type: CONVOLUTION
  blobs_lr: 1
  blobs_lr: 2
  weight_decay: 1
  weight_decay: 0
  convolution_param {
    num_output: 512
    pad: 2
    kernel_size: 3
    hole: 2
  }
}
layers {
  bottom: "conv5_2"
  top: "conv5_2"
  name: "relu5_2"
  type: RELU
}
layers {
  bottom: "conv5_2"
  top: "conv5_3"
  name: "conv5_3"
  type: CONVOLUTION
  blobs_lr: 1
  blobs_lr: 2
  weight_decay: 1
  weight_decay: 0
  convolution_param {
    num_output: 512
    pad: 2
    kernel_size: 3
    hole: 2
  }
}
layers {
  bottom: "conv5_3"
  top: "conv5_3"
  name: "relu5_3"
  type: RELU
}
layers {
  bottom: "conv5_3"
  top: "pool5"
  name: "pool5"
  type: POOLING
  pooling_param {
    pool: MAX
    kernel_size: 3
    stride: 1
    pad: 1
  }
}
layers {
  bottom: "pool5"
  top: "fc6"
  name: "fc6"
  type: CONVOLUTION
  blobs_lr: 1
  blobs_lr: 2
  weight_decay: 1
  weight_decay: 0
  convolution_param {
    num_output: 4096
    pad: 6
    kernel_size: 4
    hole: 4
  }
  strict_dim: false
}
layers {
  bottom: "fc6"
  top: "fc6"
  name: "relu6"
  type: RELU
}
layers {
  bottom: "fc6"
  top: "fc6"
  name: "drop6"
  type: DROPOUT
  dropout_param {
    dropout_ratio: 0.5
  }
}
layers {
  bottom: "fc6"
  top: "fc7"
  name: "fc7"
  type: CONVOLUTION
  blobs_lr: 1
  blobs_lr: 2
  weight_decay: 1
  weight_decay: 0
  convolution_param {
    num_output: 4096
    kernel_size: 1
  }
  strict_dim: false
}
layers {
  bottom: "fc7"
  top: "fc7"
  name: "relu7"
  type: RELU
}
layers {
  bottom: "fc7"
  top: "fc7"
  name: "drop7"
  type: DROPOUT
  dropout_param {
    dropout_ratio: 0.5
  }
}
layers {
  bottom: "fc7"
  top: "fc8_pascal"
  name: "fc8_pascal"
  type: CONVOLUTION
  blobs_lr: 10
  blobs_lr: 20
  weight_decay: 1
  weight_decay: 0
  convolution_param {
    num_output: 21
    kernel_size: 1
    weight_filler {
      type: "gaussian"
      std: 0.01
    }
    bias_filler {
      type: "constant"
      value: 0
    }
  }
  strict_dim: false
}
layers {
  bottom: "label"
  top: "label_shrink"
  name: "label_shrink"
  type: INTERP
  interp_param {
    shrink_factor: 8
    pad_beg: -1
    pad_end: 0
  }
}
layers {
  bottom: "fc8_pascal"
  bottom: "label_shrink"
  name: "loss"
  type: SOFTMAX_LOSS
  include {
    phase: TRAIN
  }
  softmaxloss_param {
    ignore_label: 255
  }
}
layers {
  bottom: "fc8_pascal"
  bottom: "label_shrink"
  top: "accuracy"
  name: "accuracy"
  type: SEG_ACCURACY
  seg_accuracy_param {
    ignore_label: 255
  }
}
state {
  phase: TRAIN
}
I0814 08:44:24.425282 24030 layer_factory.hpp:78] Creating layer data
I0814 08:44:24.425308 24030 net.cpp:67] Creating Layer data
I0814 08:44:24.425321 24030 net.cpp:356] data -> data
I0814 08:44:24.425343 24030 net.cpp:356] data -> label
I0814 08:44:24.425359 24030 net.cpp:356] data -> (automatic)
I0814 08:44:24.425370 24030 net.cpp:96] Setting up data
I0814 08:44:24.425384 24030 image_seg_data_layer.cpp:45] Opening file voc12/list/train_aug.txt
I0814 08:44:24.435112 24030 image_seg_data_layer.cpp:62] Shuffling data
I0814 08:44:24.436864 24030 image_seg_data_layer.cpp:67] A total of 10582 images.
I0814 08:44:24.440656 24030 image_seg_data_layer.cpp:113] output data size: 20,3,306,306
I0814 08:44:24.440678 24030 image_seg_data_layer.cpp:117] output label size: 20,1,306,306
I0814 08:44:24.440690 24030 image_seg_data_layer.cpp:121] output data_dim size: 20,1,1,2
I0814 08:44:24.451035 24030 net.cpp:103] Top shape: 20 3 306 306 (5618160)
I0814 08:44:24.451050 24030 net.cpp:103] Top shape: 20 1 306 306 (1872720)
I0814 08:44:24.451059 24030 net.cpp:103] Top shape: 20 1 1 2 (40)
I0814 08:44:24.451079 24030 layer_factory.hpp:78] Creating layer conv1_1
I0814 08:44:24.451097 24030 net.cpp:67] Creating Layer conv1_1
I0814 08:44:24.451105 24030 net.cpp:394] conv1_1 <- data
I0814 08:44:24.451117 24030 net.cpp:356] conv1_1 -> conv1_1
I0814 08:44:24.451129 24030 net.cpp:96] Setting up conv1_1
I0814 08:44:24.451198 24030 net.cpp:103] Top shape: 20 64 306 306 (119854080)
I0814 08:44:24.451218 24030 layer_factory.hpp:78] Creating layer relu1_1
I0814 08:44:24.451230 24030 net.cpp:67] Creating Layer relu1_1
I0814 08:44:24.451239 24030 net.cpp:394] relu1_1 <- conv1_1
I0814 08:44:24.451248 24030 net.cpp:345] relu1_1 -> conv1_1 (in-place)
I0814 08:44:24.451259 24030 net.cpp:96] Setting up relu1_1
I0814 08:44:24.451270 24030 net.cpp:103] Top shape: 20 64 306 306 (119854080)
I0814 08:44:24.451282 24030 layer_factory.hpp:78] Creating layer conv1_2
I0814 08:44:24.451289 24030 net.cpp:67] Creating Layer conv1_2
I0814 08:44:24.451298 24030 net.cpp:394] conv1_2 <- conv1_1
I0814 08:44:24.451308 24030 net.cpp:356] conv1_2 -> conv1_2
I0814 08:44:24.451319 24030 net.cpp:96] Setting up conv1_2
I0814 08:44:24.451462 24030 net.cpp:103] Top shape: 20 64 306 306 (119854080)
I0814 08:44:24.451478 24030 layer_factory.hpp:78] Creating layer relu1_2
I0814 08:44:24.451491 24030 net.cpp:67] Creating Layer relu1_2
I0814 08:44:24.451501 24030 net.cpp:394] relu1_2 <- conv1_2
I0814 08:44:24.451511 24030 net.cpp:345] relu1_2 -> conv1_2 (in-place)
I0814 08:44:24.451525 24030 net.cpp:96] Setting up relu1_2
I0814 08:44:24.451539 24030 net.cpp:103] Top shape: 20 64 306 306 (119854080)
I0814 08:44:24.451549 24030 layer_factory.hpp:78] Creating layer pool1
I0814 08:44:24.451557 24030 net.cpp:67] Creating Layer pool1
I0814 08:44:24.451566 24030 net.cpp:394] pool1 <- conv1_2
I0814 08:44:24.451578 24030 net.cpp:356] pool1 -> pool1
I0814 08:44:24.451591 24030 net.cpp:96] Setting up pool1
I0814 08:44:24.451608 24030 net.cpp:103] Top shape: 20 64 154 154 (30356480)
I0814 08:44:24.451620 24030 layer_factory.hpp:78] Creating layer conv2_1
I0814 08:44:24.451633 24030 net.cpp:67] Creating Layer conv2_1
I0814 08:44:24.451643 24030 net.cpp:394] conv2_1 <- pool1
I0814 08:44:24.451654 24030 net.cpp:356] conv2_1 -> conv2_1
I0814 08:44:24.451666 24030 net.cpp:96] Setting up conv2_1
I0814 08:44:24.451839 24030 net.cpp:103] Top shape: 20 128 154 154 (60712960)
I0814 08:44:24.451858 24030 layer_factory.hpp:78] Creating layer relu2_1
I0814 08:44:24.451869 24030 net.cpp:67] Creating Layer relu2_1
I0814 08:44:24.451879 24030 net.cpp:394] relu2_1 <- conv2_1
I0814 08:44:24.451889 24030 net.cpp:345] relu2_1 -> conv2_1 (in-place)
I0814 08:44:24.451902 24030 net.cpp:96] Setting up relu2_1
I0814 08:44:24.451912 24030 net.cpp:103] Top shape: 20 128 154 154 (60712960)
I0814 08:44:24.451922 24030 layer_factory.hpp:78] Creating layer conv2_2
I0814 08:44:24.451931 24030 net.cpp:67] Creating Layer conv2_2
I0814 08:44:24.451953 24030 net.cpp:394] conv2_2 <- conv2_1
I0814 08:44:24.451968 24030 net.cpp:356] conv2_2 -> conv2_2
I0814 08:44:24.451984 24030 net.cpp:96] Setting up conv2_2
I0814 08:44:24.452467 24030 net.cpp:103] Top shape: 20 128 154 154 (60712960)
I0814 08:44:24.452483 24030 layer_factory.hpp:78] Creating layer relu2_2
I0814 08:44:24.452497 24030 net.cpp:67] Creating Layer relu2_2
I0814 08:44:24.452509 24030 net.cpp:394] relu2_2 <- conv2_2
I0814 08:44:24.452523 24030 net.cpp:345] relu2_2 -> conv2_2 (in-place)
I0814 08:44:24.452561 24030 net.cpp:96] Setting up relu2_2
I0814 08:44:24.452574 24030 net.cpp:103] Top shape: 20 128 154 154 (60712960)
I0814 08:44:24.452587 24030 layer_factory.hpp:78] Creating layer pool2
I0814 08:44:24.452602 24030 net.cpp:67] Creating Layer pool2
I0814 08:44:24.452613 24030 net.cpp:394] pool2 <- conv2_2
I0814 08:44:24.452627 24030 net.cpp:356] pool2 -> pool2
I0814 08:44:24.452641 24030 net.cpp:96] Setting up pool2
I0814 08:44:24.452653 24030 net.cpp:103] Top shape: 20 128 78 78 (15575040)
I0814 08:44:24.452666 24030 layer_factory.hpp:78] Creating layer conv3_1
I0814 08:44:24.452679 24030 net.cpp:67] Creating Layer conv3_1
I0814 08:44:24.452689 24030 net.cpp:394] conv3_1 <- pool2
I0814 08:44:24.452699 24030 net.cpp:356] conv3_1 -> conv3_1
I0814 08:44:24.452711 24030 net.cpp:96] Setting up conv3_1
I0814 08:44:24.453439 24030 net.cpp:103] Top shape: 20 256 78 78 (31150080)
I0814 08:44:24.453459 24030 layer_factory.hpp:78] Creating layer relu3_1
I0814 08:44:24.453474 24030 net.cpp:67] Creating Layer relu3_1
I0814 08:44:24.453487 24030 net.cpp:394] relu3_1 <- conv3_1
I0814 08:44:24.453501 24030 net.cpp:345] relu3_1 -> conv3_1 (in-place)
I0814 08:44:24.453513 24030 net.cpp:96] Setting up relu3_1
I0814 08:44:24.453526 24030 net.cpp:103] Top shape: 20 256 78 78 (31150080)
I0814 08:44:24.453537 24030 layer_factory.hpp:78] Creating layer conv3_2
I0814 08:44:24.453551 24030 net.cpp:67] Creating Layer conv3_2
I0814 08:44:24.453562 24030 net.cpp:394] conv3_2 <- conv3_1
I0814 08:44:24.453577 24030 net.cpp:356] conv3_2 -> conv3_2
I0814 08:44:24.453593 24030 net.cpp:96] Setting up conv3_2
I0814 08:44:24.455178 24030 net.cpp:103] Top shape: 20 256 78 78 (31150080)
I0814 08:44:24.455195 24030 layer_factory.hpp:78] Creating layer relu3_2
I0814 08:44:24.455205 24030 net.cpp:67] Creating Layer relu3_2
I0814 08:44:24.455232 24030 net.cpp:394] relu3_2 <- conv3_2
I0814 08:44:24.455250 24030 net.cpp:345] relu3_2 -> conv3_2 (in-place)
I0814 08:44:24.455262 24030 net.cpp:96] Setting up relu3_2
I0814 08:44:24.455273 24030 net.cpp:103] Top shape: 20 256 78 78 (31150080)
I0814 08:44:24.455286 24030 layer_factory.hpp:78] Creating layer conv3_3
I0814 08:44:24.455299 24030 net.cpp:67] Creating Layer conv3_3
I0814 08:44:24.455310 24030 net.cpp:394] conv3_3 <- conv3_2
I0814 08:44:24.455322 24030 net.cpp:356] conv3_3 -> conv3_3
I0814 08:44:24.455334 24030 net.cpp:96] Setting up conv3_3
I0814 08:44:24.456596 24030 net.cpp:103] Top shape: 20 256 78 78 (31150080)
I0814 08:44:24.456615 24030 layer_factory.hpp:78] Creating layer relu3_3
I0814 08:44:24.456635 24030 net.cpp:67] Creating Layer relu3_3
I0814 08:44:24.456660 24030 net.cpp:394] relu3_3 <- conv3_3
I0814 08:44:24.456675 24030 net.cpp:345] relu3_3 -> conv3_3 (in-place)
I0814 08:44:24.456686 24030 net.cpp:96] Setting up relu3_3
I0814 08:44:24.456697 24030 net.cpp:103] Top shape: 20 256 78 78 (31150080)
I0814 08:44:24.456707 24030 layer_factory.hpp:78] Creating layer pool3
I0814 08:44:24.456718 24030 net.cpp:67] Creating Layer pool3
I0814 08:44:24.456728 24030 net.cpp:394] pool3 <- conv3_3
I0814 08:44:24.456738 24030 net.cpp:356] pool3 -> pool3
I0814 08:44:24.456750 24030 net.cpp:96] Setting up pool3
I0814 08:44:24.456761 24030 net.cpp:103] Top shape: 20 256 40 40 (8192000)
I0814 08:44:24.456773 24030 layer_factory.hpp:78] Creating layer conv4_1
I0814 08:44:24.456781 24030 net.cpp:67] Creating Layer conv4_1
I0814 08:44:24.456791 24030 net.cpp:394] conv4_1 <- pool3
I0814 08:44:24.456804 24030 net.cpp:356] conv4_1 -> conv4_1
I0814 08:44:24.456817 24030 net.cpp:96] Setting up conv4_1
I0814 08:44:24.459020 24030 net.cpp:103] Top shape: 20 512 40 40 (16384000)
I0814 08:44:24.459055 24030 layer_factory.hpp:78] Creating layer relu4_1
I0814 08:44:24.459087 24030 net.cpp:67] Creating Layer relu4_1
I0814 08:44:24.459100 24030 net.cpp:394] relu4_1 <- conv4_1
I0814 08:44:24.459111 24030 net.cpp:345] relu4_1 -> conv4_1 (in-place)
I0814 08:44:24.459125 24030 net.cpp:96] Setting up relu4_1
I0814 08:44:24.459136 24030 net.cpp:103] Top shape: 20 512 40 40 (16384000)
I0814 08:44:24.459166 24030 layer_factory.hpp:78] Creating layer conv4_2
I0814 08:44:24.459179 24030 net.cpp:67] Creating Layer conv4_2
I0814 08:44:24.459189 24030 net.cpp:394] conv4_2 <- conv4_1
I0814 08:44:24.459203 24030 net.cpp:356] conv4_2 -> conv4_2
I0814 08:44:24.459215 24030 net.cpp:96] Setting up conv4_2
I0814 08:44:24.463804 24030 net.cpp:103] Top shape: 20 512 40 40 (16384000)
I0814 08:44:24.463840 24030 layer_factory.hpp:78] Creating layer relu4_2
I0814 08:44:24.463851 24030 net.cpp:67] Creating Layer relu4_2
I0814 08:44:24.463882 24030 net.cpp:394] relu4_2 <- conv4_2
I0814 08:44:24.463899 24030 net.cpp:345] relu4_2 -> conv4_2 (in-place)
I0814 08:44:24.463917 24030 net.cpp:96] Setting up relu4_2
I0814 08:44:24.463927 24030 net.cpp:103] Top shape: 20 512 40 40 (16384000)
I0814 08:44:24.463937 24030 layer_factory.hpp:78] Creating layer conv4_3
I0814 08:44:24.463948 24030 net.cpp:67] Creating Layer conv4_3
I0814 08:44:24.463958 24030 net.cpp:394] conv4_3 <- conv4_2
I0814 08:44:24.463968 24030 net.cpp:356] conv4_3 -> conv4_3
I0814 08:44:24.463980 24030 net.cpp:96] Setting up conv4_3
I0814 08:44:24.468345 24030 net.cpp:103] Top shape: 20 512 40 40 (16384000)
I0814 08:44:24.468377 24030 layer_factory.hpp:78] Creating layer relu4_3
I0814 08:44:24.468389 24030 net.cpp:67] Creating Layer relu4_3
I0814 08:44:24.468399 24030 net.cpp:394] relu4_3 <- conv4_3
I0814 08:44:24.468437 24030 net.cpp:345] relu4_3 -> conv4_3 (in-place)
I0814 08:44:24.468449 24030 net.cpp:96] Setting up relu4_3
I0814 08:44:24.468458 24030 net.cpp:103] Top shape: 20 512 40 40 (16384000)
I0814 08:44:24.468472 24030 layer_factory.hpp:78] Creating layer pool4
I0814 08:44:24.468482 24030 net.cpp:67] Creating Layer pool4
I0814 08:44:24.468492 24030 net.cpp:394] pool4 <- conv4_3
I0814 08:44:24.468503 24030 net.cpp:356] pool4 -> pool4
I0814 08:44:24.468515 24030 net.cpp:96] Setting up pool4
I0814 08:44:24.468528 24030 net.cpp:103] Top shape: 20 512 39 39 (15575040)
I0814 08:44:24.468538 24030 layer_factory.hpp:78] Creating layer conv5_1
I0814 08:44:24.468550 24030 net.cpp:67] Creating Layer conv5_1
I0814 08:44:24.468561 24030 net.cpp:394] conv5_1 <- pool4
I0814 08:44:24.468571 24030 net.cpp:356] conv5_1 -> conv5_1
I0814 08:44:24.468585 24030 net.cpp:96] Setting up conv5_1
I0814 08:44:24.472915 24030 net.cpp:103] Top shape: 20 512 39 39 (15575040)
I0814 08:44:24.472959 24030 layer_factory.hpp:78] Creating layer relu5_1
I0814 08:44:24.472970 24030 net.cpp:67] Creating Layer relu5_1
I0814 08:44:24.473011 24030 net.cpp:394] relu5_1 <- conv5_1
I0814 08:44:24.473024 24030 net.cpp:345] relu5_1 -> conv5_1 (in-place)
I0814 08:44:24.473042 24030 net.cpp:96] Setting up relu5_1
I0814 08:44:24.473054 24030 net.cpp:103] Top shape: 20 512 39 39 (15575040)
I0814 08:44:24.473064 24030 layer_factory.hpp:78] Creating layer conv5_2
I0814 08:44:24.473078 24030 net.cpp:67] Creating Layer conv5_2
I0814 08:44:24.473088 24030 net.cpp:394] conv5_2 <- conv5_1
I0814 08:44:24.473098 24030 net.cpp:356] conv5_2 -> conv5_2
I0814 08:44:24.473111 24030 net.cpp:96] Setting up conv5_2
I0814 08:44:24.477231 24030 net.cpp:103] Top shape: 20 512 39 39 (15575040)
I0814 08:44:24.477264 24030 layer_factory.hpp:78] Creating layer relu5_2
I0814 08:44:24.477277 24030 net.cpp:67] Creating Layer relu5_2
I0814 08:44:24.477308 24030 net.cpp:394] relu5_2 <- conv5_2
I0814 08:44:24.477324 24030 net.cpp:345] relu5_2 -> conv5_2 (in-place)
I0814 08:44:24.477345 24030 net.cpp:96] Setting up relu5_2
I0814 08:44:24.477355 24030 net.cpp:103] Top shape: 20 512 39 39 (15575040)
I0814 08:44:24.477368 24030 layer_factory.hpp:78] Creating layer conv5_3
I0814 08:44:24.477382 24030 net.cpp:67] Creating Layer conv5_3
I0814 08:44:24.477393 24030 net.cpp:394] conv5_3 <- conv5_2
I0814 08:44:24.477404 24030 net.cpp:356] conv5_3 -> conv5_3
I0814 08:44:24.477429 24030 net.cpp:96] Setting up conv5_3
I0814 08:44:24.481703 24030 net.cpp:103] Top shape: 20 512 39 39 (15575040)
I0814 08:44:24.481737 24030 layer_factory.hpp:78] Creating layer relu5_3
I0814 08:44:24.481777 24030 net.cpp:67] Creating Layer relu5_3
I0814 08:44:24.481793 24030 net.cpp:394] relu5_3 <- conv5_3
I0814 08:44:24.481834 24030 net.cpp:345] relu5_3 -> conv5_3 (in-place)
I0814 08:44:24.481849 24030 net.cpp:96] Setting up relu5_3
I0814 08:44:24.481860 24030 net.cpp:103] Top shape: 20 512 39 39 (15575040)
I0814 08:44:24.481870 24030 layer_factory.hpp:78] Creating layer pool5
I0814 08:44:24.481884 24030 net.cpp:67] Creating Layer pool5
I0814 08:44:24.481894 24030 net.cpp:394] pool5 <- conv5_3
I0814 08:44:24.481905 24030 net.cpp:356] pool5 -> pool5
I0814 08:44:24.481919 24030 net.cpp:96] Setting up pool5
I0814 08:44:24.481930 24030 net.cpp:103] Top shape: 20 512 39 39 (15575040)
I0814 08:44:24.481940 24030 layer_factory.hpp:78] Creating layer fc6
I0814 08:44:24.481955 24030 net.cpp:67] Creating Layer fc6
I0814 08:44:24.481964 24030 net.cpp:394] fc6 <- pool5
I0814 08:44:24.481977 24030 net.cpp:356] fc6 -> fc6
I0814 08:44:24.481989 24030 net.cpp:96] Setting up fc6
I0814 08:44:24.541337 24030 net.cpp:103] Top shape: 20 4096 39 39 (124600320)
I0814 08:44:24.541380 24030 layer_factory.hpp:78] Creating layer relu6
I0814 08:44:24.541393 24030 net.cpp:67] Creating Layer relu6
I0814 08:44:24.541436 24030 net.cpp:394] relu6 <- fc6
I0814 08:44:24.541451 24030 net.cpp:345] relu6 -> fc6 (in-place)
I0814 08:44:24.541463 24030 net.cpp:96] Setting up relu6
I0814 08:44:24.541472 24030 net.cpp:103] Top shape: 20 4096 39 39 (124600320)
I0814 08:44:24.541482 24030 layer_factory.hpp:78] Creating layer drop6
I0814 08:44:24.541501 24030 net.cpp:67] Creating Layer drop6
I0814 08:44:24.541509 24030 net.cpp:394] drop6 <- fc6
I0814 08:44:24.541519 24030 net.cpp:345] drop6 -> fc6 (in-place)
I0814 08:44:24.541530 24030 net.cpp:96] Setting up drop6
I0814 08:44:24.541543 24030 net.cpp:103] Top shape: 20 4096 39 39 (124600320)
I0814 08:44:24.541553 24030 layer_factory.hpp:78] Creating layer fc7
I0814 08:44:24.541563 24030 net.cpp:67] Creating Layer fc7
I0814 08:44:24.541574 24030 net.cpp:394] fc7 <- fc6
I0814 08:44:24.541584 24030 net.cpp:356] fc7 -> fc7
I0814 08:44:24.541595 24030 net.cpp:96] Setting up fc7
I0814 08:44:24.570866 24030 net.cpp:103] Top shape: 20 4096 39 39 (124600320)
I0814 08:44:24.570919 24030 layer_factory.hpp:78] Creating layer relu7
I0814 08:44:24.570931 24030 net.cpp:67] Creating Layer relu7
I0814 08:44:24.570991 24030 net.cpp:394] relu7 <- fc7
I0814 08:44:24.571020 24030 net.cpp:345] relu7 -> fc7 (in-place)
I0814 08:44:24.571038 24030 net.cpp:96] Setting up relu7
I0814 08:44:24.571051 24030 net.cpp:103] Top shape: 20 4096 39 39 (124600320)
I0814 08:44:24.571074 24030 layer_factory.hpp:78] Creating layer drop7
I0814 08:44:24.571086 24030 net.cpp:67] Creating Layer drop7
I0814 08:44:24.571095 24030 net.cpp:394] drop7 <- fc7
I0814 08:44:24.571106 24030 net.cpp:345] drop7 -> fc7 (in-place)
I0814 08:44:24.571117 24030 net.cpp:96] Setting up drop7
I0814 08:44:24.571140 24030 net.cpp:103] Top shape: 20 4096 39 39 (124600320)
I0814 08:44:24.571149 24030 layer_factory.hpp:78] Creating layer fc8_pascal
I0814 08:44:24.571161 24030 net.cpp:67] Creating Layer fc8_pascal
I0814 08:44:24.571171 24030 net.cpp:394] fc8_pascal <- fc7
I0814 08:44:24.571182 24030 net.cpp:356] fc8_pascal -> fc8_pascal
I0814 08:44:24.571193 24030 net.cpp:96] Setting up fc8_pascal
I0814 08:44:24.573921 24030 net.cpp:103] Top shape: 20 21 39 39 (638820)
I0814 08:44:24.573940 24030 layer_factory.hpp:78] Creating layer fc8_pascal_fc8_pascal_0_split
I0814 08:44:24.573953 24030 net.cpp:67] Creating Layer fc8_pascal_fc8_pascal_0_split
I0814 08:44:24.573964 24030 net.cpp:394] fc8_pascal_fc8_pascal_0_split <- fc8_pascal
I0814 08:44:24.573977 24030 net.cpp:356] fc8_pascal_fc8_pascal_0_split -> fc8_pascal_fc8_pascal_0_split_0
I0814 08:44:24.573990 24030 net.cpp:356] fc8_pascal_fc8_pascal_0_split -> fc8_pascal_fc8_pascal_0_split_1
I0814 08:44:24.574002 24030 net.cpp:96] Setting up fc8_pascal_fc8_pascal_0_split
I0814 08:44:24.574014 24030 net.cpp:103] Top shape: 20 21 39 39 (638820)
I0814 08:44:24.574024 24030 net.cpp:103] Top shape: 20 21 39 39 (638820)
I0814 08:44:24.574033 24030 layer_factory.hpp:78] Creating layer label_shrink
I0814 08:44:24.574072 24030 net.cpp:67] Creating Layer label_shrink
I0814 08:44:24.574084 24030 net.cpp:394] label_shrink <- label
I0814 08:44:24.574096 24030 net.cpp:356] label_shrink -> label_shrink
I0814 08:44:24.574108 24030 net.cpp:96] Setting up label_shrink
I0814 08:44:24.574121 24030 net.cpp:103] Top shape: 20 1 39 39 (30420)
I0814 08:44:24.574131 24030 layer_factory.hpp:78] Creating layer label_shrink_label_shrink_0_split
I0814 08:44:24.574141 24030 net.cpp:67] Creating Layer label_shrink_label_shrink_0_split
I0814 08:44:24.574151 24030 net.cpp:394] label_shrink_label_shrink_0_split <- label_shrink
I0814 08:44:24.574162 24030 net.cpp:356] label_shrink_label_shrink_0_split -> label_shrink_label_shrink_0_split_0
I0814 08:44:24.574173 24030 net.cpp:356] label_shrink_label_shrink_0_split -> label_shrink_label_shrink_0_split_1
I0814 08:44:24.574184 24030 net.cpp:96] Setting up label_shrink_label_shrink_0_split
I0814 08:44:24.574194 24030 net.cpp:103] Top shape: 20 1 39 39 (30420)
I0814 08:44:24.574204 24030 net.cpp:103] Top shape: 20 1 39 39 (30420)
I0814 08:44:24.574213 24030 layer_factory.hpp:78] Creating layer loss
I0814 08:44:24.574229 24030 net.cpp:67] Creating Layer loss
I0814 08:44:24.574239 24030 net.cpp:394] loss <- fc8_pascal_fc8_pascal_0_split_0
I0814 08:44:24.574250 24030 net.cpp:394] loss <- label_shrink_label_shrink_0_split_0
I0814 08:44:24.574262 24030 net.cpp:356] loss -> (automatic)
I0814 08:44:24.574275 24030 net.cpp:96] Setting up loss
I0814 08:44:24.574288 24030 softmax_loss_layer.cpp:40] Weight_Loss file is not provided. Assign all one to it.
I0814 08:44:24.574303 24030 net.cpp:103] Top shape: 1 1 1 1 (1)
I0814 08:44:24.574313 24030 net.cpp:109]     with loss weight 1
I0814 08:44:24.574343 24030 layer_factory.hpp:78] Creating layer accuracy
I0814 08:44:24.574360 24030 net.cpp:67] Creating Layer accuracy
I0814 08:44:24.574370 24030 net.cpp:394] accuracy <- fc8_pascal_fc8_pascal_0_split_1
I0814 08:44:24.574381 24030 net.cpp:394] accuracy <- label_shrink_label_shrink_0_split_1
I0814 08:44:24.574393 24030 net.cpp:356] accuracy -> accuracy
I0814 08:44:24.574405 24030 net.cpp:96] Setting up accuracy
I0814 08:44:24.574421 24030 net.cpp:103] Top shape: 1 1 1 3 (3)
I0814 08:44:24.574432 24030 net.cpp:172] accuracy does not need backward computation.
I0814 08:44:24.574441 24030 net.cpp:170] loss needs backward computation.
I0814 08:44:24.574450 24030 net.cpp:172] label_shrink_label_shrink_0_split does not need backward computation.
I0814 08:44:24.574460 24030 net.cpp:172] label_shrink does not need backward computation.
I0814 08:44:24.574470 24030 net.cpp:170] fc8_pascal_fc8_pascal_0_split needs backward computation.
…
