…
I0814 23:35:02.584997  8614 net.cpp:275] The NetState phase (0) differed from the phase (1) specified by a rule in layer fc8_mat
I0814 23:35:02.585214  8614 net.cpp:39] Initializing net from parameters: 
name: "vgg128_noup"
layers {
  top: "data"
  top: "label"
  name: "data"
  type: IMAGE_SEG_DATA
  image_data_param {
    source: "voc12/list/train_aug.txt"
    batch_size: 20
    shuffle: true
    root_folder: "/media/Work_SSD/ali/VOCdevkit/VOC2012"
    label_type: PIXEL
  }
  include {
    phase: TRAIN
  }
  transform_param {
    mirror: true
    crop_size: 306
    mean_value: 104.008
    mean_value: 116.669
    mean_value: 122.675
  }
}
layers {
  bottom: "data"
  top: "conv1_1"
  name: "conv1_1"
  type: CONVOLUTION
  blobs_lr: 1
  blobs_lr: 2
  weight_decay: 1
  weight_decay: 0
  convolution_param {
    num_output: 64
    pad: 1
    kernel_size: 3
  }
}
layers {
  bottom: "conv1_1"
  top: "conv1_1"
  name: "relu1_1"
  type: RELU
}
layers {
  bottom: "conv1_1"
  top: "conv1_2"
  name: "conv1_2"
  type: CONVOLUTION
  blobs_lr: 1
  blobs_lr: 2
  weight_decay: 1
  weight_decay: 0
  convolution_param {
    num_output: 64
    pad: 1
    kernel_size: 3
  }
}
layers {
  bottom: "conv1_2"
  top: "conv1_2"
  name: "relu1_2"
  type: RELU
}
layers {
  bottom: "conv1_2"
  top: "pool1"
  name: "pool1"
  type: POOLING
  pooling_param {
    pool: MAX
    kernel_size: 2
    stride: 2
    pad: 1
  }
}
layers {
  bottom: "pool1"
  top: "conv2_1"
  name: "conv2_1"
  type: CONVOLUTION
  blobs_lr: 1
  blobs_lr: 2
  weight_decay: 1
  weight_decay: 0
  convolution_param {
    num_output: 128
    pad: 1
    kernel_size: 3
  }
}
layers {
  bottom: "conv2_1"
  top: "conv2_1"
  name: "relu2_1"
  type: RELU
}
layers {
  bottom: "conv2_1"
  top: "conv2_2"
  name: "conv2_2"
  type: CONVOLUTION
  blobs_lr: 1
  blobs_lr: 2
  weight_decay: 1
  weight_decay: 0
  convolution_param {
    num_output: 128
    pad: 1
    kernel_size: 3
  }
}
layers {
  bottom: "conv2_2"
  top: "conv2_2"
  name: "relu2_2"
  type: RELU
}
layers {
  bottom: "conv2_2"
  top: "pool2"
  name: "pool2"
  type: POOLING
  pooling_param {
    pool: MAX
    kernel_size: 2
    stride: 2
    pad: 1
  }
}
layers {
  bottom: "pool2"
  top: "conv3_1"
  name: "conv3_1"
  type: CONVOLUTION
  blobs_lr: 1
  blobs_lr: 2
  weight_decay: 1
  weight_decay: 0
  convolution_param {
    num_output: 256
    pad: 1
    kernel_size: 3
  }
}
layers {
  bottom: "conv3_1"
  top: "conv3_1"
  name: "relu3_1"
  type: RELU
}
layers {
  bottom: "conv3_1"
  top: "conv3_2"
  name: "conv3_2"
  type: CONVOLUTION
  blobs_lr: 1
  blobs_lr: 2
  weight_decay: 1
  weight_decay: 0
  convolution_param {
    num_output: 256
    pad: 1
    kernel_size: 3
  }
}
layers {
  bottom: "conv3_2"
  top: "conv3_2"
  name: "relu3_2"
  type: RELU
}
layers {
  bottom: "conv3_2"
  top: "conv3_3"
  name: "conv3_3"
  type: CONVOLUTION
  blobs_lr: 1
  blobs_lr: 2
  weight_decay: 1
  weight_decay: 0
  convolution_param {
    num_output: 256
    pad: 1
    kernel_size: 3
  }
}
layers {
  bottom: "conv3_3"
  top: "conv3_3"
  name: "relu3_3"
  type: RELU
}
layers {
  bottom: "conv3_3"
  top: "pool3"
  name: "pool3"
  type: POOLING
  pooling_param {
    pool: MAX
    kernel_size: 2
    stride: 2
    pad: 1
  }
}
layers {
  bottom: "pool3"
  top: "conv4_1"
  name: "conv4_1"
  type: CONVOLUTION
  blobs_lr: 1
  blobs_lr: 2
  weight_decay: 1
  weight_decay: 0
  convolution_param {
    num_output: 512
    pad: 1
    kernel_size: 3
  }
}
layers {
  bottom: "conv4_1"
  top: "conv4_1"
  name: "relu4_1"
  type: RELU
}
layers {
  bottom: "conv4_1"
  top: "conv4_2"
  name: "conv4_2"
  type: CONVOLUTION
  blobs_lr: 1
  blobs_lr: 2
  weight_decay: 1
  weight_decay: 0
  convolution_param {
    num_output: 512
    pad: 1
    kernel_size: 3
  }
}
layers {
  bottom: "conv4_2"
  top: "conv4_2"
  name: "relu4_2"
  type: RELU
}
layers {
  bottom: "conv4_2"
  top: "conv4_3"
  name: "conv4_3"
  type: CONVOLUTION
  blobs_lr: 1
  blobs_lr: 2
  weight_decay: 1
  weight_decay: 0
  convolution_param {
    num_output: 512
    pad: 1
    kernel_size: 3
  }
}
layers {
  bottom: "conv4_3"
  top: "conv4_3"
  name: "relu4_3"
  type: RELU
}
layers {
  bottom: "conv4_3"
  top: "pool4"
  name: "pool4"
  type: POOLING
  pooling_param {
    pool: MAX
    kernel_size: 2
    stride: 1
  }
}
layers {
  bottom: "pool4"
  top: "conv5_1"
  name: "conv5_1"
  type: CONVOLUTION
  blobs_lr: 1
  blobs_lr: 2
  weight_decay: 1
  weight_decay: 0
  convolution_param {
    num_output: 512
    pad: 2
    kernel_size: 3
    hole: 2
  }
}
layers {
  bottom: "conv5_1"
  top: "conv5_1"
  name: "relu5_1"
  type: RELU
}
layers {
  bottom: "conv5_1"
  top: "conv5_2"
  name: "conv5_2"
  type: CONVOLUTION
  blobs_lr: 1
  blobs_lr: 2
  weight_decay: 1
  weight_decay: 0
  convolution_param {
    num_output: 512
    pad: 2
    kernel_size: 3
    hole: 2
  }
}
layers {
  bottom: "conv5_2"
  top: "conv5_2"
  name: "relu5_2"
  type: RELU
}
layers {
  bottom: "conv5_2"
  top: "conv5_3"
  name: "conv5_3"
  type: CONVOLUTION
  blobs_lr: 1
  blobs_lr: 2
  weight_decay: 1
  weight_decay: 0
  convolution_param {
    num_output: 512
    pad: 2
    kernel_size: 3
    hole: 2
  }
}
layers {
  bottom: "conv5_3"
  top: "conv5_3"
  name: "relu5_3"
  type: RELU
}
layers {
  bottom: "conv5_3"
  top: "pool5"
  name: "pool5"
  type: POOLING
  pooling_param {
    pool: MAX
    kernel_size: 3
    stride: 1
    pad: 1
  }
}
layers {
  bottom: "pool5"
  top: "fc6"
  name: "fc6"
  type: CONVOLUTION
  blobs_lr: 1
  blobs_lr: 2
  weight_decay: 1
  weight_decay: 0
  convolution_param {
    num_output: 4096
    pad: 6
    kernel_size: 4
    hole: 4
  }
  strict_dim: false
}
layers {
  bottom: "fc6"
  top: "fc6"
  name: "relu6"
  type: RELU
}
layers {
  bottom: "fc6"
  top: "fc6"
  name: "drop6"
  type: DROPOUT
  dropout_param {
    dropout_ratio: 0.5
  }
}
layers {
  bottom: "fc6"
  top: "fc7"
  name: "fc7"
  type: CONVOLUTION
  blobs_lr: 1
  blobs_lr: 2
  weight_decay: 1
  weight_decay: 0
  convolution_param {
    num_output: 4096
    kernel_size: 1
  }
  strict_dim: false
}
layers {
  bottom: "fc7"
  top: "fc7"
  name: "relu7"
  type: RELU
}
layers {
  bottom: "fc7"
  top: "fc7"
  name: "drop7"
  type: DROPOUT
  dropout_param {
    dropout_ratio: 0.5
  }
}
layers {
  bottom: "fc7"
  top: "fc8_pascal"
  name: "fc8_pascal"
  type: CONVOLUTION
  blobs_lr: 10
  blobs_lr: 20
  weight_decay: 1
  weight_decay: 0
  convolution_param {
    num_output: 21
    kernel_size: 1
    weight_filler {
      type: "gaussian"
      std: 0.01
    }
    bias_filler {
      type: "constant"
      value: 0
    }
  }
  strict_dim: false
}
layers {
  bottom: "label"
  top: "label_shrink"
  name: "label_shrink"
  type: INTERP
  interp_param {
    shrink_factor: 8
    pad_beg: -1
    pad_end: 0
  }
}
layers {
  bottom: "fc8_pascal"
  bottom: "label_shrink"
  name: "loss"
  type: SOFTMAX_LOSS
  include {
    phase: TRAIN
  }
  softmaxloss_param {
    ignore_label: 255
  }
}
layers {
  bottom: "fc8_pascal"
  bottom: "label_shrink"
  top: "accuracy"
  name: "accuracy"
  type: SEG_ACCURACY
  seg_accuracy_param {
    ignore_label: 255
  }
}
state {
  phase: TRAIN
}
I0814 23:35:02.588012  8614 layer_factory.hpp:78] Creating layer data
I0814 23:35:02.588037  8614 net.cpp:67] Creating Layer data
I0814 23:35:02.588047  8614 net.cpp:356] data -> data
I0814 23:35:02.588084  8614 net.cpp:356] data -> label
I0814 23:35:02.588107  8614 net.cpp:356] data -> (automatic)
I0814 23:35:02.588134  8614 net.cpp:96] Setting up data
I0814 23:35:02.588147  8614 image_seg_data_layer.cpp:45] Opening file voc12/list/train_aug.txt
I0814 23:35:02.597923  8614 image_seg_data_layer.cpp:62] Shuffling data
I0814 23:35:02.599699  8614 image_seg_data_layer.cpp:67] A total of 10582 images.
I0814 23:35:02.602526  8614 image_seg_data_layer.cpp:113] output data size: 20,3,306,306
I0814 23:35:02.602542  8614 image_seg_data_layer.cpp:117] output label size: 20,1,306,306
I0814 23:35:02.602561  8614 image_seg_data_layer.cpp:121] output data_dim size: 20,1,1,2
I0814 23:35:02.612812  8614 net.cpp:103] Top shape: 20 3 306 306 (5618160)
I0814 23:35:02.612828  8614 net.cpp:103] Top shape: 20 1 306 306 (1872720)
I0814 23:35:02.612848  8614 net.cpp:103] Top shape: 20 1 1 2 (40)
I0814 23:35:02.612869  8614 layer_factory.hpp:78] Creating layer conv1_1
I0814 23:35:02.612885  8614 net.cpp:67] Creating Layer conv1_1
I0814 23:35:02.612893  8614 net.cpp:394] conv1_1 <- data
I0814 23:35:02.612905  8614 net.cpp:356] conv1_1 -> conv1_1
I0814 23:35:02.612916  8614 net.cpp:96] Setting up conv1_1
I0814 23:35:02.612984  8614 net.cpp:103] Top shape: 20 64 306 306 (119854080)
I0814 23:35:02.613020  8614 layer_factory.hpp:78] Creating layer relu1_1
I0814 23:35:02.613037  8614 net.cpp:67] Creating Layer relu1_1
I0814 23:35:02.613050  8614 net.cpp:394] relu1_1 <- conv1_1
I0814 23:35:02.613073  8614 net.cpp:345] relu1_1 -> conv1_1 (in-place)
I0814 23:35:02.613085  8614 net.cpp:96] Setting up relu1_1
I0814 23:35:02.613095  8614 net.cpp:103] Top shape: 20 64 306 306 (119854080)
I0814 23:35:02.613102  8614 layer_factory.hpp:78] Creating layer conv1_2
I0814 23:35:02.613111  8614 net.cpp:67] Creating Layer conv1_2
I0814 23:35:02.613118  8614 net.cpp:394] conv1_2 <- conv1_1
I0814 23:35:02.613127  8614 net.cpp:356] conv1_2 -> conv1_2
I0814 23:35:02.613137  8614 net.cpp:96] Setting up conv1_2
I0814 23:35:02.613405  8614 net.cpp:103] Top shape: 20 64 306 306 (119854080)
I0814 23:35:02.613435  8614 layer_factory.hpp:78] Creating layer relu1_2
I0814 23:35:02.613447  8614 net.cpp:67] Creating Layer relu1_2
I0814 23:35:02.613458  8614 net.cpp:394] relu1_2 <- conv1_2
I0814 23:35:02.613469  8614 net.cpp:345] relu1_2 -> conv1_2 (in-place)
I0814 23:35:02.613478  8614 net.cpp:96] Setting up relu1_2
I0814 23:35:02.613489  8614 net.cpp:103] Top shape: 20 64 306 306 (119854080)
I0814 23:35:02.613503  8614 layer_factory.hpp:78] Creating layer pool1
I0814 23:35:02.613535  8614 net.cpp:67] Creating Layer pool1
I0814 23:35:02.613550  8614 net.cpp:394] pool1 <- conv1_2
I0814 23:35:02.613565  8614 net.cpp:356] pool1 -> pool1
I0814 23:35:02.613590  8614 net.cpp:96] Setting up pool1
I0814 23:35:02.613613  8614 net.cpp:103] Top shape: 20 64 154 154 (30356480)
I0814 23:35:02.613626  8614 layer_factory.hpp:78] Creating layer conv2_1
I0814 23:35:02.613637  8614 net.cpp:67] Creating Layer conv2_1
I0814 23:35:02.613648  8614 net.cpp:394] conv2_1 <- pool1
I0814 23:35:02.613662  8614 net.cpp:356] conv2_1 -> conv2_1
I0814 23:35:02.613672  8614 net.cpp:96] Setting up conv2_1
I0814 23:35:02.613940  8614 net.cpp:103] Top shape: 20 128 154 154 (60712960)
I0814 23:35:02.613970  8614 layer_factory.hpp:78] Creating layer relu2_1
I0814 23:35:02.613984  8614 net.cpp:67] Creating Layer relu2_1
I0814 23:35:02.613996  8614 net.cpp:394] relu2_1 <- conv2_1
I0814 23:35:02.614006  8614 net.cpp:345] relu2_1 -> conv2_1 (in-place)
I0814 23:35:02.614017  8614 net.cpp:96] Setting up relu2_1
I0814 23:35:02.614025  8614 net.cpp:103] Top shape: 20 128 154 154 (60712960)
I0814 23:35:02.614037  8614 layer_factory.hpp:78] Creating layer conv2_2
I0814 23:35:02.614066  8614 net.cpp:67] Creating Layer conv2_2
I0814 23:35:02.614081  8614 net.cpp:394] conv2_2 <- conv2_1
I0814 23:35:02.614092  8614 net.cpp:356] conv2_2 -> conv2_2
I0814 23:35:02.614114  8614 net.cpp:96] Setting up conv2_2
I0814 23:35:02.614445  8614 net.cpp:103] Top shape: 20 128 154 154 (60712960)
I0814 23:35:02.614476  8614 layer_factory.hpp:78] Creating layer relu2_2
I0814 23:35:02.614486  8614 net.cpp:67] Creating Layer relu2_2
I0814 23:35:02.614501  8614 net.cpp:394] relu2_2 <- conv2_2
I0814 23:35:02.614511  8614 net.cpp:345] relu2_2 -> conv2_2 (in-place)
I0814 23:35:02.614537  8614 net.cpp:96] Setting up relu2_2
I0814 23:35:02.614545  8614 net.cpp:103] Top shape: 20 128 154 154 (60712960)
I0814 23:35:02.614553  8614 layer_factory.hpp:78] Creating layer pool2
I0814 23:35:02.614567  8614 net.cpp:67] Creating Layer pool2
I0814 23:35:02.614574  8614 net.cpp:394] pool2 <- conv2_2
I0814 23:35:02.614583  8614 net.cpp:356] pool2 -> pool2
I0814 23:35:02.614598  8614 net.cpp:96] Setting up pool2
I0814 23:35:02.614626  8614 net.cpp:103] Top shape: 20 128 78 78 (15575040)
I0814 23:35:02.614640  8614 layer_factory.hpp:78] Creating layer conv3_1
I0814 23:35:02.614658  8614 net.cpp:67] Creating Layer conv3_1
I0814 23:35:02.614683  8614 net.cpp:394] conv3_1 <- pool2
I0814 23:35:02.614696  8614 net.cpp:356] conv3_1 -> conv3_1
I0814 23:35:02.614708  8614 net.cpp:96] Setting up conv3_1
I0814 23:35:02.615777  8614 net.cpp:103] Top shape: 20 256 78 78 (31150080)
I0814 23:35:02.615797  8614 layer_factory.hpp:78] Creating layer relu3_1
I0814 23:35:02.615804  8614 net.cpp:67] Creating Layer relu3_1
I0814 23:35:02.615809  8614 net.cpp:394] relu3_1 <- conv3_1
I0814 23:35:02.615815  8614 net.cpp:345] relu3_1 -> conv3_1 (in-place)
I0814 23:35:02.615821  8614 net.cpp:96] Setting up relu3_1
I0814 23:35:02.615826  8614 net.cpp:103] Top shape: 20 256 78 78 (31150080)
I0814 23:35:02.615833  8614 layer_factory.hpp:78] Creating layer conv3_2
I0814 23:35:02.615839  8614 net.cpp:67] Creating Layer conv3_2
I0814 23:35:02.615842  8614 net.cpp:394] conv3_2 <- conv3_1
I0814 23:35:02.615849  8614 net.cpp:356] conv3_2 -> conv3_2
I0814 23:35:02.615856  8614 net.cpp:96] Setting up conv3_2
I0814 23:35:02.617569  8614 net.cpp:103] Top shape: 20 256 78 78 (31150080)
I0814 23:35:02.617595  8614 layer_factory.hpp:78] Creating layer relu3_2
I0814 23:35:02.617605  8614 net.cpp:67] Creating Layer relu3_2
I0814 23:35:02.617631  8614 net.cpp:394] relu3_2 <- conv3_2
I0814 23:35:02.617645  8614 net.cpp:345] relu3_2 -> conv3_2 (in-place)
I0814 23:35:02.617655  8614 net.cpp:96] Setting up relu3_2
I0814 23:35:02.617666  8614 net.cpp:103] Top shape: 20 256 78 78 (31150080)
I0814 23:35:02.617674  8614 layer_factory.hpp:78] Creating layer conv3_3
I0814 23:35:02.617689  8614 net.cpp:67] Creating Layer conv3_3
I0814 23:35:02.617699  8614 net.cpp:394] conv3_3 <- conv3_2
I0814 23:35:02.617712  8614 net.cpp:356] conv3_3 -> conv3_3
I0814 23:35:02.617723  8614 net.cpp:96] Setting up conv3_3
I0814 23:35:02.618837  8614 net.cpp:103] Top shape: 20 256 78 78 (31150080)
I0814 23:35:02.618856  8614 layer_factory.hpp:78] Creating layer relu3_3
I0814 23:35:02.618868  8614 net.cpp:67] Creating Layer relu3_3
I0814 23:35:02.618885  8614 net.cpp:394] relu3_3 <- conv3_3
I0814 23:35:02.618898  8614 net.cpp:345] relu3_3 -> conv3_3 (in-place)
I0814 23:35:02.618908  8614 net.cpp:96] Setting up relu3_3
I0814 23:35:02.618916  8614 net.cpp:103] Top shape: 20 256 78 78 (31150080)
I0814 23:35:02.618924  8614 layer_factory.hpp:78] Creating layer pool3
I0814 23:35:02.618933  8614 net.cpp:67] Creating Layer pool3
I0814 23:35:02.618940  8614 net.cpp:394] pool3 <- conv3_3
I0814 23:35:02.618950  8614 net.cpp:356] pool3 -> pool3
I0814 23:35:02.618965  8614 net.cpp:96] Setting up pool3
I0814 23:35:02.618976  8614 net.cpp:103] Top shape: 20 256 40 40 (8192000)
I0814 23:35:02.618985  8614 layer_factory.hpp:78] Creating layer conv4_1
I0814 23:35:02.618994  8614 net.cpp:67] Creating Layer conv4_1
I0814 23:35:02.619001  8614 net.cpp:394] conv4_1 <- pool3
I0814 23:35:02.619050  8614 net.cpp:356] conv4_1 -> conv4_1
I0814 23:35:02.619081  8614 net.cpp:96] Setting up conv4_1
I0814 23:35:02.624975  8614 net.cpp:103] Top shape: 20 512 40 40 (16384000)
I0814 23:35:02.625030  8614 layer_factory.hpp:78] Creating layer relu4_1
I0814 23:35:02.625062  8614 net.cpp:67] Creating Layer relu4_1
I0814 23:35:02.625089  8614 net.cpp:394] relu4_1 <- conv4_1
I0814 23:35:02.625116  8614 net.cpp:345] relu4_1 -> conv4_1 (in-place)
I0814 23:35:02.625145  8614 net.cpp:96] Setting up relu4_1
I0814 23:35:02.625169  8614 net.cpp:103] Top shape: 20 512 40 40 (16384000)
I0814 23:35:02.625252  8614 layer_factory.hpp:78] Creating layer conv4_2
I0814 23:35:02.625285  8614 net.cpp:67] Creating Layer conv4_2
I0814 23:35:02.625309  8614 net.cpp:394] conv4_2 <- conv4_1
I0814 23:35:02.625340  8614 net.cpp:356] conv4_2 -> conv4_2
I0814 23:35:02.625351  8614 net.cpp:96] Setting up conv4_2
I0814 23:35:02.630311  8614 net.cpp:103] Top shape: 20 512 40 40 (16384000)
I0814 23:35:02.630357  8614 layer_factory.hpp:78] Creating layer relu4_2
I0814 23:35:02.630370  8614 net.cpp:67] Creating Layer relu4_2
I0814 23:35:02.630378  8614 net.cpp:394] relu4_2 <- conv4_2
I0814 23:35:02.630419  8614 net.cpp:345] relu4_2 -> conv4_2 (in-place)
I0814 23:35:02.630429  8614 net.cpp:96] Setting up relu4_2
I0814 23:35:02.630439  8614 net.cpp:103] Top shape: 20 512 40 40 (16384000)
I0814 23:35:02.630445  8614 layer_factory.hpp:78] Creating layer conv4_3
I0814 23:35:02.630455  8614 net.cpp:67] Creating Layer conv4_3
I0814 23:35:02.630462  8614 net.cpp:394] conv4_3 <- conv4_2
I0814 23:35:02.630471  8614 net.cpp:356] conv4_3 -> conv4_3
I0814 23:35:02.630481  8614 net.cpp:96] Setting up conv4_3
I0814 23:35:02.635058  8614 net.cpp:103] Top shape: 20 512 40 40 (16384000)
I0814 23:35:02.635095  8614 layer_factory.hpp:78] Creating layer relu4_3
I0814 23:35:02.635109  8614 net.cpp:67] Creating Layer relu4_3
I0814 23:35:02.635118  8614 net.cpp:394] relu4_3 <- conv4_3
I0814 23:35:02.635130  8614 net.cpp:345] relu4_3 -> conv4_3 (in-place)
I0814 23:35:02.635143  8614 net.cpp:96] Setting up relu4_3
I0814 23:35:02.635151  8614 net.cpp:103] Top shape: 20 512 40 40 (16384000)
I0814 23:35:02.635159  8614 layer_factory.hpp:78] Creating layer pool4
I0814 23:35:02.635169  8614 net.cpp:67] Creating Layer pool4
I0814 23:35:02.635176  8614 net.cpp:394] pool4 <- conv4_3
I0814 23:35:02.635201  8614 net.cpp:356] pool4 -> pool4
I0814 23:35:02.635215  8614 net.cpp:96] Setting up pool4
I0814 23:35:02.635226  8614 net.cpp:103] Top shape: 20 512 39 39 (15575040)
I0814 23:35:02.635234  8614 layer_factory.hpp:78] Creating layer conv5_1
I0814 23:35:02.635243  8614 net.cpp:67] Creating Layer conv5_1
I0814 23:35:02.635251  8614 net.cpp:394] conv5_1 <- pool4
I0814 23:35:02.635262  8614 net.cpp:356] conv5_1 -> conv5_1
I0814 23:35:02.635272  8614 net.cpp:96] Setting up conv5_1
I0814 23:35:02.639562  8614 net.cpp:103] Top shape: 20 512 39 39 (15575040)
I0814 23:35:02.639608  8614 layer_factory.hpp:78] Creating layer relu5_1
I0814 23:35:02.639621  8614 net.cpp:67] Creating Layer relu5_1
I0814 23:35:02.639629  8614 net.cpp:394] relu5_1 <- conv5_1
I0814 23:35:02.639652  8614 net.cpp:345] relu5_1 -> conv5_1 (in-place)
I0814 23:35:02.639688  8614 net.cpp:96] Setting up relu5_1
I0814 23:35:02.639695  8614 net.cpp:103] Top shape: 20 512 39 39 (15575040)
I0814 23:35:02.639703  8614 layer_factory.hpp:78] Creating layer conv5_2
I0814 23:35:02.639714  8614 net.cpp:67] Creating Layer conv5_2
I0814 23:35:02.639720  8614 net.cpp:394] conv5_2 <- conv5_1
I0814 23:35:02.639731  8614 net.cpp:356] conv5_2 -> conv5_2
I0814 23:35:02.639742  8614 net.cpp:96] Setting up conv5_2
I0814 23:35:02.644002  8614 net.cpp:103] Top shape: 20 512 39 39 (15575040)
I0814 23:35:02.644047  8614 layer_factory.hpp:78] Creating layer relu5_2
I0814 23:35:02.644059  8614 net.cpp:67] Creating Layer relu5_2
I0814 23:35:02.644068  8614 net.cpp:394] relu5_2 <- conv5_2
I0814 23:35:02.644079  8614 net.cpp:345] relu5_2 -> conv5_2 (in-place)
I0814 23:35:02.644090  8614 net.cpp:96] Setting up relu5_2
I0814 23:35:02.644098  8614 net.cpp:103] Top shape: 20 512 39 39 (15575040)
I0814 23:35:02.644105  8614 layer_factory.hpp:78] Creating layer conv5_3
I0814 23:35:02.644114  8614 net.cpp:67] Creating Layer conv5_3
I0814 23:35:02.644122  8614 net.cpp:394] conv5_3 <- conv5_2
I0814 23:35:02.644134  8614 net.cpp:356] conv5_3 -> conv5_3
I0814 23:35:02.644143  8614 net.cpp:96] Setting up conv5_3
I0814 23:35:02.648327  8614 net.cpp:103] Top shape: 20 512 39 39 (15575040)
I0814 23:35:02.648368  8614 layer_factory.hpp:78] Creating layer relu5_3
I0814 23:35:02.648382  8614 net.cpp:67] Creating Layer relu5_3
I0814 23:35:02.648392  8614 net.cpp:394] relu5_3 <- conv5_3
I0814 23:35:02.648430  8614 net.cpp:345] relu5_3 -> conv5_3 (in-place)
I0814 23:35:02.648442  8614 net.cpp:96] Setting up relu5_3
I0814 23:35:02.648450  8614 net.cpp:103] Top shape: 20 512 39 39 (15575040)
I0814 23:35:02.648458  8614 layer_factory.hpp:78] Creating layer pool5
I0814 23:35:02.648468  8614 net.cpp:67] Creating Layer pool5
I0814 23:35:02.648475  8614 net.cpp:394] pool5 <- conv5_3
I0814 23:35:02.648485  8614 net.cpp:356] pool5 -> pool5
I0814 23:35:02.648496  8614 net.cpp:96] Setting up pool5
I0814 23:35:02.648506  8614 net.cpp:103] Top shape: 20 512 39 39 (15575040)
I0814 23:35:02.648514  8614 layer_factory.hpp:78] Creating layer fc6
I0814 23:35:02.648526  8614 net.cpp:67] Creating Layer fc6
I0814 23:35:02.648535  8614 net.cpp:394] fc6 <- pool5
I0814 23:35:02.648543  8614 net.cpp:356] fc6 -> fc6
I0814 23:35:02.648553  8614 net.cpp:96] Setting up fc6
I0814 23:35:02.708729  8614 net.cpp:103] Top shape: 20 4096 39 39 (124600320)
I0814 23:35:02.708786  8614 layer_factory.hpp:78] Creating layer relu6
I0814 23:35:02.708801  8614 net.cpp:67] Creating Layer relu6
I0814 23:35:02.708811  8614 net.cpp:394] relu6 <- fc6
I0814 23:35:02.708824  8614 net.cpp:345] relu6 -> fc6 (in-place)
I0814 23:35:02.708837  8614 net.cpp:96] Setting up relu6
I0814 23:35:02.708845  8614 net.cpp:103] Top shape: 20 4096 39 39 (124600320)
I0814 23:35:02.708853  8614 layer_factory.hpp:78] Creating layer drop6
I0814 23:35:02.708866  8614 net.cpp:67] Creating Layer drop6
I0814 23:35:02.708874  8614 net.cpp:394] drop6 <- fc6
I0814 23:35:02.708884  8614 net.cpp:345] drop6 -> fc6 (in-place)
I0814 23:35:02.708892  8614 net.cpp:96] Setting up drop6
I0814 23:35:02.708902  8614 net.cpp:103] Top shape: 20 4096 39 39 (124600320)
I0814 23:35:02.708911  8614 layer_factory.hpp:78] Creating layer fc7
I0814 23:35:02.708921  8614 net.cpp:67] Creating Layer fc7
I0814 23:35:02.708928  8614 net.cpp:394] fc7 <- fc6
I0814 23:35:02.708937  8614 net.cpp:356] fc7 -> fc7
I0814 23:35:02.708947  8614 net.cpp:96] Setting up fc7
I0814 23:35:02.738204  8614 net.cpp:103] Top shape: 20 4096 39 39 (124600320)
I0814 23:35:02.738266  8614 layer_factory.hpp:78] Creating layer relu7
I0814 23:35:02.738281  8614 net.cpp:67] Creating Layer relu7
I0814 23:35:02.738291  8614 net.cpp:394] relu7 <- fc7
I0814 23:35:02.738332  8614 net.cpp:345] relu7 -> fc7 (in-place)
I0814 23:35:02.738343  8614 net.cpp:96] Setting up relu7
I0814 23:35:02.738351  8614 net.cpp:103] Top shape: 20 4096 39 39 (124600320)
I0814 23:35:02.738359  8614 layer_factory.hpp:78] Creating layer drop7
I0814 23:35:02.738369  8614 net.cpp:67] Creating Layer drop7
I0814 23:35:02.738378  8614 net.cpp:394] drop7 <- fc7
I0814 23:35:02.738385  8614 net.cpp:345] drop7 -> fc7 (in-place)
I0814 23:35:02.738394  8614 net.cpp:96] Setting up drop7
I0814 23:35:02.738402  8614 net.cpp:103] Top shape: 20 4096 39 39 (124600320)
I0814 23:35:02.738410  8614 layer_factory.hpp:78] Creating layer fc8_pascal
I0814 23:35:02.738420  8614 net.cpp:67] Creating Layer fc8_pascal
I0814 23:35:02.738427  8614 net.cpp:394] fc8_pascal <- fc7
I0814 23:35:02.738437  8614 net.cpp:356] fc8_pascal -> fc8_pascal
I0814 23:35:02.738447  8614 net.cpp:96] Setting up fc8_pascal
I0814 23:35:02.741255  8614 net.cpp:103] Top shape: 20 21 39 39 (638820)
I0814 23:35:02.741283  8614 layer_factory.hpp:78] Creating layer fc8_pascal_fc8_pascal_0_split
I0814 23:35:02.741296  8614 net.cpp:67] Creating Layer fc8_pascal_fc8_pascal_0_split
I0814 23:35:02.741303  8614 net.cpp:394] fc8_pascal_fc8_pascal_0_split <- fc8_pascal
I0814 23:35:02.741313  8614 net.cpp:356] fc8_pascal_fc8_pascal_0_split -> fc8_pascal_fc8_pascal_0_split_0
I0814 23:35:02.741323  8614 net.cpp:356] fc8_pascal_fc8_pascal_0_split -> fc8_pascal_fc8_pascal_0_split_1
I0814 23:35:02.741333  8614 net.cpp:96] Setting up fc8_pascal_fc8_pascal_0_split
I0814 23:35:02.741343  8614 net.cpp:103] Top shape: 20 21 39 39 (638820)
I0814 23:35:02.741351  8614 net.cpp:103] Top shape: 20 21 39 39 (638820)
I0814 23:35:02.741358  8614 layer_factory.hpp:78] Creating layer label_shrink
I0814 23:35:02.741397  8614 net.cpp:67] Creating Layer label_shrink
I0814 23:35:02.741405  8614 net.cpp:394] label_shrink <- label
I0814 23:35:02.741416  8614 net.cpp:356] label_shrink -> label_shrink
I0814 23:35:02.741426  8614 net.cpp:96] Setting up label_shrink
I0814 23:35:02.741438  8614 net.cpp:103] Top shape: 20 1 39 39 (30420)
I0814 23:35:02.741446  8614 layer_factory.hpp:78] Creating layer label_shrink_label_shrink_0_split
I0814 23:35:02.741454  8614 net.cpp:67] Creating Layer label_shrink_label_shrink_0_split
I0814 23:35:02.741461  8614 net.cpp:394] label_shrink_label_shrink_0_split <- label_shrink
I0814 23:35:02.741471  8614 net.cpp:356] label_shrink_label_shrink_0_split -> label_shrink_label_shrink_0_split_0
I0814 23:35:02.741480  8614 net.cpp:356] label_shrink_label_shrink_0_split -> label_shrink_label_shrink_0_split_1
I0814 23:35:02.741489  8614 net.cpp:96] Setting up label_shrink_label_shrink_0_split
I0814 23:35:02.741497  8614 net.cpp:103] Top shape: 20 1 39 39 (30420)
I0814 23:35:02.741504  8614 net.cpp:103] Top shape: 20 1 39 39 (30420)
I0814 23:35:02.741513  8614 layer_factory.hpp:78] Creating layer loss
I0814 23:35:02.741526  8614 net.cpp:67] Creating Layer loss
I0814 23:35:02.741538  8614 net.cpp:394] loss <- fc8_pascal_fc8_pascal_0_split_0
I0814 23:35:02.741559  8614 net.cpp:394] loss <- label_shrink_label_shrink_0_split_0
I0814 23:35:02.741570  8614 net.cpp:356] loss -> (automatic)
I0814 23:35:02.741580  8614 net.cpp:96] Setting up loss
I0814 23:35:02.741595  8614 softmax_loss_layer.cpp:40] Weight_Loss file is not provided. Assign all one to it.
I0814 23:35:02.741619  8614 net.cpp:103] Top shape: 1 1 1 1 (1)
I0814 23:35:02.741627  8614 net.cpp:109]     with loss weight 1
I0814 23:35:02.741657  8614 layer_factory.hpp:78] Creating layer accuracy
I0814 23:35:02.741682  8614 net.cpp:67] Creating Layer accuracy
I0814 23:35:02.741689  8614 net.cpp:394] accuracy <- fc8_pascal_fc8_pascal_0_split_1
I0814 23:35:02.741698  8614 net.cpp:394] accuracy <- label_shrink_label_shrink_0_split_1
I0814 23:35:02.741708  8614 net.cpp:356] accuracy -> accuracy
I0814 23:35:02.741716  8614 net.cpp:96] Setting up accuracy
I0814 23:35:02.741744  8614 net.cpp:103] Top shape: 1 1 1 3 (3)
I0814 23:35:02.741752  8614 net.cpp:172] accuracy does not need backward computation.
I0814 23:35:02.741760  8614 net.cpp:170] loss needs backward computation.
I0814 23:35:02.741767  8614 net.cpp:172] label_shrink_label_shrink_0_split does not need backward computation.
I0814 23:35:02.741775  8614 net.cpp:172] label_shrink does not need backward computation.
I0814 23:35:02.741786  8614 net.cpp:170] fc8_pascal_fc8_pascal_0_split needs backward computation.
…
