…
I0814 14:26:40.696960 29110 net.cpp:275] The NetState phase (0) differed from the phase (1) specified by a rule in layer fc8_mat
I0814 14:26:40.697141 29110 net.cpp:39] Initializing net from parameters: 
name: "vgg128_noup"
layers {
  top: "data"
  top: "label"
  name: "data"
  type: IMAGE_SEG_DATA
  image_data_param {
    source: "voc12/list/train_aug.txt"
    batch_size: 20
    shuffle: true
    root_folder: "/media/Work_SSD/ali/VOCdevkit/VOC2012"
    label_type: PIXEL
  }
  include {
    phase: TRAIN
  }
  transform_param {
    mirror: true
    crop_size: 306
    mean_value: 104.008
    mean_value: 116.669
    mean_value: 122.675
  }
}
layers {
  bottom: "data"
  top: "conv1_1"
  name: "conv1_1"
  type: CONVOLUTION
  blobs_lr: 1
  blobs_lr: 2
  weight_decay: 1
  weight_decay: 0
  convolution_param {
    num_output: 64
    pad: 1
    kernel_size: 3
  }
}
layers {
  bottom: "conv1_1"
  top: "conv1_1"
  name: "relu1_1"
  type: RELU
}
layers {
  bottom: "conv1_1"
  top: "conv1_2"
  name: "conv1_2"
  type: CONVOLUTION
  blobs_lr: 1
  blobs_lr: 2
  weight_decay: 1
  weight_decay: 0
  convolution_param {
    num_output: 64
    pad: 1
    kernel_size: 3
  }
}
layers {
  bottom: "conv1_2"
  top: "conv1_2"
  name: "relu1_2"
  type: RELU
}
layers {
  bottom: "conv1_2"
  top: "pool1"
  name: "pool1"
  type: POOLING
  pooling_param {
    pool: MAX
    kernel_size: 2
    stride: 2
    pad: 1
  }
}
layers {
  bottom: "pool1"
  top: "conv2_1"
  name: "conv2_1"
  type: CONVOLUTION
  blobs_lr: 1
  blobs_lr: 2
  weight_decay: 1
  weight_decay: 0
  convolution_param {
    num_output: 128
    pad: 1
    kernel_size: 3
  }
}
layers {
  bottom: "conv2_1"
  top: "conv2_1"
  name: "relu2_1"
  type: RELU
}
layers {
  bottom: "conv2_1"
  top: "conv2_2"
  name: "conv2_2"
  type: CONVOLUTION
  blobs_lr: 1
  blobs_lr: 2
  weight_decay: 1
  weight_decay: 0
  convolution_param {
    num_output: 128
    pad: 1
    kernel_size: 3
  }
}
layers {
  bottom: "conv2_2"
  top: "conv2_2"
  name: "relu2_2"
  type: RELU
}
layers {
  bottom: "conv2_2"
  top: "pool2"
  name: "pool2"
  type: POOLING
  pooling_param {
    pool: MAX
    kernel_size: 2
    stride: 2
    pad: 1
  }
}
layers {
  bottom: "pool2"
  top: "conv3_1"
  name: "conv3_1"
  type: CONVOLUTION
  blobs_lr: 1
  blobs_lr: 2
  weight_decay: 1
  weight_decay: 0
  convolution_param {
    num_output: 256
    pad: 1
    kernel_size: 3
  }
}
layers {
  bottom: "conv3_1"
  top: "conv3_1"
  name: "relu3_1"
  type: RELU
}
layers {
  bottom: "conv3_1"
  top: "conv3_2"
  name: "conv3_2"
  type: CONVOLUTION
  blobs_lr: 1
  blobs_lr: 2
  weight_decay: 1
  weight_decay: 0
  convolution_param {
    num_output: 256
    pad: 1
    kernel_size: 3
  }
}
layers {
  bottom: "conv3_2"
  top: "conv3_2"
  name: "relu3_2"
  type: RELU
}
layers {
  bottom: "conv3_2"
  top: "conv3_3"
  name: "conv3_3"
  type: CONVOLUTION
  blobs_lr: 1
  blobs_lr: 2
  weight_decay: 1
  weight_decay: 0
  convolution_param {
    num_output: 256
    pad: 1
    kernel_size: 3
  }
}
layers {
  bottom: "conv3_3"
  top: "conv3_3"
  name: "relu3_3"
  type: RELU
}
layers {
  bottom: "conv3_3"
  top: "pool3"
  name: "pool3"
  type: POOLING
  pooling_param {
    pool: MAX
    kernel_size: 2
    stride: 2
    pad: 1
  }
}
layers {
  bottom: "pool3"
  top: "conv4_1"
  name: "conv4_1"
  type: CONVOLUTION
  blobs_lr: 1
  blobs_lr: 2
  weight_decay: 1
  weight_decay: 0
  convolution_param {
    num_output: 512
    pad: 1
    kernel_size: 3
  }
}
layers {
  bottom: "conv4_1"
  top: "conv4_1"
  name: "relu4_1"
  type: RELU
}
layers {
  bottom: "conv4_1"
  top: "conv4_2"
  name: "conv4_2"
  type: CONVOLUTION
  blobs_lr: 1
  blobs_lr: 2
  weight_decay: 1
  weight_decay: 0
  convolution_param {
    num_output: 512
    pad: 1
    kernel_size: 3
  }
}
layers {
  bottom: "conv4_2"
  top: "conv4_2"
  name: "relu4_2"
  type: RELU
}
layers {
  bottom: "conv4_2"
  top: "conv4_3"
  name: "conv4_3"
  type: CONVOLUTION
  blobs_lr: 1
  blobs_lr: 2
  weight_decay: 1
  weight_decay: 0
  convolution_param {
    num_output: 512
    pad: 1
    kernel_size: 3
  }
}
layers {
  bottom: "conv4_3"
  top: "conv4_3"
  name: "relu4_3"
  type: RELU
}
layers {
  bottom: "conv4_3"
  top: "pool4"
  name: "pool4"
  type: POOLING
  pooling_param {
    pool: MAX
    kernel_size: 2
    stride: 1
  }
}
layers {
  bottom: "pool4"
  top: "conv5_1"
  name: "conv5_1"
  type: CONVOLUTION
  blobs_lr: 1
  blobs_lr: 2
  weight_decay: 1
  weight_decay: 0
  convolution_param {
    num_output: 512
    pad: 2
    kernel_size: 3
    hole: 2
  }
}
layers {
  bottom: "conv5_1"
  top: "conv5_1"
  name: "relu5_1"
  type: RELU
}
layers {
  bottom: "conv5_1"
  top: "conv5_2"
  name: "conv5_2"
  type: CONVOLUTION
  blobs_lr: 1
  blobs_lr: 2
  weight_decay: 1
  weight_decay: 0
  convolution_param {
    num_output: 512
    pad: 2
    kernel_size: 3
    hole: 2
  }
}
layers {
  bottom: "conv5_2"
  top: "conv5_2"
  name: "relu5_2"
  type: RELU
}
layers {
  bottom: "conv5_2"
  top: "conv5_3"
  name: "conv5_3"
  type: CONVOLUTION
  blobs_lr: 1
  blobs_lr: 2
  weight_decay: 1
  weight_decay: 0
  convolution_param {
    num_output: 512
    pad: 2
    kernel_size: 3
    hole: 2
  }
}
layers {
  bottom: "conv5_3"
  top: "conv5_3"
  name: "relu5_3"
  type: RELU
}
layers {
  bottom: "conv5_3"
  top: "pool5"
  name: "pool5"
  type: POOLING
  pooling_param {
    pool: MAX
    kernel_size: 3
    stride: 1
    pad: 1
  }
}
layers {
  bottom: "pool5"
  top: "fc6"
  name: "fc6"
  type: CONVOLUTION
  blobs_lr: 1
  blobs_lr: 2
  weight_decay: 1
  weight_decay: 0
  convolution_param {
    num_output: 4096
    pad: 6
    kernel_size: 4
    hole: 4
  }
  strict_dim: false
}
layers {
  bottom: "fc6"
  top: "fc6"
  name: "relu6"
  type: RELU
}
layers {
  bottom: "fc6"
  top: "fc6"
  name: "drop6"
  type: DROPOUT
  dropout_param {
    dropout_ratio: 0.5
  }
}
layers {
  bottom: "fc6"
  top: "fc7"
  name: "fc7"
  type: CONVOLUTION
  blobs_lr: 1
  blobs_lr: 2
  weight_decay: 1
  weight_decay: 0
  convolution_param {
    num_output: 4096
    kernel_size: 1
  }
  strict_dim: false
}
layers {
  bottom: "fc7"
  top: "fc7"
  name: "relu7"
  type: RELU
}
layers {
  bottom: "fc7"
  top: "fc7"
  name: "drop7"
  type: DROPOUT
  dropout_param {
    dropout_ratio: 0.5
  }
}
layers {
  bottom: "fc7"
  top: "fc8_pascal"
  name: "fc8_pascal"
  type: CONVOLUTION
  blobs_lr: 10
  blobs_lr: 20
  weight_decay: 1
  weight_decay: 0
  convolution_param {
    num_output: 21
    kernel_size: 1
    weight_filler {
      type: "gaussian"
      std: 0.01
    }
    bias_filler {
      type: "constant"
      value: 0
    }
  }
  strict_dim: false
}
layers {
  bottom: "label"
  top: "label_shrink"
  name: "label_shrink"
  type: INTERP
  interp_param {
    shrink_factor: 8
    pad_beg: -1
    pad_end: 0
  }
}
layers {
  bottom: "fc8_pascal"
  bottom: "label_shrink"
  name: "loss"
  type: SOFTMAX_LOSS
  include {
    phase: TRAIN
  }
  softmaxloss_param {
    ignore_label: 255
  }
}
layers {
  bottom: "fc8_pascal"
  bottom: "label_shrink"
  top: "accuracy"
  name: "accuracy"
  type: SEG_ACCURACY
  seg_accuracy_param {
    ignore_label: 255
  }
}
state {
  phase: TRAIN
}
I0814 14:26:40.699066 29110 layer_factory.hpp:78] Creating layer data
I0814 14:26:40.699092 29110 net.cpp:67] Creating Layer data
I0814 14:26:40.699105 29110 net.cpp:356] data -> data
I0814 14:26:40.699126 29110 net.cpp:356] data -> label
I0814 14:26:40.699141 29110 net.cpp:356] data -> (automatic)
I0814 14:26:40.699153 29110 net.cpp:96] Setting up data
I0814 14:26:40.699165 29110 image_seg_data_layer.cpp:45] Opening file voc12/list/train_aug.txt
I0814 14:26:40.708911 29110 image_seg_data_layer.cpp:62] Shuffling data
I0814 14:26:40.710615 29110 image_seg_data_layer.cpp:67] A total of 10582 images.
I0814 14:26:40.713287 29110 image_seg_data_layer.cpp:113] output data size: 20,3,306,306
I0814 14:26:40.713320 29110 image_seg_data_layer.cpp:117] output label size: 20,1,306,306
I0814 14:26:40.713337 29110 image_seg_data_layer.cpp:121] output data_dim size: 20,1,1,2
I0814 14:26:40.723515 29110 net.cpp:103] Top shape: 20 3 306 306 (5618160)
I0814 14:26:40.723534 29110 net.cpp:103] Top shape: 20 1 306 306 (1872720)
I0814 14:26:40.723558 29110 net.cpp:103] Top shape: 20 1 1 2 (40)
I0814 14:26:40.723575 29110 layer_factory.hpp:78] Creating layer conv1_1
I0814 14:26:40.723598 29110 net.cpp:67] Creating Layer conv1_1
I0814 14:26:40.723615 29110 net.cpp:394] conv1_1 <- data
I0814 14:26:40.723636 29110 net.cpp:356] conv1_1 -> conv1_1
I0814 14:26:40.723654 29110 net.cpp:96] Setting up conv1_1
I0814 14:26:40.723731 29110 net.cpp:103] Top shape: 20 64 306 306 (119854080)
I0814 14:26:40.723755 29110 layer_factory.hpp:78] Creating layer relu1_1
I0814 14:26:40.723773 29110 net.cpp:67] Creating Layer relu1_1
I0814 14:26:40.723789 29110 net.cpp:394] relu1_1 <- conv1_1
I0814 14:26:40.723808 29110 net.cpp:345] relu1_1 -> conv1_1 (in-place)
I0814 14:26:40.723825 29110 net.cpp:96] Setting up relu1_1
I0814 14:26:40.723842 29110 net.cpp:103] Top shape: 20 64 306 306 (119854080)
I0814 14:26:40.723860 29110 layer_factory.hpp:78] Creating layer conv1_2
I0814 14:26:40.723881 29110 net.cpp:67] Creating Layer conv1_2
I0814 14:26:40.723897 29110 net.cpp:394] conv1_2 <- conv1_1
I0814 14:26:40.723918 29110 net.cpp:356] conv1_2 -> conv1_2
I0814 14:26:40.723942 29110 net.cpp:96] Setting up conv1_2
I0814 14:26:40.724122 29110 net.cpp:103] Top shape: 20 64 306 306 (119854080)
I0814 14:26:40.724148 29110 layer_factory.hpp:78] Creating layer relu1_2
I0814 14:26:40.724182 29110 net.cpp:67] Creating Layer relu1_2
I0814 14:26:40.724200 29110 net.cpp:394] relu1_2 <- conv1_2
I0814 14:26:40.724223 29110 net.cpp:345] relu1_2 -> conv1_2 (in-place)
I0814 14:26:40.724244 29110 net.cpp:96] Setting up relu1_2
I0814 14:26:40.724263 29110 net.cpp:103] Top shape: 20 64 306 306 (119854080)
I0814 14:26:40.724282 29110 layer_factory.hpp:78] Creating layer pool1
I0814 14:26:40.724300 29110 net.cpp:67] Creating Layer pool1
I0814 14:26:40.724314 29110 net.cpp:394] pool1 <- conv1_2
I0814 14:26:40.724335 29110 net.cpp:356] pool1 -> pool1
I0814 14:26:40.724355 29110 net.cpp:96] Setting up pool1
I0814 14:26:40.724380 29110 net.cpp:103] Top shape: 20 64 154 154 (30356480)
I0814 14:26:40.724397 29110 layer_factory.hpp:78] Creating layer conv2_1
I0814 14:26:40.724414 29110 net.cpp:67] Creating Layer conv2_1
I0814 14:26:40.724429 29110 net.cpp:394] conv2_1 <- pool1
I0814 14:26:40.724452 29110 net.cpp:356] conv2_1 -> conv2_1
I0814 14:26:40.724469 29110 net.cpp:96] Setting up conv2_1
I0814 14:26:40.724642 29110 net.cpp:103] Top shape: 20 128 154 154 (60712960)
I0814 14:26:40.724668 29110 layer_factory.hpp:78] Creating layer relu2_1
I0814 14:26:40.724686 29110 net.cpp:67] Creating Layer relu2_1
I0814 14:26:40.724704 29110 net.cpp:394] relu2_1 <- conv2_1
I0814 14:26:40.724730 29110 net.cpp:345] relu2_1 -> conv2_1 (in-place)
I0814 14:26:40.724747 29110 net.cpp:96] Setting up relu2_1
I0814 14:26:40.724766 29110 net.cpp:103] Top shape: 20 128 154 154 (60712960)
I0814 14:26:40.724783 29110 layer_factory.hpp:78] Creating layer conv2_2
I0814 14:26:40.724807 29110 net.cpp:67] Creating Layer conv2_2
I0814 14:26:40.724823 29110 net.cpp:394] conv2_2 <- conv2_1
I0814 14:26:40.724850 29110 net.cpp:356] conv2_2 -> conv2_2
I0814 14:26:40.724870 29110 net.cpp:96] Setting up conv2_2
I0814 14:26:40.725342 29110 net.cpp:103] Top shape: 20 128 154 154 (60712960)
I0814 14:26:40.725363 29110 layer_factory.hpp:78] Creating layer relu2_2
I0814 14:26:40.725381 29110 net.cpp:67] Creating Layer relu2_2
I0814 14:26:40.725396 29110 net.cpp:394] relu2_2 <- conv2_2
I0814 14:26:40.725416 29110 net.cpp:345] relu2_2 -> conv2_2 (in-place)
I0814 14:26:40.725450 29110 net.cpp:96] Setting up relu2_2
I0814 14:26:40.725469 29110 net.cpp:103] Top shape: 20 128 154 154 (60712960)
I0814 14:26:40.725486 29110 layer_factory.hpp:78] Creating layer pool2
I0814 14:26:40.725502 29110 net.cpp:67] Creating Layer pool2
I0814 14:26:40.725517 29110 net.cpp:394] pool2 <- conv2_2
I0814 14:26:40.725535 29110 net.cpp:356] pool2 -> pool2
I0814 14:26:40.725554 29110 net.cpp:96] Setting up pool2
I0814 14:26:40.725575 29110 net.cpp:103] Top shape: 20 128 78 78 (15575040)
I0814 14:26:40.725591 29110 layer_factory.hpp:78] Creating layer conv3_1
I0814 14:26:40.725620 29110 net.cpp:67] Creating Layer conv3_1
I0814 14:26:40.725636 29110 net.cpp:394] conv3_1 <- pool2
I0814 14:26:40.725661 29110 net.cpp:356] conv3_1 -> conv3_1
I0814 14:26:40.725682 29110 net.cpp:96] Setting up conv3_1
I0814 14:26:40.726517 29110 net.cpp:103] Top shape: 20 256 78 78 (31150080)
I0814 14:26:40.726544 29110 layer_factory.hpp:78] Creating layer relu3_1
I0814 14:26:40.726567 29110 net.cpp:67] Creating Layer relu3_1
I0814 14:26:40.726583 29110 net.cpp:394] relu3_1 <- conv3_1
I0814 14:26:40.726604 29110 net.cpp:345] relu3_1 -> conv3_1 (in-place)
I0814 14:26:40.726626 29110 net.cpp:96] Setting up relu3_1
I0814 14:26:40.726640 29110 net.cpp:103] Top shape: 20 256 78 78 (31150080)
I0814 14:26:40.726655 29110 layer_factory.hpp:78] Creating layer conv3_2
I0814 14:26:40.726672 29110 net.cpp:67] Creating Layer conv3_2
I0814 14:26:40.726687 29110 net.cpp:394] conv3_2 <- conv3_1
I0814 14:26:40.726706 29110 net.cpp:356] conv3_2 -> conv3_2
I0814 14:26:40.726727 29110 net.cpp:96] Setting up conv3_2
I0814 14:26:40.728174 29110 net.cpp:103] Top shape: 20 256 78 78 (31150080)
I0814 14:26:40.728196 29110 layer_factory.hpp:78] Creating layer relu3_2
I0814 14:26:40.728225 29110 net.cpp:67] Creating Layer relu3_2
I0814 14:26:40.728242 29110 net.cpp:394] relu3_2 <- conv3_2
I0814 14:26:40.728260 29110 net.cpp:345] relu3_2 -> conv3_2 (in-place)
I0814 14:26:40.728277 29110 net.cpp:96] Setting up relu3_2
I0814 14:26:40.728293 29110 net.cpp:103] Top shape: 20 256 78 78 (31150080)
I0814 14:26:40.728308 29110 layer_factory.hpp:78] Creating layer conv3_3
I0814 14:26:40.728325 29110 net.cpp:67] Creating Layer conv3_3
I0814 14:26:40.728340 29110 net.cpp:394] conv3_3 <- conv3_2
I0814 14:26:40.728363 29110 net.cpp:356] conv3_3 -> conv3_3
I0814 14:26:40.728380 29110 net.cpp:96] Setting up conv3_3
I0814 14:26:40.729471 29110 net.cpp:103] Top shape: 20 256 78 78 (31150080)
I0814 14:26:40.729496 29110 layer_factory.hpp:78] Creating layer relu3_3
I0814 14:26:40.729517 29110 net.cpp:67] Creating Layer relu3_3
I0814 14:26:40.729532 29110 net.cpp:394] relu3_3 <- conv3_3
I0814 14:26:40.729552 29110 net.cpp:345] relu3_3 -> conv3_3 (in-place)
I0814 14:26:40.729570 29110 net.cpp:96] Setting up relu3_3
I0814 14:26:40.729585 29110 net.cpp:103] Top shape: 20 256 78 78 (31150080)
I0814 14:26:40.729601 29110 layer_factory.hpp:78] Creating layer pool3
I0814 14:26:40.729621 29110 net.cpp:67] Creating Layer pool3
I0814 14:26:40.729635 29110 net.cpp:394] pool3 <- conv3_3
I0814 14:26:40.729652 29110 net.cpp:356] pool3 -> pool3
I0814 14:26:40.729672 29110 net.cpp:96] Setting up pool3
I0814 14:26:40.729688 29110 net.cpp:103] Top shape: 20 256 40 40 (8192000)
I0814 14:26:40.729704 29110 layer_factory.hpp:78] Creating layer conv4_1
I0814 14:26:40.729722 29110 net.cpp:67] Creating Layer conv4_1
I0814 14:26:40.729735 29110 net.cpp:394] conv4_1 <- pool3
I0814 14:26:40.729753 29110 net.cpp:356] conv4_1 -> conv4_1
I0814 14:26:40.729770 29110 net.cpp:96] Setting up conv4_1
I0814 14:26:40.732053 29110 net.cpp:103] Top shape: 20 512 40 40 (16384000)
I0814 14:26:40.732085 29110 layer_factory.hpp:78] Creating layer relu4_1
I0814 14:26:40.732103 29110 net.cpp:67] Creating Layer relu4_1
I0814 14:26:40.732120 29110 net.cpp:394] relu4_1 <- conv4_1
I0814 14:26:40.732158 29110 net.cpp:345] relu4_1 -> conv4_1 (in-place)
I0814 14:26:40.732179 29110 net.cpp:96] Setting up relu4_1
I0814 14:26:40.732197 29110 net.cpp:103] Top shape: 20 512 40 40 (16384000)
I0814 14:26:40.732236 29110 layer_factory.hpp:78] Creating layer conv4_2
I0814 14:26:40.732255 29110 net.cpp:67] Creating Layer conv4_2
I0814 14:26:40.732270 29110 net.cpp:394] conv4_2 <- conv4_1
I0814 14:26:40.732288 29110 net.cpp:356] conv4_2 -> conv4_2
I0814 14:26:40.732307 29110 net.cpp:96] Setting up conv4_2
I0814 14:26:40.736789 29110 net.cpp:103] Top shape: 20 512 40 40 (16384000)
I0814 14:26:40.736848 29110 layer_factory.hpp:78] Creating layer relu4_2
I0814 14:26:40.736872 29110 net.cpp:67] Creating Layer relu4_2
I0814 14:26:40.736891 29110 net.cpp:394] relu4_2 <- conv4_2
I0814 14:26:40.736912 29110 net.cpp:345] relu4_2 -> conv4_2 (in-place)
I0814 14:26:40.736932 29110 net.cpp:96] Setting up relu4_2
I0814 14:26:40.736948 29110 net.cpp:103] Top shape: 20 512 40 40 (16384000)
I0814 14:26:40.736963 29110 layer_factory.hpp:78] Creating layer conv4_3
I0814 14:26:40.736980 29110 net.cpp:67] Creating Layer conv4_3
I0814 14:26:40.736995 29110 net.cpp:394] conv4_3 <- conv4_2
I0814 14:26:40.737016 29110 net.cpp:356] conv4_3 -> conv4_3
I0814 14:26:40.737035 29110 net.cpp:96] Setting up conv4_3
I0814 14:26:40.741355 29110 net.cpp:103] Top shape: 20 512 40 40 (16384000)
I0814 14:26:40.741391 29110 layer_factory.hpp:78] Creating layer relu4_3
I0814 14:26:40.741407 29110 net.cpp:67] Creating Layer relu4_3
I0814 14:26:40.741441 29110 net.cpp:394] relu4_3 <- conv4_3
I0814 14:26:40.741461 29110 net.cpp:345] relu4_3 -> conv4_3 (in-place)
I0814 14:26:40.741482 29110 net.cpp:96] Setting up relu4_3
I0814 14:26:40.741499 29110 net.cpp:103] Top shape: 20 512 40 40 (16384000)
I0814 14:26:40.741516 29110 layer_factory.hpp:78] Creating layer pool4
I0814 14:26:40.741535 29110 net.cpp:67] Creating Layer pool4
I0814 14:26:40.741550 29110 net.cpp:394] pool4 <- conv4_3
I0814 14:26:40.741574 29110 net.cpp:356] pool4 -> pool4
I0814 14:26:40.741593 29110 net.cpp:96] Setting up pool4
I0814 14:26:40.741611 29110 net.cpp:103] Top shape: 20 512 39 39 (15575040)
I0814 14:26:40.741627 29110 layer_factory.hpp:78] Creating layer conv5_1
I0814 14:26:40.741647 29110 net.cpp:67] Creating Layer conv5_1
I0814 14:26:40.741662 29110 net.cpp:394] conv5_1 <- pool4
I0814 14:26:40.741682 29110 net.cpp:356] conv5_1 -> conv5_1
I0814 14:26:40.741699 29110 net.cpp:96] Setting up conv5_1
I0814 14:26:40.746199 29110 net.cpp:103] Top shape: 20 512 39 39 (15575040)
I0814 14:26:40.746237 29110 layer_factory.hpp:78] Creating layer relu5_1
I0814 14:26:40.746256 29110 net.cpp:67] Creating Layer relu5_1
I0814 14:26:40.746297 29110 net.cpp:394] relu5_1 <- conv5_1
I0814 14:26:40.746320 29110 net.cpp:345] relu5_1 -> conv5_1 (in-place)
I0814 14:26:40.746338 29110 net.cpp:96] Setting up relu5_1
I0814 14:26:40.746356 29110 net.cpp:103] Top shape: 20 512 39 39 (15575040)
I0814 14:26:40.746372 29110 layer_factory.hpp:78] Creating layer conv5_2
I0814 14:26:40.746390 29110 net.cpp:67] Creating Layer conv5_2
I0814 14:26:40.746404 29110 net.cpp:394] conv5_2 <- conv5_1
I0814 14:26:40.746423 29110 net.cpp:356] conv5_2 -> conv5_2
I0814 14:26:40.746443 29110 net.cpp:96] Setting up conv5_2
I0814 14:26:40.750959 29110 net.cpp:103] Top shape: 20 512 39 39 (15575040)
I0814 14:26:40.751019 29110 layer_factory.hpp:78] Creating layer relu5_2
I0814 14:26:40.751039 29110 net.cpp:67] Creating Layer relu5_2
I0814 14:26:40.751068 29110 net.cpp:394] relu5_2 <- conv5_2
I0814 14:26:40.751090 29110 net.cpp:345] relu5_2 -> conv5_2 (in-place)
I0814 14:26:40.751111 29110 net.cpp:96] Setting up relu5_2
I0814 14:26:40.751127 29110 net.cpp:103] Top shape: 20 512 39 39 (15575040)
I0814 14:26:40.751144 29110 layer_factory.hpp:78] Creating layer conv5_3
I0814 14:26:40.751163 29110 net.cpp:67] Creating Layer conv5_3
I0814 14:26:40.751178 29110 net.cpp:394] conv5_3 <- conv5_2
I0814 14:26:40.751196 29110 net.cpp:356] conv5_3 -> conv5_3
I0814 14:26:40.751214 29110 net.cpp:96] Setting up conv5_3
I0814 14:26:40.755568 29110 net.cpp:103] Top shape: 20 512 39 39 (15575040)
I0814 14:26:40.755604 29110 layer_factory.hpp:78] Creating layer relu5_3
I0814 14:26:40.755622 29110 net.cpp:67] Creating Layer relu5_3
I0814 14:26:40.755657 29110 net.cpp:394] relu5_3 <- conv5_3
I0814 14:26:40.755707 29110 net.cpp:345] relu5_3 -> conv5_3 (in-place)
I0814 14:26:40.755729 29110 net.cpp:96] Setting up relu5_3
I0814 14:26:40.755745 29110 net.cpp:103] Top shape: 20 512 39 39 (15575040)
I0814 14:26:40.755761 29110 layer_factory.hpp:78] Creating layer pool5
I0814 14:26:40.755780 29110 net.cpp:67] Creating Layer pool5
I0814 14:26:40.755795 29110 net.cpp:394] pool5 <- conv5_3
I0814 14:26:40.755813 29110 net.cpp:356] pool5 -> pool5
I0814 14:26:40.755831 29110 net.cpp:96] Setting up pool5
I0814 14:26:40.755851 29110 net.cpp:103] Top shape: 20 512 39 39 (15575040)
I0814 14:26:40.755866 29110 layer_factory.hpp:78] Creating layer fc6
I0814 14:26:40.755890 29110 net.cpp:67] Creating Layer fc6
I0814 14:26:40.755905 29110 net.cpp:394] fc6 <- pool5
I0814 14:26:40.755923 29110 net.cpp:356] fc6 -> fc6
I0814 14:26:40.755940 29110 net.cpp:96] Setting up fc6
I0814 14:26:40.818243 29110 net.cpp:103] Top shape: 20 4096 39 39 (124600320)
I0814 14:26:40.818300 29110 layer_factory.hpp:78] Creating layer relu6
I0814 14:26:40.818352 29110 net.cpp:67] Creating Layer relu6
I0814 14:26:40.818368 29110 net.cpp:394] relu6 <- fc6
I0814 14:26:40.818387 29110 net.cpp:345] relu6 -> fc6 (in-place)
I0814 14:26:40.818413 29110 net.cpp:96] Setting up relu6
I0814 14:26:40.818431 29110 net.cpp:103] Top shape: 20 4096 39 39 (124600320)
I0814 14:26:40.818450 29110 layer_factory.hpp:78] Creating layer drop6
I0814 14:26:40.818480 29110 net.cpp:67] Creating Layer drop6
I0814 14:26:40.818495 29110 net.cpp:394] drop6 <- fc6
I0814 14:26:40.818512 29110 net.cpp:345] drop6 -> fc6 (in-place)
I0814 14:26:40.818532 29110 net.cpp:96] Setting up drop6
I0814 14:26:40.818550 29110 net.cpp:103] Top shape: 20 4096 39 39 (124600320)
I0814 14:26:40.818567 29110 layer_factory.hpp:78] Creating layer fc7
I0814 14:26:40.818589 29110 net.cpp:67] Creating Layer fc7
I0814 14:26:40.818606 29110 net.cpp:394] fc7 <- fc6
I0814 14:26:40.818625 29110 net.cpp:356] fc7 -> fc7
I0814 14:26:40.818646 29110 net.cpp:96] Setting up fc7
I0814 14:26:40.848917 29110 net.cpp:103] Top shape: 20 4096 39 39 (124600320)
I0814 14:26:40.848976 29110 layer_factory.hpp:78] Creating layer relu7
I0814 14:26:40.848996 29110 net.cpp:67] Creating Layer relu7
I0814 14:26:40.849040 29110 net.cpp:394] relu7 <- fc7
I0814 14:26:40.849058 29110 net.cpp:345] relu7 -> fc7 (in-place)
I0814 14:26:40.849081 29110 net.cpp:96] Setting up relu7
I0814 14:26:40.849099 29110 net.cpp:103] Top shape: 20 4096 39 39 (124600320)
I0814 14:26:40.849128 29110 layer_factory.hpp:78] Creating layer drop7
I0814 14:26:40.849146 29110 net.cpp:67] Creating Layer drop7
I0814 14:26:40.849164 29110 net.cpp:394] drop7 <- fc7
I0814 14:26:40.849182 29110 net.cpp:345] drop7 -> fc7 (in-place)
I0814 14:26:40.849200 29110 net.cpp:96] Setting up drop7
I0814 14:26:40.849217 29110 net.cpp:103] Top shape: 20 4096 39 39 (124600320)
I0814 14:26:40.849234 29110 layer_factory.hpp:78] Creating layer fc8_pascal
I0814 14:26:40.849254 29110 net.cpp:67] Creating Layer fc8_pascal
I0814 14:26:40.849270 29110 net.cpp:394] fc8_pascal <- fc7
I0814 14:26:40.849289 29110 net.cpp:356] fc8_pascal -> fc8_pascal
I0814 14:26:40.849310 29110 net.cpp:96] Setting up fc8_pascal
I0814 14:26:40.852109 29110 net.cpp:103] Top shape: 20 21 39 39 (638820)
I0814 14:26:40.852130 29110 layer_factory.hpp:78] Creating layer fc8_pascal_fc8_pascal_0_split
I0814 14:26:40.852160 29110 net.cpp:67] Creating Layer fc8_pascal_fc8_pascal_0_split
I0814 14:26:40.852180 29110 net.cpp:394] fc8_pascal_fc8_pascal_0_split <- fc8_pascal
I0814 14:26:40.852202 29110 net.cpp:356] fc8_pascal_fc8_pascal_0_split -> fc8_pascal_fc8_pascal_0_split_0
I0814 14:26:40.852224 29110 net.cpp:356] fc8_pascal_fc8_pascal_0_split -> fc8_pascal_fc8_pascal_0_split_1
I0814 14:26:40.852244 29110 net.cpp:96] Setting up fc8_pascal_fc8_pascal_0_split
I0814 14:26:40.852263 29110 net.cpp:103] Top shape: 20 21 39 39 (638820)
I0814 14:26:40.852279 29110 net.cpp:103] Top shape: 20 21 39 39 (638820)
I0814 14:26:40.852295 29110 layer_factory.hpp:78] Creating layer label_shrink
I0814 14:26:40.852345 29110 net.cpp:67] Creating Layer label_shrink
I0814 14:26:40.852362 29110 net.cpp:394] label_shrink <- label
I0814 14:26:40.852385 29110 net.cpp:356] label_shrink -> label_shrink
I0814 14:26:40.852406 29110 net.cpp:96] Setting up label_shrink
I0814 14:26:40.852427 29110 net.cpp:103] Top shape: 20 1 39 39 (30420)
I0814 14:26:40.852442 29110 layer_factory.hpp:78] Creating layer label_shrink_label_shrink_0_split
I0814 14:26:40.852458 29110 net.cpp:67] Creating Layer label_shrink_label_shrink_0_split
I0814 14:26:40.852473 29110 net.cpp:394] label_shrink_label_shrink_0_split <- label_shrink
I0814 14:26:40.852491 29110 net.cpp:356] label_shrink_label_shrink_0_split -> label_shrink_label_shrink_0_split_0
I0814 14:26:40.852514 29110 net.cpp:356] label_shrink_label_shrink_0_split -> label_shrink_label_shrink_0_split_1
I0814 14:26:40.852533 29110 net.cpp:96] Setting up label_shrink_label_shrink_0_split
I0814 14:26:40.852551 29110 net.cpp:103] Top shape: 20 1 39 39 (30420)
I0814 14:26:40.852567 29110 net.cpp:103] Top shape: 20 1 39 39 (30420)
I0814 14:26:40.852583 29110 layer_factory.hpp:78] Creating layer loss
I0814 14:26:40.852607 29110 net.cpp:67] Creating Layer loss
I0814 14:26:40.852622 29110 net.cpp:394] loss <- fc8_pascal_fc8_pascal_0_split_0
I0814 14:26:40.852640 29110 net.cpp:394] loss <- label_shrink_label_shrink_0_split_0
I0814 14:26:40.852661 29110 net.cpp:356] loss -> (automatic)
I0814 14:26:40.852682 29110 net.cpp:96] Setting up loss
I0814 14:26:40.852705 29110 softmax_loss_layer.cpp:40] Weight_Loss file is not provided. Assign all one to it.
I0814 14:26:40.852725 29110 net.cpp:103] Top shape: 1 1 1 1 (1)
I0814 14:26:40.852742 29110 net.cpp:109]     with loss weight 1
I0814 14:26:40.852782 29110 layer_factory.hpp:78] Creating layer accuracy
I0814 14:26:40.852804 29110 net.cpp:67] Creating Layer accuracy
I0814 14:26:40.852819 29110 net.cpp:394] accuracy <- fc8_pascal_fc8_pascal_0_split_1
I0814 14:26:40.852838 29110 net.cpp:394] accuracy <- label_shrink_label_shrink_0_split_1
I0814 14:26:40.852856 29110 net.cpp:356] accuracy -> accuracy
I0814 14:26:40.852874 29110 net.cpp:96] Setting up accuracy
I0814 14:26:40.852900 29110 net.cpp:103] Top shape: 1 1 1 3 (3)
I0814 14:26:40.852915 29110 net.cpp:172] accuracy does not need backward computation.
I0814 14:26:40.852929 29110 net.cpp:170] loss needs backward computation.
I0814 14:26:40.852943 29110 net.cpp:172] label_shrink_label_shrink_0_split does not need backward computation.
I0814 14:26:40.852959 29110 net.cpp:172] label_shrink does not need backward computation.
I0814 14:26:40.852974 29110 net.cpp:170] fc8_pascal_fc8_pascal_0_split needs backward computation.
…
