…
I0813 00:33:08.211220 15603 net.cpp:275] The NetState phase (0) differed from the phase (1) specified by a rule in layer fc8_mat
I0813 00:33:08.211443 15603 net.cpp:39] Initializing net from parameters: 
name: "vgg128_noup"
layers {
  top: "data"
  top: "label"
  name: "data"
  type: IMAGE_SEG_DATA
  image_data_param {
    source: "voc12/list/train_aug.txt"
    batch_size: 20
    shuffle: true
    root_folder: "/media/Work_SSD/ali/VOCdevkit/VOC2012"
    label_type: PIXEL
  }
  include {
    phase: TRAIN
  }
  transform_param {
    mirror: true
    crop_size: 306
    mean_value: 104.008
    mean_value: 116.669
    mean_value: 122.675
  }
}
layers {
  bottom: "data"
  top: "conv1_1"
  name: "conv1_1"
  type: CONVOLUTION
  blobs_lr: 1
  blobs_lr: 2
  weight_decay: 1
  weight_decay: 0
  convolution_param {
    num_output: 64
    pad: 1
    kernel_size: 3
  }
}
layers {
  bottom: "conv1_1"
  top: "conv1_1"
  name: "relu1_1"
  type: RELU
}
layers {
  bottom: "conv1_1"
  top: "conv1_2"
  name: "conv1_2"
  type: CONVOLUTION
  blobs_lr: 1
  blobs_lr: 2
  weight_decay: 1
  weight_decay: 0
  convolution_param {
    num_output: 64
    pad: 1
    kernel_size: 3
  }
}
layers {
  bottom: "conv1_2"
  top: "conv1_2"
  name: "relu1_2"
  type: RELU
}
layers {
  bottom: "conv1_2"
  top: "pool1"
  name: "pool1"
  type: POOLING
  pooling_param {
    pool: MAX
    kernel_size: 2
    stride: 2
    pad: 1
  }
}
layers {
  bottom: "pool1"
  top: "conv2_1"
  name: "conv2_1"
  type: CONVOLUTION
  blobs_lr: 1
  blobs_lr: 2
  weight_decay: 1
  weight_decay: 0
  convolution_param {
    num_output: 128
    pad: 1
    kernel_size: 3
  }
}
layers {
  bottom: "conv2_1"
  top: "conv2_1"
  name: "relu2_1"
  type: RELU
}
layers {
  bottom: "conv2_1"
  top: "conv2_2"
  name: "conv2_2"
  type: CONVOLUTION
  blobs_lr: 1
  blobs_lr: 2
  weight_decay: 1
  weight_decay: 0
  convolution_param {
    num_output: 128
    pad: 1
    kernel_size: 3
  }
}
layers {
  bottom: "conv2_2"
  top: "conv2_2"
  name: "relu2_2"
  type: RELU
}
layers {
  bottom: "conv2_2"
  top: "pool2"
  name: "pool2"
  type: POOLING
  pooling_param {
    pool: MAX
    kernel_size: 2
    stride: 2
    pad: 1
  }
}
layers {
  bottom: "pool2"
  top: "conv3_1"
  name: "conv3_1"
  type: CONVOLUTION
  blobs_lr: 1
  blobs_lr: 2
  weight_decay: 1
  weight_decay: 0
  convolution_param {
    num_output: 256
    pad: 1
    kernel_size: 3
  }
}
layers {
  bottom: "conv3_1"
  top: "conv3_1"
  name: "relu3_1"
  type: RELU
}
layers {
  bottom: "conv3_1"
  top: "conv3_2"
  name: "conv3_2"
  type: CONVOLUTION
  blobs_lr: 1
  blobs_lr: 2
  weight_decay: 1
  weight_decay: 0
  convolution_param {
    num_output: 256
    pad: 1
    kernel_size: 3
  }
}
layers {
  bottom: "conv3_2"
  top: "conv3_2"
  name: "relu3_2"
  type: RELU
}
layers {
  bottom: "conv3_2"
  top: "conv3_3"
  name: "conv3_3"
  type: CONVOLUTION
  blobs_lr: 1
  blobs_lr: 2
  weight_decay: 1
  weight_decay: 0
  convolution_param {
    num_output: 256
    pad: 1
    kernel_size: 3
  }
}
layers {
  bottom: "conv3_3"
  top: "conv3_3"
  name: "relu3_3"
  type: RELU
}
layers {
  bottom: "conv3_3"
  top: "pool3"
  name: "pool3"
  type: POOLING
  pooling_param {
    pool: MAX
    kernel_size: 2
    stride: 2
    pad: 1
  }
}
layers {
  bottom: "pool3"
  top: "conv4_1"
  name: "conv4_1"
  type: CONVOLUTION
  blobs_lr: 1
  blobs_lr: 2
  weight_decay: 1
  weight_decay: 0
  convolution_param {
    num_output: 512
    pad: 1
    kernel_size: 3
  }
}
layers {
  bottom: "conv4_1"
  top: "conv4_1"
  name: "relu4_1"
  type: RELU
}
layers {
  bottom: "conv4_1"
  top: "conv4_2"
  name: "conv4_2"
  type: CONVOLUTION
  blobs_lr: 1
  blobs_lr: 2
  weight_decay: 1
  weight_decay: 0
  convolution_param {
    num_output: 512
    pad: 1
    kernel_size: 3
  }
}
layers {
  bottom: "conv4_2"
  top: "conv4_2"
  name: "relu4_2"
  type: RELU
}
layers {
  bottom: "conv4_2"
  top: "conv4_3"
  name: "conv4_3"
  type: CONVOLUTION
  blobs_lr: 1
  blobs_lr: 2
  weight_decay: 1
  weight_decay: 0
  convolution_param {
    num_output: 512
    pad: 1
    kernel_size: 3
  }
}
layers {
  bottom: "conv4_3"
  top: "conv4_3"
  name: "relu4_3"
  type: RELU
}
layers {
  bottom: "conv4_3"
  top: "pool4"
  name: "pool4"
  type: POOLING
  pooling_param {
    pool: MAX
    kernel_size: 2
    stride: 1
  }
}
layers {
  bottom: "pool4"
  top: "conv5_1"
  name: "conv5_1"
  type: CONVOLUTION
  blobs_lr: 1
  blobs_lr: 2
  weight_decay: 1
  weight_decay: 0
  convolution_param {
    num_output: 512
    pad: 2
    kernel_size: 3
    hole: 2
  }
}
layers {
  bottom: "conv5_1"
  top: "conv5_1"
  name: "relu5_1"
  type: RELU
}
layers {
  bottom: "conv5_1"
  top: "conv5_2"
  name: "conv5_2"
  type: CONVOLUTION
  blobs_lr: 1
  blobs_lr: 2
  weight_decay: 1
  weight_decay: 0
  convolution_param {
    num_output: 512
    pad: 2
    kernel_size: 3
    hole: 2
  }
}
layers {
  bottom: "conv5_2"
  top: "conv5_2"
  name: "relu5_2"
  type: RELU
}
layers {
  bottom: "conv5_2"
  top: "conv5_3"
  name: "conv5_3"
  type: CONVOLUTION
  blobs_lr: 1
  blobs_lr: 2
  weight_decay: 1
  weight_decay: 0
  convolution_param {
    num_output: 512
    pad: 2
    kernel_size: 3
    hole: 2
  }
}
layers {
  bottom: "conv5_3"
  top: "conv5_3"
  name: "relu5_3"
  type: RELU
}
layers {
  bottom: "conv5_3"
  top: "pool5"
  name: "pool5"
  type: POOLING
  pooling_param {
    pool: MAX
    kernel_size: 3
    stride: 1
    pad: 1
  }
}
layers {
  bottom: "pool5"
  top: "fc6"
  name: "fc6"
  type: CONVOLUTION
  blobs_lr: 1
  blobs_lr: 2
  weight_decay: 1
  weight_decay: 0
  convolution_param {
    num_output: 4096
    pad: 6
    kernel_size: 4
    hole: 4
  }
  strict_dim: false
}
layers {
  bottom: "fc6"
  top: "fc6"
  name: "relu6"
  type: RELU
}
layers {
  bottom: "fc6"
  top: "fc6"
  name: "drop6"
  type: DROPOUT
  dropout_param {
    dropout_ratio: 0.5
  }
}
layers {
  bottom: "fc6"
  top: "fc7"
  name: "fc7"
  type: CONVOLUTION
  blobs_lr: 1
  blobs_lr: 2
  weight_decay: 1
  weight_decay: 0
  convolution_param {
    num_output: 4096
    kernel_size: 1
  }
  strict_dim: false
}
layers {
  bottom: "fc7"
  top: "fc7"
  name: "relu7"
  type: RELU
}
layers {
  bottom: "fc7"
  top: "fc7"
  name: "drop7"
  type: DROPOUT
  dropout_param {
    dropout_ratio: 0.5
  }
}
layers {
  bottom: "fc7"
  top: "fc8_pascal"
  name: "fc8_pascal"
  type: CONVOLUTION
  blobs_lr: 10
  blobs_lr: 20
  weight_decay: 1
  weight_decay: 0
  convolution_param {
    num_output: 21
    kernel_size: 1
    weight_filler {
      type: "gaussian"
      std: 0.01
    }
    bias_filler {
      type: "constant"
      value: 0
    }
  }
  strict_dim: false
}
layers {
  bottom: "label"
  top: "label_shrink"
  name: "label_shrink"
  type: INTERP
  interp_param {
    shrink_factor: 8
    pad_beg: -1
    pad_end: 0
  }
}
layers {
  bottom: "fc8_pascal"
  bottom: "label_shrink"
  name: "loss"
  type: SOFTMAX_LOSS
  include {
    phase: TRAIN
  }
  softmaxloss_param {
    ignore_label: 255
  }
}
layers {
  bottom: "fc8_pascal"
  bottom: "label_shrink"
  top: "accuracy"
  name: "accuracy"
  type: SEG_ACCURACY
  seg_accuracy_param {
    ignore_label: 255
  }
}
state {
  phase: TRAIN
}
I0813 00:33:08.213554 15603 layer_factory.hpp:78] Creating layer data
I0813 00:33:08.213583 15603 net.cpp:67] Creating Layer data
I0813 00:33:08.213598 15603 net.cpp:356] data -> data
I0813 00:33:08.213623 15603 net.cpp:356] data -> label
I0813 00:33:08.213641 15603 net.cpp:356] data -> (automatic)
I0813 00:33:08.213655 15603 net.cpp:96] Setting up data
I0813 00:33:08.213670 15603 image_seg_data_layer.cpp:45] Opening file voc12/list/train_aug.txt
I0813 00:33:08.225060 15603 image_seg_data_layer.cpp:62] Shuffling data
I0813 00:33:08.227080 15603 image_seg_data_layer.cpp:67] A total of 10582 images.
I0813 00:33:08.232986 15603 image_seg_data_layer.cpp:113] output data size: 20,3,306,306
I0813 00:33:08.233008 15603 image_seg_data_layer.cpp:117] output label size: 20,1,306,306
I0813 00:33:08.233017 15603 image_seg_data_layer.cpp:121] output data_dim size: 20,1,1,2
I0813 00:33:08.244395 15603 net.cpp:103] Top shape: 20 3 306 306 (5618160)
I0813 00:33:08.244413 15603 net.cpp:103] Top shape: 20 1 306 306 (1872720)
I0813 00:33:08.244439 15603 net.cpp:103] Top shape: 20 1 1 2 (40)
I0813 00:33:08.244449 15603 layer_factory.hpp:78] Creating layer conv1_1
I0813 00:33:08.244469 15603 net.cpp:67] Creating Layer conv1_1
I0813 00:33:08.244485 15603 net.cpp:394] conv1_1 <- data
I0813 00:33:08.244499 15603 net.cpp:356] conv1_1 -> conv1_1
I0813 00:33:08.244518 15603 net.cpp:96] Setting up conv1_1
I0813 00:33:08.244596 15603 net.cpp:103] Top shape: 20 64 306 306 (119854080)
I0813 00:33:08.244618 15603 layer_factory.hpp:78] Creating layer relu1_1
I0813 00:33:08.244633 15603 net.cpp:67] Creating Layer relu1_1
I0813 00:33:08.244645 15603 net.cpp:394] relu1_1 <- conv1_1
I0813 00:33:08.244658 15603 net.cpp:345] relu1_1 -> conv1_1 (in-place)
I0813 00:33:08.244673 15603 net.cpp:96] Setting up relu1_1
I0813 00:33:08.244685 15603 net.cpp:103] Top shape: 20 64 306 306 (119854080)
I0813 00:33:08.244696 15603 layer_factory.hpp:78] Creating layer conv1_2
I0813 00:33:08.244709 15603 net.cpp:67] Creating Layer conv1_2
I0813 00:33:08.244719 15603 net.cpp:394] conv1_2 <- conv1_1
I0813 00:33:08.244730 15603 net.cpp:356] conv1_2 -> conv1_2
I0813 00:33:08.244743 15603 net.cpp:96] Setting up conv1_2
I0813 00:33:08.245008 15603 net.cpp:103] Top shape: 20 64 306 306 (119854080)
I0813 00:33:08.245117 15603 layer_factory.hpp:78] Creating layer relu1_2
I0813 00:33:08.245134 15603 net.cpp:67] Creating Layer relu1_2
I0813 00:33:08.245146 15603 net.cpp:394] relu1_2 <- conv1_2
I0813 00:33:08.245159 15603 net.cpp:345] relu1_2 -> conv1_2 (in-place)
I0813 00:33:08.245172 15603 net.cpp:96] Setting up relu1_2
I0813 00:33:08.245184 15603 net.cpp:103] Top shape: 20 64 306 306 (119854080)
I0813 00:33:08.245196 15603 layer_factory.hpp:78] Creating layer pool1
I0813 00:33:08.245209 15603 net.cpp:67] Creating Layer pool1
I0813 00:33:08.245223 15603 net.cpp:394] pool1 <- conv1_2
I0813 00:33:08.245234 15603 net.cpp:356] pool1 -> pool1
I0813 00:33:08.245250 15603 net.cpp:96] Setting up pool1
I0813 00:33:08.245271 15603 net.cpp:103] Top shape: 20 64 154 154 (30356480)
I0813 00:33:08.245288 15603 layer_factory.hpp:78] Creating layer conv2_1
I0813 00:33:08.245299 15603 net.cpp:67] Creating Layer conv2_1
I0813 00:33:08.245309 15603 net.cpp:394] conv2_1 <- pool1
I0813 00:33:08.245327 15603 net.cpp:356] conv2_1 -> conv2_1
I0813 00:33:08.245343 15603 net.cpp:96] Setting up conv2_1
I0813 00:33:08.245610 15603 net.cpp:103] Top shape: 20 128 154 154 (60712960)
I0813 00:33:08.245631 15603 layer_factory.hpp:78] Creating layer relu2_1
I0813 00:33:08.245645 15603 net.cpp:67] Creating Layer relu2_1
I0813 00:33:08.245656 15603 net.cpp:394] relu2_1 <- conv2_1
I0813 00:33:08.245666 15603 net.cpp:345] relu2_1 -> conv2_1 (in-place)
I0813 00:33:08.245679 15603 net.cpp:96] Setting up relu2_1
I0813 00:33:08.245692 15603 net.cpp:103] Top shape: 20 128 154 154 (60712960)
I0813 00:33:08.245703 15603 layer_factory.hpp:78] Creating layer conv2_2
I0813 00:33:08.245720 15603 net.cpp:67] Creating Layer conv2_2
I0813 00:33:08.245734 15603 net.cpp:394] conv2_2 <- conv2_1
I0813 00:33:08.245750 15603 net.cpp:356] conv2_2 -> conv2_2
I0813 00:33:08.245764 15603 net.cpp:96] Setting up conv2_2
I0813 00:33:08.246167 15603 net.cpp:103] Top shape: 20 128 154 154 (60712960)
I0813 00:33:08.246187 15603 layer_factory.hpp:78] Creating layer relu2_2
I0813 00:33:08.246199 15603 net.cpp:67] Creating Layer relu2_2
I0813 00:33:08.246211 15603 net.cpp:394] relu2_2 <- conv2_2
I0813 00:33:08.246222 15603 net.cpp:345] relu2_2 -> conv2_2 (in-place)
I0813 00:33:08.246254 15603 net.cpp:96] Setting up relu2_2
I0813 00:33:08.246269 15603 net.cpp:103] Top shape: 20 128 154 154 (60712960)
I0813 00:33:08.246282 15603 layer_factory.hpp:78] Creating layer pool2
I0813 00:33:08.246309 15603 net.cpp:67] Creating Layer pool2
I0813 00:33:08.246322 15603 net.cpp:394] pool2 <- conv2_2
I0813 00:33:08.246336 15603 net.cpp:356] pool2 -> pool2
I0813 00:33:08.246350 15603 net.cpp:96] Setting up pool2
I0813 00:33:08.246363 15603 net.cpp:103] Top shape: 20 128 78 78 (15575040)
I0813 00:33:08.246374 15603 layer_factory.hpp:78] Creating layer conv3_1
I0813 00:33:08.246397 15603 net.cpp:67] Creating Layer conv3_1
I0813 00:33:08.246412 15603 net.cpp:394] conv3_1 <- pool2
I0813 00:33:08.246438 15603 net.cpp:356] conv3_1 -> conv3_1
I0813 00:33:08.246453 15603 net.cpp:96] Setting up conv3_1
I0813 00:33:08.247419 15603 net.cpp:103] Top shape: 20 256 78 78 (31150080)
I0813 00:33:08.247442 15603 layer_factory.hpp:78] Creating layer relu3_1
I0813 00:33:08.247458 15603 net.cpp:67] Creating Layer relu3_1
I0813 00:33:08.247469 15603 net.cpp:394] relu3_1 <- conv3_1
I0813 00:33:08.247485 15603 net.cpp:345] relu3_1 -> conv3_1 (in-place)
I0813 00:33:08.247499 15603 net.cpp:96] Setting up relu3_1
I0813 00:33:08.247512 15603 net.cpp:103] Top shape: 20 256 78 78 (31150080)
I0813 00:33:08.247524 15603 layer_factory.hpp:78] Creating layer conv3_2
I0813 00:33:08.247534 15603 net.cpp:67] Creating Layer conv3_2
I0813 00:33:08.247545 15603 net.cpp:394] conv3_2 <- conv3_1
I0813 00:33:08.247557 15603 net.cpp:356] conv3_2 -> conv3_2
I0813 00:33:08.247571 15603 net.cpp:96] Setting up conv3_2
I0813 00:33:08.249138 15603 net.cpp:103] Top shape: 20 256 78 78 (31150080)
I0813 00:33:08.249163 15603 layer_factory.hpp:78] Creating layer relu3_2
I0813 00:33:08.249199 15603 net.cpp:67] Creating Layer relu3_2
I0813 00:33:08.249212 15603 net.cpp:394] relu3_2 <- conv3_2
I0813 00:33:08.249228 15603 net.cpp:345] relu3_2 -> conv3_2 (in-place)
I0813 00:33:08.249248 15603 net.cpp:96] Setting up relu3_2
I0813 00:33:08.249258 15603 net.cpp:103] Top shape: 20 256 78 78 (31150080)
I0813 00:33:08.249271 15603 layer_factory.hpp:78] Creating layer conv3_3
I0813 00:33:08.249286 15603 net.cpp:67] Creating Layer conv3_3
I0813 00:33:08.249300 15603 net.cpp:394] conv3_3 <- conv3_2
I0813 00:33:08.249315 15603 net.cpp:356] conv3_3 -> conv3_3
I0813 00:33:08.249330 15603 net.cpp:96] Setting up conv3_3
I0813 00:33:08.250646 15603 net.cpp:103] Top shape: 20 256 78 78 (31150080)
I0813 00:33:08.250666 15603 layer_factory.hpp:78] Creating layer relu3_3
I0813 00:33:08.250686 15603 net.cpp:67] Creating Layer relu3_3
I0813 00:33:08.250701 15603 net.cpp:394] relu3_3 <- conv3_3
I0813 00:33:08.250715 15603 net.cpp:345] relu3_3 -> conv3_3 (in-place)
I0813 00:33:08.250732 15603 net.cpp:96] Setting up relu3_3
I0813 00:33:08.250743 15603 net.cpp:103] Top shape: 20 256 78 78 (31150080)
I0813 00:33:08.250756 15603 layer_factory.hpp:78] Creating layer pool3
I0813 00:33:08.250767 15603 net.cpp:67] Creating Layer pool3
I0813 00:33:08.250779 15603 net.cpp:394] pool3 <- conv3_3
I0813 00:33:08.250794 15603 net.cpp:356] pool3 -> pool3
I0813 00:33:08.250808 15603 net.cpp:96] Setting up pool3
I0813 00:33:08.250821 15603 net.cpp:103] Top shape: 20 256 40 40 (8192000)
I0813 00:33:08.250833 15603 layer_factory.hpp:78] Creating layer conv4_1
I0813 00:33:08.250845 15603 net.cpp:67] Creating Layer conv4_1
I0813 00:33:08.250857 15603 net.cpp:394] conv4_1 <- pool3
I0813 00:33:08.250870 15603 net.cpp:356] conv4_1 -> conv4_1
I0813 00:33:08.250885 15603 net.cpp:96] Setting up conv4_1
I0813 00:33:08.253211 15603 net.cpp:103] Top shape: 20 512 40 40 (16384000)
I0813 00:33:08.253233 15603 layer_factory.hpp:78] Creating layer relu4_1
I0813 00:33:08.253268 15603 net.cpp:67] Creating Layer relu4_1
I0813 00:33:08.253283 15603 net.cpp:394] relu4_1 <- conv4_1
I0813 00:33:08.253296 15603 net.cpp:345] relu4_1 -> conv4_1 (in-place)
I0813 00:33:08.253310 15603 net.cpp:96] Setting up relu4_1
I0813 00:33:08.253322 15603 net.cpp:103] Top shape: 20 512 40 40 (16384000)
I0813 00:33:08.253358 15603 layer_factory.hpp:78] Creating layer conv4_2
I0813 00:33:08.253375 15603 net.cpp:67] Creating Layer conv4_2
I0813 00:33:08.253386 15603 net.cpp:394] conv4_2 <- conv4_1
I0813 00:33:08.253404 15603 net.cpp:356] conv4_2 -> conv4_2
I0813 00:33:08.253425 15603 net.cpp:96] Setting up conv4_2
I0813 00:33:08.258119 15603 net.cpp:103] Top shape: 20 512 40 40 (16384000)
I0813 00:33:08.258157 15603 layer_factory.hpp:78] Creating layer relu4_2
I0813 00:33:08.258172 15603 net.cpp:67] Creating Layer relu4_2
I0813 00:33:08.258203 15603 net.cpp:394] relu4_2 <- conv4_2
I0813 00:33:08.258214 15603 net.cpp:345] relu4_2 -> conv4_2 (in-place)
I0813 00:33:08.258232 15603 net.cpp:96] Setting up relu4_2
I0813 00:33:08.258245 15603 net.cpp:103] Top shape: 20 512 40 40 (16384000)
I0813 00:33:08.258256 15603 layer_factory.hpp:78] Creating layer conv4_3
I0813 00:33:08.258270 15603 net.cpp:67] Creating Layer conv4_3
I0813 00:33:08.258281 15603 net.cpp:394] conv4_3 <- conv4_2
I0813 00:33:08.258293 15603 net.cpp:356] conv4_3 -> conv4_3
I0813 00:33:08.258306 15603 net.cpp:96] Setting up conv4_3
I0813 00:33:08.263238 15603 net.cpp:103] Top shape: 20 512 40 40 (16384000)
I0813 00:33:08.263270 15603 layer_factory.hpp:78] Creating layer relu4_3
I0813 00:33:08.263284 15603 net.cpp:67] Creating Layer relu4_3
I0813 00:33:08.263293 15603 net.cpp:394] relu4_3 <- conv4_3
I0813 00:33:08.263331 15603 net.cpp:345] relu4_3 -> conv4_3 (in-place)
I0813 00:33:08.263348 15603 net.cpp:96] Setting up relu4_3
I0813 00:33:08.263363 15603 net.cpp:103] Top shape: 20 512 40 40 (16384000)
I0813 00:33:08.263376 15603 layer_factory.hpp:78] Creating layer pool4
I0813 00:33:08.263387 15603 net.cpp:67] Creating Layer pool4
I0813 00:33:08.263401 15603 net.cpp:394] pool4 <- conv4_3
I0813 00:33:08.263412 15603 net.cpp:356] pool4 -> pool4
I0813 00:33:08.263428 15603 net.cpp:96] Setting up pool4
I0813 00:33:08.263442 15603 net.cpp:103] Top shape: 20 512 39 39 (15575040)
I0813 00:33:08.263452 15603 layer_factory.hpp:78] Creating layer conv5_1
I0813 00:33:08.263463 15603 net.cpp:67] Creating Layer conv5_1
I0813 00:33:08.263473 15603 net.cpp:394] conv5_1 <- pool4
I0813 00:33:08.263484 15603 net.cpp:356] conv5_1 -> conv5_1
I0813 00:33:08.263495 15603 net.cpp:96] Setting up conv5_1
I0813 00:33:08.268249 15603 net.cpp:103] Top shape: 20 512 39 39 (15575040)
I0813 00:33:08.268287 15603 layer_factory.hpp:78] Creating layer relu5_1
I0813 00:33:08.268332 15603 net.cpp:67] Creating Layer relu5_1
I0813 00:33:08.268342 15603 net.cpp:394] relu5_1 <- conv5_1
I0813 00:33:08.268357 15603 net.cpp:345] relu5_1 -> conv5_1 (in-place)
I0813 00:33:08.268371 15603 net.cpp:96] Setting up relu5_1
I0813 00:33:08.268388 15603 net.cpp:103] Top shape: 20 512 39 39 (15575040)
I0813 00:33:08.268400 15603 layer_factory.hpp:78] Creating layer conv5_2
I0813 00:33:08.268416 15603 net.cpp:67] Creating Layer conv5_2
I0813 00:33:08.268426 15603 net.cpp:394] conv5_2 <- conv5_1
I0813 00:33:08.268437 15603 net.cpp:356] conv5_2 -> conv5_2
I0813 00:33:08.268452 15603 net.cpp:96] Setting up conv5_2
I0813 00:33:08.273493 15603 net.cpp:103] Top shape: 20 512 39 39 (15575040)
I0813 00:33:08.273537 15603 layer_factory.hpp:78] Creating layer relu5_2
I0813 00:33:08.273557 15603 net.cpp:67] Creating Layer relu5_2
I0813 00:33:08.273602 15603 net.cpp:394] relu5_2 <- conv5_2
I0813 00:33:08.273629 15603 net.cpp:345] relu5_2 -> conv5_2 (in-place)
I0813 00:33:08.273651 15603 net.cpp:96] Setting up relu5_2
I0813 00:33:08.273670 15603 net.cpp:103] Top shape: 20 512 39 39 (15575040)
I0813 00:33:08.273689 15603 layer_factory.hpp:78] Creating layer conv5_3
I0813 00:33:08.273710 15603 net.cpp:67] Creating Layer conv5_3
I0813 00:33:08.273727 15603 net.cpp:394] conv5_3 <- conv5_2
I0813 00:33:08.273749 15603 net.cpp:356] conv5_3 -> conv5_3
I0813 00:33:08.273771 15603 net.cpp:96] Setting up conv5_3
I0813 00:33:08.278587 15603 net.cpp:103] Top shape: 20 512 39 39 (15575040)
I0813 00:33:08.278630 15603 layer_factory.hpp:78] Creating layer relu5_3
I0813 00:33:08.278650 15603 net.cpp:67] Creating Layer relu5_3
I0813 00:33:08.278697 15603 net.cpp:394] relu5_3 <- conv5_3
I0813 00:33:08.278746 15603 net.cpp:345] relu5_3 -> conv5_3 (in-place)
I0813 00:33:08.278772 15603 net.cpp:96] Setting up relu5_3
I0813 00:33:08.278790 15603 net.cpp:103] Top shape: 20 512 39 39 (15575040)
I0813 00:33:08.278810 15603 layer_factory.hpp:78] Creating layer pool5
I0813 00:33:08.278846 15603 net.cpp:67] Creating Layer pool5
I0813 00:33:08.278864 15603 net.cpp:394] pool5 <- conv5_3
I0813 00:33:08.278885 15603 net.cpp:356] pool5 -> pool5
I0813 00:33:08.278906 15603 net.cpp:96] Setting up pool5
I0813 00:33:08.278926 15603 net.cpp:103] Top shape: 20 512 39 39 (15575040)
I0813 00:33:08.278944 15603 layer_factory.hpp:78] Creating layer fc6
I0813 00:33:08.278986 15603 net.cpp:67] Creating Layer fc6
I0813 00:33:08.279005 15603 net.cpp:394] fc6 <- pool5
I0813 00:33:08.279026 15603 net.cpp:356] fc6 -> fc6
I0813 00:33:08.279047 15603 net.cpp:96] Setting up fc6
I0813 00:33:08.345947 15603 net.cpp:103] Top shape: 20 4096 39 39 (124600320)
I0813 00:33:08.345994 15603 layer_factory.hpp:78] Creating layer relu6
I0813 00:33:08.346052 15603 net.cpp:67] Creating Layer relu6
I0813 00:33:08.346073 15603 net.cpp:394] relu6 <- fc6
I0813 00:33:08.346099 15603 net.cpp:345] relu6 -> fc6 (in-place)
I0813 00:33:08.346124 15603 net.cpp:96] Setting up relu6
I0813 00:33:08.346143 15603 net.cpp:103] Top shape: 20 4096 39 39 (124600320)
I0813 00:33:08.346159 15603 layer_factory.hpp:78] Creating layer drop6
I0813 00:33:08.346184 15603 net.cpp:67] Creating Layer drop6
I0813 00:33:08.346201 15603 net.cpp:394] drop6 <- fc6
I0813 00:33:08.346221 15603 net.cpp:345] drop6 -> fc6 (in-place)
I0813 00:33:08.346242 15603 net.cpp:96] Setting up drop6
I0813 00:33:08.346264 15603 net.cpp:103] Top shape: 20 4096 39 39 (124600320)
I0813 00:33:08.346282 15603 layer_factory.hpp:78] Creating layer fc7
I0813 00:33:08.346307 15603 net.cpp:67] Creating Layer fc7
I0813 00:33:08.346323 15603 net.cpp:394] fc7 <- fc6
I0813 00:33:08.346343 15603 net.cpp:356] fc7 -> fc7
I0813 00:33:08.346365 15603 net.cpp:96] Setting up fc7
I0813 00:33:08.379716 15603 net.cpp:103] Top shape: 20 4096 39 39 (124600320)
I0813 00:33:08.379765 15603 layer_factory.hpp:78] Creating layer relu7
I0813 00:33:08.379787 15603 net.cpp:67] Creating Layer relu7
I0813 00:33:08.379834 15603 net.cpp:394] relu7 <- fc7
I0813 00:33:08.379860 15603 net.cpp:345] relu7 -> fc7 (in-place)
I0813 00:33:08.379884 15603 net.cpp:96] Setting up relu7
I0813 00:33:08.379902 15603 net.cpp:103] Top shape: 20 4096 39 39 (124600320)
I0813 00:33:08.379921 15603 layer_factory.hpp:78] Creating layer drop7
I0813 00:33:08.379942 15603 net.cpp:67] Creating Layer drop7
I0813 00:33:08.379959 15603 net.cpp:394] drop7 <- fc7
I0813 00:33:08.379979 15603 net.cpp:345] drop7 -> fc7 (in-place)
I0813 00:33:08.379999 15603 net.cpp:96] Setting up drop7
I0813 00:33:08.380017 15603 net.cpp:103] Top shape: 20 4096 39 39 (124600320)
I0813 00:33:08.380035 15603 layer_factory.hpp:78] Creating layer fc8_pascal
I0813 00:33:08.380058 15603 net.cpp:67] Creating Layer fc8_pascal
I0813 00:33:08.380074 15603 net.cpp:394] fc8_pascal <- fc7
I0813 00:33:08.380097 15603 net.cpp:356] fc8_pascal -> fc8_pascal
I0813 00:33:08.380120 15603 net.cpp:96] Setting up fc8_pascal
I0813 00:33:08.383620 15603 net.cpp:103] Top shape: 20 21 39 39 (638820)
I0813 00:33:08.383647 15603 layer_factory.hpp:78] Creating layer fc8_pascal_fc8_pascal_0_split
I0813 00:33:08.383685 15603 net.cpp:67] Creating Layer fc8_pascal_fc8_pascal_0_split
I0813 00:33:08.383705 15603 net.cpp:394] fc8_pascal_fc8_pascal_0_split <- fc8_pascal
I0813 00:33:08.383728 15603 net.cpp:356] fc8_pascal_fc8_pascal_0_split -> fc8_pascal_fc8_pascal_0_split_0
I0813 00:33:08.383752 15603 net.cpp:356] fc8_pascal_fc8_pascal_0_split -> fc8_pascal_fc8_pascal_0_split_1
I0813 00:33:08.383774 15603 net.cpp:96] Setting up fc8_pascal_fc8_pascal_0_split
I0813 00:33:08.383796 15603 net.cpp:103] Top shape: 20 21 39 39 (638820)
I0813 00:33:08.383815 15603 net.cpp:103] Top shape: 20 21 39 39 (638820)
I0813 00:33:08.383832 15603 layer_factory.hpp:78] Creating layer label_shrink
I0813 00:33:08.383879 15603 net.cpp:67] Creating Layer label_shrink
I0813 00:33:08.383898 15603 net.cpp:394] label_shrink <- label
I0813 00:33:08.383919 15603 net.cpp:356] label_shrink -> label_shrink
I0813 00:33:08.383940 15603 net.cpp:96] Setting up label_shrink
I0813 00:33:08.383962 15603 net.cpp:103] Top shape: 20 1 39 39 (30420)
I0813 00:33:08.383980 15603 layer_factory.hpp:78] Creating layer label_shrink_label_shrink_0_split
I0813 00:33:08.383999 15603 net.cpp:67] Creating Layer label_shrink_label_shrink_0_split
I0813 00:33:08.384016 15603 net.cpp:394] label_shrink_label_shrink_0_split <- label_shrink
I0813 00:33:08.384039 15603 net.cpp:356] label_shrink_label_shrink_0_split -> label_shrink_label_shrink_0_split_0
I0813 00:33:08.384062 15603 net.cpp:356] label_shrink_label_shrink_0_split -> label_shrink_label_shrink_0_split_1
I0813 00:33:08.384083 15603 net.cpp:96] Setting up label_shrink_label_shrink_0_split
I0813 00:33:08.384100 15603 net.cpp:103] Top shape: 20 1 39 39 (30420)
I0813 00:33:08.384119 15603 net.cpp:103] Top shape: 20 1 39 39 (30420)
I0813 00:33:08.384136 15603 layer_factory.hpp:78] Creating layer loss
I0813 00:33:08.384162 15603 net.cpp:67] Creating Layer loss
I0813 00:33:08.384178 15603 net.cpp:394] loss <- fc8_pascal_fc8_pascal_0_split_0
I0813 00:33:08.384198 15603 net.cpp:394] loss <- label_shrink_label_shrink_0_split_0
I0813 00:33:08.384224 15603 net.cpp:356] loss -> (automatic)
I0813 00:33:08.384244 15603 net.cpp:96] Setting up loss
I0813 00:33:08.384269 15603 softmax_loss_layer.cpp:40] Weight_Loss file is not provided. Assign all one to it.
I0813 00:33:08.384292 15603 net.cpp:103] Top shape: 1 1 1 1 (1)
I0813 00:33:08.384413 15603 net.cpp:109]     with loss weight 1
I0813 00:33:08.384454 15603 layer_factory.hpp:78] Creating layer accuracy
I0813 00:33:08.384482 15603 net.cpp:67] Creating Layer accuracy
I0813 00:33:08.384500 15603 net.cpp:394] accuracy <- fc8_pascal_fc8_pascal_0_split_1
I0813 00:33:08.384517 15603 net.cpp:394] accuracy <- label_shrink_label_shrink_0_split_1
I0813 00:33:08.384537 15603 net.cpp:356] accuracy -> accuracy
I0813 00:33:08.384559 15603 net.cpp:96] Setting up accuracy
I0813 00:33:08.384590 15603 net.cpp:103] Top shape: 1 1 1 3 (3)
I0813 00:33:08.384606 15603 net.cpp:172] accuracy does not need backward computation.
I0813 00:33:08.384624 15603 net.cpp:170] loss needs backward computation.
I0813 00:33:08.384640 15603 net.cpp:172] label_shrink_label_shrink_0_split does not need backward computation.
I0813 00:33:08.384660 15603 net.cpp:172] label_shrink does not need backward computation.
I0813 00:33:08.384676 15603 net.cpp:170] fc8_pascal_fc8_pascal_0_split needs backward computation.
…
