…
I0813 11:54:03.915818  1219 net.cpp:275] The NetState phase (0) differed from the phase (1) specified by a rule in layer fc8_mat
I0813 11:54:03.916013  1219 net.cpp:39] Initializing net from parameters: 
name: "vgg128_noup"
layers {
  top: "data"
  top: "label"
  name: "data"
  type: IMAGE_SEG_DATA
  image_data_param {
    source: "voc12/list/train_aug.txt"
    batch_size: 20
    shuffle: true
    root_folder: "/media/Work_SSD/ali/VOCdevkit/VOC2012"
    label_type: PIXEL
  }
  include {
    phase: TRAIN
  }
  transform_param {
    mirror: true
    crop_size: 306
    mean_value: 104.008
    mean_value: 116.669
    mean_value: 122.675
  }
}
layers {
  bottom: "data"
  top: "conv1_1"
  name: "conv1_1"
  type: CONVOLUTION
  blobs_lr: 1
  blobs_lr: 2
  weight_decay: 1
  weight_decay: 0
  convolution_param {
    num_output: 64
    pad: 1
    kernel_size: 3
  }
}
layers {
  bottom: "conv1_1"
  top: "conv1_1"
  name: "relu1_1"
  type: RELU
}
layers {
  bottom: "conv1_1"
  top: "conv1_2"
  name: "conv1_2"
  type: CONVOLUTION
  blobs_lr: 1
  blobs_lr: 2
  weight_decay: 1
  weight_decay: 0
  convolution_param {
    num_output: 64
    pad: 1
    kernel_size: 3
  }
}
layers {
  bottom: "conv1_2"
  top: "conv1_2"
  name: "relu1_2"
  type: RELU
}
layers {
  bottom: "conv1_2"
  top: "pool1"
  name: "pool1"
  type: POOLING
  pooling_param {
    pool: MAX
    kernel_size: 2
    stride: 2
    pad: 1
  }
}
layers {
  bottom: "pool1"
  top: "conv2_1"
  name: "conv2_1"
  type: CONVOLUTION
  blobs_lr: 1
  blobs_lr: 2
  weight_decay: 1
  weight_decay: 0
  convolution_param {
    num_output: 128
    pad: 1
    kernel_size: 3
  }
}
layers {
  bottom: "conv2_1"
  top: "conv2_1"
  name: "relu2_1"
  type: RELU
}
layers {
  bottom: "conv2_1"
  top: "conv2_2"
  name: "conv2_2"
  type: CONVOLUTION
  blobs_lr: 1
  blobs_lr: 2
  weight_decay: 1
  weight_decay: 0
  convolution_param {
    num_output: 128
    pad: 1
    kernel_size: 3
  }
}
layers {
  bottom: "conv2_2"
  top: "conv2_2"
  name: "relu2_2"
  type: RELU
}
layers {
  bottom: "conv2_2"
  top: "pool2"
  name: "pool2"
  type: POOLING
  pooling_param {
    pool: MAX
    kernel_size: 2
    stride: 2
    pad: 1
  }
}
layers {
  bottom: "pool2"
  top: "conv3_1"
  name: "conv3_1"
  type: CONVOLUTION
  blobs_lr: 1
  blobs_lr: 2
  weight_decay: 1
  weight_decay: 0
  convolution_param {
    num_output: 256
    pad: 1
    kernel_size: 3
  }
}
layers {
  bottom: "conv3_1"
  top: "conv3_1"
  name: "relu3_1"
  type: RELU
}
layers {
  bottom: "conv3_1"
  top: "conv3_2"
  name: "conv3_2"
  type: CONVOLUTION
  blobs_lr: 1
  blobs_lr: 2
  weight_decay: 1
  weight_decay: 0
  convolution_param {
    num_output: 256
    pad: 1
    kernel_size: 3
  }
}
layers {
  bottom: "conv3_2"
  top: "conv3_2"
  name: "relu3_2"
  type: RELU
}
layers {
  bottom: "conv3_2"
  top: "conv3_3"
  name: "conv3_3"
  type: CONVOLUTION
  blobs_lr: 1
  blobs_lr: 2
  weight_decay: 1
  weight_decay: 0
  convolution_param {
    num_output: 256
    pad: 1
    kernel_size: 3
  }
}
layers {
  bottom: "conv3_3"
  top: "conv3_3"
  name: "relu3_3"
  type: RELU
}
layers {
  bottom: "conv3_3"
  top: "pool3"
  name: "pool3"
  type: POOLING
  pooling_param {
    pool: MAX
    kernel_size: 2
    stride: 2
    pad: 1
  }
}
layers {
  bottom: "pool3"
  top: "conv4_1"
  name: "conv4_1"
  type: CONVOLUTION
  blobs_lr: 1
  blobs_lr: 2
  weight_decay: 1
  weight_decay: 0
  convolution_param {
    num_output: 512
    pad: 1
    kernel_size: 3
  }
}
layers {
  bottom: "conv4_1"
  top: "conv4_1"
  name: "relu4_1"
  type: RELU
}
layers {
  bottom: "conv4_1"
  top: "conv4_2"
  name: "conv4_2"
  type: CONVOLUTION
  blobs_lr: 1
  blobs_lr: 2
  weight_decay: 1
  weight_decay: 0
  convolution_param {
    num_output: 512
    pad: 1
    kernel_size: 3
  }
}
layers {
  bottom: "conv4_2"
  top: "conv4_2"
  name: "relu4_2"
  type: RELU
}
layers {
  bottom: "conv4_2"
  top: "conv4_3"
  name: "conv4_3"
  type: CONVOLUTION
  blobs_lr: 1
  blobs_lr: 2
  weight_decay: 1
  weight_decay: 0
  convolution_param {
    num_output: 512
    pad: 1
    kernel_size: 3
  }
}
layers {
  bottom: "conv4_3"
  top: "conv4_3"
  name: "relu4_3"
  type: RELU
}
layers {
  bottom: "conv4_3"
  top: "pool4"
  name: "pool4"
  type: POOLING
  pooling_param {
    pool: MAX
    kernel_size: 2
    stride: 1
  }
}
layers {
  bottom: "pool4"
  top: "conv5_1"
  name: "conv5_1"
  type: CONVOLUTION
  blobs_lr: 1
  blobs_lr: 2
  weight_decay: 1
  weight_decay: 0
  convolution_param {
    num_output: 512
    pad: 2
    kernel_size: 3
    hole: 2
  }
}
layers {
  bottom: "conv5_1"
  top: "conv5_1"
  name: "relu5_1"
  type: RELU
}
layers {
  bottom: "conv5_1"
  top: "conv5_2"
  name: "conv5_2"
  type: CONVOLUTION
  blobs_lr: 1
  blobs_lr: 2
  weight_decay: 1
  weight_decay: 0
  convolution_param {
    num_output: 512
    pad: 2
    kernel_size: 3
    hole: 2
  }
}
layers {
  bottom: "conv5_2"
  top: "conv5_2"
  name: "relu5_2"
  type: RELU
}
layers {
  bottom: "conv5_2"
  top: "conv5_3"
  name: "conv5_3"
  type: CONVOLUTION
  blobs_lr: 1
  blobs_lr: 2
  weight_decay: 1
  weight_decay: 0
  convolution_param {
    num_output: 512
    pad: 2
    kernel_size: 3
    hole: 2
  }
}
layers {
  bottom: "conv5_3"
  top: "conv5_3"
  name: "relu5_3"
  type: RELU
}
layers {
  bottom: "conv5_3"
  top: "pool5"
  name: "pool5"
  type: POOLING
  pooling_param {
    pool: MAX
    kernel_size: 3
    stride: 1
    pad: 1
  }
}
layers {
  bottom: "pool5"
  top: "fc6"
  name: "fc6"
  type: CONVOLUTION
  blobs_lr: 1
  blobs_lr: 2
  weight_decay: 1
  weight_decay: 0
  convolution_param {
    num_output: 4096
    pad: 6
    kernel_size: 4
    hole: 4
  }
  strict_dim: false
}
layers {
  bottom: "fc6"
  top: "fc6"
  name: "relu6"
  type: RELU
}
layers {
  bottom: "fc6"
  top: "fc6"
  name: "drop6"
  type: DROPOUT
  dropout_param {
    dropout_ratio: 0.5
  }
}
layers {
  bottom: "fc6"
  top: "fc7"
  name: "fc7"
  type: CONVOLUTION
  blobs_lr: 1
  blobs_lr: 2
  weight_decay: 1
  weight_decay: 0
  convolution_param {
    num_output: 4096
    kernel_size: 1
  }
  strict_dim: false
}
layers {
  bottom: "fc7"
  top: "fc7"
  name: "relu7"
  type: RELU
}
layers {
  bottom: "fc7"
  top: "fc7"
  name: "drop7"
  type: DROPOUT
  dropout_param {
    dropout_ratio: 0.5
  }
}
layers {
  bottom: "fc7"
  top: "fc8_pascal"
  name: "fc8_pascal"
  type: CONVOLUTION
  blobs_lr: 10
  blobs_lr: 20
  weight_decay: 1
  weight_decay: 0
  convolution_param {
    num_output: 21
    kernel_size: 1
    weight_filler {
      type: "gaussian"
      std: 0.01
    }
    bias_filler {
      type: "constant"
      value: 0
    }
  }
  strict_dim: false
}
layers {
  bottom: "label"
  top: "label_shrink"
  name: "label_shrink"
  type: INTERP
  interp_param {
    shrink_factor: 8
    pad_beg: -1
    pad_end: 0
  }
}
layers {
  bottom: "fc8_pascal"
  bottom: "label_shrink"
  name: "loss"
  type: SOFTMAX_LOSS
  include {
    phase: TRAIN
  }
  softmaxloss_param {
    ignore_label: 255
  }
}
layers {
  bottom: "fc8_pascal"
  bottom: "label_shrink"
  top: "accuracy"
  name: "accuracy"
  type: SEG_ACCURACY
  seg_accuracy_param {
    ignore_label: 255
  }
}
state {
  phase: TRAIN
}
I0813 11:54:03.918611  1219 layer_factory.hpp:78] Creating layer data
I0813 11:54:03.918640  1219 net.cpp:67] Creating Layer data
I0813 11:54:03.918658  1219 net.cpp:356] data -> data
I0813 11:54:03.918689  1219 net.cpp:356] data -> label
I0813 11:54:03.918711  1219 net.cpp:356] data -> (automatic)
I0813 11:54:03.918728  1219 net.cpp:96] Setting up data
I0813 11:54:03.918746  1219 image_seg_data_layer.cpp:45] Opening file voc12/list/train_aug.txt
I0813 11:54:03.928452  1219 image_seg_data_layer.cpp:62] Shuffling data
I0813 11:54:03.930201  1219 image_seg_data_layer.cpp:67] A total of 10582 images.
I0813 11:54:03.932919  1219 image_seg_data_layer.cpp:113] output data size: 20,3,306,306
I0813 11:54:03.932936  1219 image_seg_data_layer.cpp:117] output label size: 20,1,306,306
I0813 11:54:03.932960  1219 image_seg_data_layer.cpp:121] output data_dim size: 20,1,1,2
I0813 11:54:03.943141  1219 net.cpp:103] Top shape: 20 3 306 306 (5618160)
I0813 11:54:03.943159  1219 net.cpp:103] Top shape: 20 1 306 306 (1872720)
I0813 11:54:03.943186  1219 net.cpp:103] Top shape: 20 1 1 2 (40)
I0813 11:54:03.943205  1219 layer_factory.hpp:78] Creating layer conv1_1
I0813 11:54:03.943229  1219 net.cpp:67] Creating Layer conv1_1
I0813 11:54:03.943244  1219 net.cpp:394] conv1_1 <- data
I0813 11:54:03.943265  1219 net.cpp:356] conv1_1 -> conv1_1
I0813 11:54:03.943282  1219 net.cpp:96] Setting up conv1_1
I0813 11:54:03.943357  1219 net.cpp:103] Top shape: 20 64 306 306 (119854080)
I0813 11:54:03.943382  1219 layer_factory.hpp:78] Creating layer relu1_1
I0813 11:54:03.943400  1219 net.cpp:67] Creating Layer relu1_1
I0813 11:54:03.943415  1219 net.cpp:394] relu1_1 <- conv1_1
I0813 11:54:03.943434  1219 net.cpp:345] relu1_1 -> conv1_1 (in-place)
I0813 11:54:03.943451  1219 net.cpp:96] Setting up relu1_1
I0813 11:54:03.943467  1219 net.cpp:103] Top shape: 20 64 306 306 (119854080)
I0813 11:54:03.943482  1219 layer_factory.hpp:78] Creating layer conv1_2
I0813 11:54:03.943500  1219 net.cpp:67] Creating Layer conv1_2
I0813 11:54:03.943516  1219 net.cpp:394] conv1_2 <- conv1_1
I0813 11:54:03.943537  1219 net.cpp:356] conv1_2 -> conv1_2
I0813 11:54:03.943560  1219 net.cpp:96] Setting up conv1_2
I0813 11:54:03.943827  1219 net.cpp:103] Top shape: 20 64 306 306 (119854080)
I0813 11:54:03.943856  1219 layer_factory.hpp:78] Creating layer relu1_2
I0813 11:54:03.943874  1219 net.cpp:67] Creating Layer relu1_2
I0813 11:54:03.943892  1219 net.cpp:394] relu1_2 <- conv1_2
I0813 11:54:03.943915  1219 net.cpp:345] relu1_2 -> conv1_2 (in-place)
I0813 11:54:03.943935  1219 net.cpp:96] Setting up relu1_2
I0813 11:54:03.943953  1219 net.cpp:103] Top shape: 20 64 306 306 (119854080)
I0813 11:54:03.943972  1219 layer_factory.hpp:78] Creating layer pool1
I0813 11:54:03.943994  1219 net.cpp:67] Creating Layer pool1
I0813 11:54:03.944010  1219 net.cpp:394] pool1 <- conv1_2
I0813 11:54:03.944036  1219 net.cpp:356] pool1 -> pool1
I0813 11:54:03.944054  1219 net.cpp:96] Setting up pool1
I0813 11:54:03.944078  1219 net.cpp:103] Top shape: 20 64 154 154 (30356480)
I0813 11:54:03.944093  1219 layer_factory.hpp:78] Creating layer conv2_1
I0813 11:54:03.944110  1219 net.cpp:67] Creating Layer conv2_1
I0813 11:54:03.944124  1219 net.cpp:394] conv2_1 <- pool1
I0813 11:54:03.944144  1219 net.cpp:356] conv2_1 -> conv2_1
I0813 11:54:03.944162  1219 net.cpp:96] Setting up conv2_1
I0813 11:54:03.944378  1219 net.cpp:103] Top shape: 20 128 154 154 (60712960)
I0813 11:54:03.944402  1219 layer_factory.hpp:78] Creating layer relu2_1
I0813 11:54:03.944421  1219 net.cpp:67] Creating Layer relu2_1
I0813 11:54:03.944437  1219 net.cpp:394] relu2_1 <- conv2_1
I0813 11:54:03.944459  1219 net.cpp:345] relu2_1 -> conv2_1 (in-place)
I0813 11:54:03.944478  1219 net.cpp:96] Setting up relu2_1
I0813 11:54:03.944495  1219 net.cpp:103] Top shape: 20 128 154 154 (60712960)
I0813 11:54:03.944511  1219 layer_factory.hpp:78] Creating layer conv2_2
I0813 11:54:03.944530  1219 net.cpp:67] Creating Layer conv2_2
I0813 11:54:03.944545  1219 net.cpp:394] conv2_2 <- conv2_1
I0813 11:54:03.944571  1219 net.cpp:356] conv2_2 -> conv2_2
I0813 11:54:03.944594  1219 net.cpp:96] Setting up conv2_2
I0813 11:54:03.944926  1219 net.cpp:103] Top shape: 20 128 154 154 (60712960)
I0813 11:54:03.944948  1219 layer_factory.hpp:78] Creating layer relu2_2
I0813 11:54:03.944967  1219 net.cpp:67] Creating Layer relu2_2
I0813 11:54:03.944983  1219 net.cpp:394] relu2_2 <- conv2_2
I0813 11:54:03.945000  1219 net.cpp:345] relu2_2 -> conv2_2 (in-place)
I0813 11:54:03.945041  1219 net.cpp:96] Setting up relu2_2
I0813 11:54:03.945060  1219 net.cpp:103] Top shape: 20 128 154 154 (60712960)
I0813 11:54:03.945076  1219 layer_factory.hpp:78] Creating layer pool2
I0813 11:54:03.945102  1219 net.cpp:67] Creating Layer pool2
I0813 11:54:03.945116  1219 net.cpp:394] pool2 <- conv2_2
I0813 11:54:03.945139  1219 net.cpp:356] pool2 -> pool2
I0813 11:54:03.945158  1219 net.cpp:96] Setting up pool2
I0813 11:54:03.945178  1219 net.cpp:103] Top shape: 20 128 78 78 (15575040)
I0813 11:54:03.945197  1219 layer_factory.hpp:78] Creating layer conv3_1
I0813 11:54:03.945221  1219 net.cpp:67] Creating Layer conv3_1
I0813 11:54:03.945240  1219 net.cpp:394] conv3_1 <- pool2
I0813 11:54:03.945261  1219 net.cpp:356] conv3_1 -> conv3_1
I0813 11:54:03.945281  1219 net.cpp:96] Setting up conv3_1
I0813 11:54:03.945971  1219 net.cpp:103] Top shape: 20 256 78 78 (31150080)
I0813 11:54:03.945997  1219 layer_factory.hpp:78] Creating layer relu3_1
I0813 11:54:03.946014  1219 net.cpp:67] Creating Layer relu3_1
I0813 11:54:03.946032  1219 net.cpp:394] relu3_1 <- conv3_1
I0813 11:54:03.946051  1219 net.cpp:345] relu3_1 -> conv3_1 (in-place)
I0813 11:54:03.946068  1219 net.cpp:96] Setting up relu3_1
I0813 11:54:03.946084  1219 net.cpp:103] Top shape: 20 256 78 78 (31150080)
I0813 11:54:03.946102  1219 layer_factory.hpp:78] Creating layer conv3_2
I0813 11:54:03.946123  1219 net.cpp:67] Creating Layer conv3_2
I0813 11:54:03.946141  1219 net.cpp:394] conv3_2 <- conv3_1
I0813 11:54:03.946159  1219 net.cpp:356] conv3_2 -> conv3_2
I0813 11:54:03.946177  1219 net.cpp:96] Setting up conv3_2
I0813 11:54:03.947607  1219 net.cpp:103] Top shape: 20 256 78 78 (31150080)
I0813 11:54:03.947628  1219 layer_factory.hpp:78] Creating layer relu3_2
I0813 11:54:03.947661  1219 net.cpp:67] Creating Layer relu3_2
I0813 11:54:03.947679  1219 net.cpp:394] relu3_2 <- conv3_2
I0813 11:54:03.947696  1219 net.cpp:345] relu3_2 -> conv3_2 (in-place)
I0813 11:54:03.947713  1219 net.cpp:96] Setting up relu3_2
I0813 11:54:03.947729  1219 net.cpp:103] Top shape: 20 256 78 78 (31150080)
I0813 11:54:03.947744  1219 layer_factory.hpp:78] Creating layer conv3_3
I0813 11:54:03.947762  1219 net.cpp:67] Creating Layer conv3_3
I0813 11:54:03.947777  1219 net.cpp:394] conv3_3 <- conv3_2
I0813 11:54:03.947793  1219 net.cpp:356] conv3_3 -> conv3_3
I0813 11:54:03.947810  1219 net.cpp:96] Setting up conv3_3
I0813 11:54:03.948853  1219 net.cpp:103] Top shape: 20 256 78 78 (31150080)
I0813 11:54:03.948873  1219 layer_factory.hpp:78] Creating layer relu3_3
I0813 11:54:03.948894  1219 net.cpp:67] Creating Layer relu3_3
I0813 11:54:03.948909  1219 net.cpp:394] relu3_3 <- conv3_3
I0813 11:54:03.948930  1219 net.cpp:345] relu3_3 -> conv3_3 (in-place)
I0813 11:54:03.948947  1219 net.cpp:96] Setting up relu3_3
I0813 11:54:03.948962  1219 net.cpp:103] Top shape: 20 256 78 78 (31150080)
I0813 11:54:03.948978  1219 layer_factory.hpp:78] Creating layer pool3
I0813 11:54:03.948997  1219 net.cpp:67] Creating Layer pool3
I0813 11:54:03.949009  1219 net.cpp:394] pool3 <- conv3_3
I0813 11:54:03.949029  1219 net.cpp:356] pool3 -> pool3
I0813 11:54:03.949046  1219 net.cpp:96] Setting up pool3
I0813 11:54:03.949064  1219 net.cpp:103] Top shape: 20 256 40 40 (8192000)
I0813 11:54:03.949079  1219 layer_factory.hpp:78] Creating layer conv4_1
I0813 11:54:03.949096  1219 net.cpp:67] Creating Layer conv4_1
I0813 11:54:03.949110  1219 net.cpp:394] conv4_1 <- pool3
I0813 11:54:03.949131  1219 net.cpp:356] conv4_1 -> conv4_1
I0813 11:54:03.949146  1219 net.cpp:96] Setting up conv4_1
I0813 11:54:03.951342  1219 net.cpp:103] Top shape: 20 512 40 40 (16384000)
I0813 11:54:03.951375  1219 layer_factory.hpp:78] Creating layer relu4_1
I0813 11:54:03.951393  1219 net.cpp:67] Creating Layer relu4_1
I0813 11:54:03.951426  1219 net.cpp:394] relu4_1 <- conv4_1
I0813 11:54:03.951447  1219 net.cpp:345] relu4_1 -> conv4_1 (in-place)
I0813 11:54:03.951467  1219 net.cpp:96] Setting up relu4_1
I0813 11:54:03.951483  1219 net.cpp:103] Top shape: 20 512 40 40 (16384000)
I0813 11:54:03.951525  1219 layer_factory.hpp:78] Creating layer conv4_2
I0813 11:54:03.951546  1219 net.cpp:67] Creating Layer conv4_2
I0813 11:54:03.951561  1219 net.cpp:394] conv4_2 <- conv4_1
I0813 11:54:03.951580  1219 net.cpp:356] conv4_2 -> conv4_2
I0813 11:54:03.951596  1219 net.cpp:96] Setting up conv4_2
I0813 11:54:03.955971  1219 net.cpp:103] Top shape: 20 512 40 40 (16384000)
I0813 11:54:03.956013  1219 layer_factory.hpp:78] Creating layer relu4_2
I0813 11:54:03.956032  1219 net.cpp:67] Creating Layer relu4_2
I0813 11:54:03.956063  1219 net.cpp:394] relu4_2 <- conv4_2
I0813 11:54:03.956084  1219 net.cpp:345] relu4_2 -> conv4_2 (in-place)
I0813 11:54:03.956104  1219 net.cpp:96] Setting up relu4_2
I0813 11:54:03.956120  1219 net.cpp:103] Top shape: 20 512 40 40 (16384000)
I0813 11:54:03.956135  1219 layer_factory.hpp:78] Creating layer conv4_3
I0813 11:54:03.956153  1219 net.cpp:67] Creating Layer conv4_3
I0813 11:54:03.956167  1219 net.cpp:394] conv4_3 <- conv4_2
I0813 11:54:03.956187  1219 net.cpp:356] conv4_3 -> conv4_3
I0813 11:54:03.956205  1219 net.cpp:96] Setting up conv4_3
I0813 11:54:03.960346  1219 net.cpp:103] Top shape: 20 512 40 40 (16384000)
I0813 11:54:03.960391  1219 layer_factory.hpp:78] Creating layer relu4_3
I0813 11:54:03.960432  1219 net.cpp:67] Creating Layer relu4_3
I0813 11:54:03.960449  1219 net.cpp:394] relu4_3 <- conv4_3
I0813 11:54:03.960469  1219 net.cpp:345] relu4_3 -> conv4_3 (in-place)
I0813 11:54:03.960489  1219 net.cpp:96] Setting up relu4_3
I0813 11:54:03.960502  1219 net.cpp:103] Top shape: 20 512 40 40 (16384000)
I0813 11:54:03.960516  1219 layer_factory.hpp:78] Creating layer pool4
I0813 11:54:03.960535  1219 net.cpp:67] Creating Layer pool4
I0813 11:54:03.960547  1219 net.cpp:394] pool4 <- conv4_3
I0813 11:54:03.960567  1219 net.cpp:356] pool4 -> pool4
I0813 11:54:03.960587  1219 net.cpp:96] Setting up pool4
I0813 11:54:03.960604  1219 net.cpp:103] Top shape: 20 512 39 39 (15575040)
I0813 11:54:03.960618  1219 layer_factory.hpp:78] Creating layer conv5_1
I0813 11:54:03.960636  1219 net.cpp:67] Creating Layer conv5_1
I0813 11:54:03.960649  1219 net.cpp:394] conv5_1 <- pool4
I0813 11:54:03.960666  1219 net.cpp:356] conv5_1 -> conv5_1
I0813 11:54:03.960683  1219 net.cpp:96] Setting up conv5_1
I0813 11:54:03.964843  1219 net.cpp:103] Top shape: 20 512 39 39 (15575040)
I0813 11:54:03.964879  1219 layer_factory.hpp:78] Creating layer relu5_1
I0813 11:54:03.964900  1219 net.cpp:67] Creating Layer relu5_1
I0813 11:54:03.964937  1219 net.cpp:394] relu5_1 <- conv5_1
I0813 11:54:03.964961  1219 net.cpp:345] relu5_1 -> conv5_1 (in-place)
I0813 11:54:03.964982  1219 net.cpp:96] Setting up relu5_1
I0813 11:54:03.964998  1219 net.cpp:103] Top shape: 20 512 39 39 (15575040)
I0813 11:54:03.965013  1219 layer_factory.hpp:78] Creating layer conv5_2
I0813 11:54:03.965032  1219 net.cpp:67] Creating Layer conv5_2
I0813 11:54:03.965046  1219 net.cpp:394] conv5_2 <- conv5_1
I0813 11:54:03.965065  1219 net.cpp:356] conv5_2 -> conv5_2
I0813 11:54:03.965082  1219 net.cpp:96] Setting up conv5_2
I0813 11:54:03.969245  1219 net.cpp:103] Top shape: 20 512 39 39 (15575040)
I0813 11:54:03.969291  1219 layer_factory.hpp:78] Creating layer relu5_2
I0813 11:54:03.969312  1219 net.cpp:67] Creating Layer relu5_2
I0813 11:54:03.969359  1219 net.cpp:394] relu5_2 <- conv5_2
I0813 11:54:03.969383  1219 net.cpp:345] relu5_2 -> conv5_2 (in-place)
I0813 11:54:03.969403  1219 net.cpp:96] Setting up relu5_2
I0813 11:54:03.969419  1219 net.cpp:103] Top shape: 20 512 39 39 (15575040)
I0813 11:54:03.969435  1219 layer_factory.hpp:78] Creating layer conv5_3
I0813 11:54:03.969455  1219 net.cpp:67] Creating Layer conv5_3
I0813 11:54:03.969470  1219 net.cpp:394] conv5_3 <- conv5_2
I0813 11:54:03.969498  1219 net.cpp:356] conv5_3 -> conv5_3
I0813 11:54:03.969518  1219 net.cpp:96] Setting up conv5_3
I0813 11:54:03.973620  1219 net.cpp:103] Top shape: 20 512 39 39 (15575040)
I0813 11:54:03.973654  1219 layer_factory.hpp:78] Creating layer relu5_3
I0813 11:54:03.973671  1219 net.cpp:67] Creating Layer relu5_3
I0813 11:54:03.973706  1219 net.cpp:394] relu5_3 <- conv5_3
I0813 11:54:03.973755  1219 net.cpp:345] relu5_3 -> conv5_3 (in-place)
I0813 11:54:03.973776  1219 net.cpp:96] Setting up relu5_3
I0813 11:54:03.973791  1219 net.cpp:103] Top shape: 20 512 39 39 (15575040)
I0813 11:54:03.973808  1219 layer_factory.hpp:78] Creating layer pool5
I0813 11:54:03.973825  1219 net.cpp:67] Creating Layer pool5
I0813 11:54:03.973841  1219 net.cpp:394] pool5 <- conv5_3
I0813 11:54:03.973860  1219 net.cpp:356] pool5 -> pool5
I0813 11:54:03.973878  1219 net.cpp:96] Setting up pool5
I0813 11:54:03.973896  1219 net.cpp:103] Top shape: 20 512 39 39 (15575040)
I0813 11:54:03.973911  1219 layer_factory.hpp:78] Creating layer fc6
I0813 11:54:03.973933  1219 net.cpp:67] Creating Layer fc6
I0813 11:54:03.973948  1219 net.cpp:394] fc6 <- pool5
I0813 11:54:03.973965  1219 net.cpp:356] fc6 -> fc6
I0813 11:54:03.973984  1219 net.cpp:96] Setting up fc6
I0813 11:54:04.032913  1219 net.cpp:103] Top shape: 20 4096 39 39 (124600320)
I0813 11:54:04.032959  1219 layer_factory.hpp:78] Creating layer relu6
I0813 11:54:04.032980  1219 net.cpp:67] Creating Layer relu6
I0813 11:54:04.033026  1219 net.cpp:394] relu6 <- fc6
I0813 11:54:04.033056  1219 net.cpp:345] relu6 -> fc6 (in-place)
I0813 11:54:04.033082  1219 net.cpp:96] Setting up relu6
I0813 11:54:04.033097  1219 net.cpp:103] Top shape: 20 4096 39 39 (124600320)
I0813 11:54:04.033118  1219 layer_factory.hpp:78] Creating layer drop6
I0813 11:54:04.033139  1219 net.cpp:67] Creating Layer drop6
I0813 11:54:04.033156  1219 net.cpp:394] drop6 <- fc6
I0813 11:54:04.033175  1219 net.cpp:345] drop6 -> fc6 (in-place)
I0813 11:54:04.033193  1219 net.cpp:96] Setting up drop6
I0813 11:54:04.033212  1219 net.cpp:103] Top shape: 20 4096 39 39 (124600320)
I0813 11:54:04.033231  1219 layer_factory.hpp:78] Creating layer fc7
I0813 11:54:04.033252  1219 net.cpp:67] Creating Layer fc7
I0813 11:54:04.033267  1219 net.cpp:394] fc7 <- fc6
I0813 11:54:04.033288  1219 net.cpp:356] fc7 -> fc7
I0813 11:54:04.033305  1219 net.cpp:96] Setting up fc7
I0813 11:54:04.063274  1219 net.cpp:103] Top shape: 20 4096 39 39 (124600320)
I0813 11:54:04.063321  1219 layer_factory.hpp:78] Creating layer relu7
I0813 11:54:04.063343  1219 net.cpp:67] Creating Layer relu7
I0813 11:54:04.063356  1219 net.cpp:394] relu7 <- fc7
I0813 11:54:04.063374  1219 net.cpp:345] relu7 -> fc7 (in-place)
I0813 11:54:04.063422  1219 net.cpp:96] Setting up relu7
I0813 11:54:04.063441  1219 net.cpp:103] Top shape: 20 4096 39 39 (124600320)
I0813 11:54:04.063457  1219 layer_factory.hpp:78] Creating layer drop7
I0813 11:54:04.063477  1219 net.cpp:67] Creating Layer drop7
I0813 11:54:04.063494  1219 net.cpp:394] drop7 <- fc7
I0813 11:54:04.063513  1219 net.cpp:345] drop7 -> fc7 (in-place)
I0813 11:54:04.063532  1219 net.cpp:96] Setting up drop7
I0813 11:54:04.063549  1219 net.cpp:103] Top shape: 20 4096 39 39 (124600320)
I0813 11:54:04.063562  1219 layer_factory.hpp:78] Creating layer fc8_pascal
I0813 11:54:04.063583  1219 net.cpp:67] Creating Layer fc8_pascal
I0813 11:54:04.063598  1219 net.cpp:394] fc8_pascal <- fc7
I0813 11:54:04.063621  1219 net.cpp:356] fc8_pascal -> fc8_pascal
I0813 11:54:04.063642  1219 net.cpp:96] Setting up fc8_pascal
I0813 11:54:04.066498  1219 net.cpp:103] Top shape: 20 21 39 39 (638820)
I0813 11:54:04.066534  1219 layer_factory.hpp:78] Creating layer fc8_pascal_fc8_pascal_0_split
I0813 11:54:04.066555  1219 net.cpp:67] Creating Layer fc8_pascal_fc8_pascal_0_split
I0813 11:54:04.066570  1219 net.cpp:394] fc8_pascal_fc8_pascal_0_split <- fc8_pascal
I0813 11:54:04.066594  1219 net.cpp:356] fc8_pascal_fc8_pascal_0_split -> fc8_pascal_fc8_pascal_0_split_0
I0813 11:54:04.066622  1219 net.cpp:356] fc8_pascal_fc8_pascal_0_split -> fc8_pascal_fc8_pascal_0_split_1
I0813 11:54:04.066647  1219 net.cpp:96] Setting up fc8_pascal_fc8_pascal_0_split
I0813 11:54:04.066668  1219 net.cpp:103] Top shape: 20 21 39 39 (638820)
I0813 11:54:04.066686  1219 net.cpp:103] Top shape: 20 21 39 39 (638820)
I0813 11:54:04.066701  1219 layer_factory.hpp:78] Creating layer label_shrink
I0813 11:54:04.066751  1219 net.cpp:67] Creating Layer label_shrink
I0813 11:54:04.066768  1219 net.cpp:394] label_shrink <- label
I0813 11:54:04.066787  1219 net.cpp:356] label_shrink -> label_shrink
I0813 11:54:04.066807  1219 net.cpp:96] Setting up label_shrink
I0813 11:54:04.066828  1219 net.cpp:103] Top shape: 20 1 39 39 (30420)
I0813 11:54:04.066844  1219 layer_factory.hpp:78] Creating layer label_shrink_label_shrink_0_split
I0813 11:54:04.066864  1219 net.cpp:67] Creating Layer label_shrink_label_shrink_0_split
I0813 11:54:04.066884  1219 net.cpp:394] label_shrink_label_shrink_0_split <- label_shrink
I0813 11:54:04.066901  1219 net.cpp:356] label_shrink_label_shrink_0_split -> label_shrink_label_shrink_0_split_0
I0813 11:54:04.066922  1219 net.cpp:356] label_shrink_label_shrink_0_split -> label_shrink_label_shrink_0_split_1
I0813 11:54:04.066952  1219 net.cpp:96] Setting up label_shrink_label_shrink_0_split
I0813 11:54:04.066979  1219 net.cpp:103] Top shape: 20 1 39 39 (30420)
I0813 11:54:04.066995  1219 net.cpp:103] Top shape: 20 1 39 39 (30420)
I0813 11:54:04.067010  1219 layer_factory.hpp:78] Creating layer loss
I0813 11:54:04.067039  1219 net.cpp:67] Creating Layer loss
I0813 11:54:04.067065  1219 net.cpp:394] loss <- fc8_pascal_fc8_pascal_0_split_0
I0813 11:54:04.067085  1219 net.cpp:394] loss <- label_shrink_label_shrink_0_split_0
I0813 11:54:04.067106  1219 net.cpp:356] loss -> (automatic)
I0813 11:54:04.067124  1219 net.cpp:96] Setting up loss
I0813 11:54:04.067147  1219 softmax_loss_layer.cpp:40] Weight_Loss file is not provided. Assign all one to it.
I0813 11:54:04.067168  1219 net.cpp:103] Top shape: 1 1 1 1 (1)
I0813 11:54:04.067183  1219 net.cpp:109]     with loss weight 1
I0813 11:54:04.067222  1219 layer_factory.hpp:78] Creating layer accuracy
I0813 11:54:04.067246  1219 net.cpp:67] Creating Layer accuracy
I0813 11:54:04.067262  1219 net.cpp:394] accuracy <- fc8_pascal_fc8_pascal_0_split_1
I0813 11:54:04.067279  1219 net.cpp:394] accuracy <- label_shrink_label_shrink_0_split_1
I0813 11:54:04.067297  1219 net.cpp:356] accuracy -> accuracy
I0813 11:54:04.067315  1219 net.cpp:96] Setting up accuracy
I0813 11:54:04.067342  1219 net.cpp:103] Top shape: 1 1 1 3 (3)
I0813 11:54:04.067356  1219 net.cpp:172] accuracy does not need backward computation.
I0813 11:54:04.067381  1219 net.cpp:170] loss needs backward computation.
I0813 11:54:04.067395  1219 net.cpp:172] label_shrink_label_shrink_0_split does not need backward computation.
I0813 11:54:04.067411  1219 net.cpp:172] label_shrink does not need backward computation.
I0813 11:54:04.067426  1219 net.cpp:170] fc8_pascal_fc8_pascal_0_split needs backward computation.
…
