…
I0813 18:32:26.417235  5457 net.cpp:275] The NetState phase (0) differed from the phase (1) specified by a rule in layer fc8_mat
I0813 18:32:26.417459  5457 net.cpp:39] Initializing net from parameters: 
name: "vgg128_noup"
layers {
  top: "data"
  top: "label"
  name: "data"
  type: IMAGE_SEG_DATA
  image_data_param {
    source: "voc12/list/train_aug.txt"
    batch_size: 20
    shuffle: true
    root_folder: "/media/Work_SSD/ali/VOCdevkit/VOC2012"
    label_type: PIXEL
  }
  include {
    phase: TRAIN
  }
  transform_param {
    mirror: true
    crop_size: 306
    mean_value: 104.008
    mean_value: 116.669
    mean_value: 122.675
  }
}
layers {
  bottom: "data"
  top: "conv1_1"
  name: "conv1_1"
  type: CONVOLUTION
  blobs_lr: 1
  blobs_lr: 2
  weight_decay: 1
  weight_decay: 0
  convolution_param {
    num_output: 64
    pad: 1
    kernel_size: 3
  }
}
layers {
  bottom: "conv1_1"
  top: "conv1_1"
  name: "relu1_1"
  type: RELU
}
layers {
  bottom: "conv1_1"
  top: "conv1_2"
  name: "conv1_2"
  type: CONVOLUTION
  blobs_lr: 1
  blobs_lr: 2
  weight_decay: 1
  weight_decay: 0
  convolution_param {
    num_output: 64
    pad: 1
    kernel_size: 3
  }
}
layers {
  bottom: "conv1_2"
  top: "conv1_2"
  name: "relu1_2"
  type: RELU
}
layers {
  bottom: "conv1_2"
  top: "pool1"
  name: "pool1"
  type: POOLING
  pooling_param {
    pool: MAX
    kernel_size: 2
    stride: 2
    pad: 1
  }
}
layers {
  bottom: "pool1"
  top: "conv2_1"
  name: "conv2_1"
  type: CONVOLUTION
  blobs_lr: 1
  blobs_lr: 2
  weight_decay: 1
  weight_decay: 0
  convolution_param {
    num_output: 128
    pad: 1
    kernel_size: 3
  }
}
layers {
  bottom: "conv2_1"
  top: "conv2_1"
  name: "relu2_1"
  type: RELU
}
layers {
  bottom: "conv2_1"
  top: "conv2_2"
  name: "conv2_2"
  type: CONVOLUTION
  blobs_lr: 1
  blobs_lr: 2
  weight_decay: 1
  weight_decay: 0
  convolution_param {
    num_output: 128
    pad: 1
    kernel_size: 3
  }
}
layers {
  bottom: "conv2_2"
  top: "conv2_2"
  name: "relu2_2"
  type: RELU
}
layers {
  bottom: "conv2_2"
  top: "pool2"
  name: "pool2"
  type: POOLING
  pooling_param {
    pool: MAX
    kernel_size: 2
    stride: 2
    pad: 1
  }
}
layers {
  bottom: "pool2"
  top: "conv3_1"
  name: "conv3_1"
  type: CONVOLUTION
  blobs_lr: 1
  blobs_lr: 2
  weight_decay: 1
  weight_decay: 0
  convolution_param {
    num_output: 256
    pad: 1
    kernel_size: 3
  }
}
layers {
  bottom: "conv3_1"
  top: "conv3_1"
  name: "relu3_1"
  type: RELU
}
layers {
  bottom: "conv3_1"
  top: "conv3_2"
  name: "conv3_2"
  type: CONVOLUTION
  blobs_lr: 1
  blobs_lr: 2
  weight_decay: 1
  weight_decay: 0
  convolution_param {
    num_output: 256
    pad: 1
    kernel_size: 3
  }
}
layers {
  bottom: "conv3_2"
  top: "conv3_2"
  name: "relu3_2"
  type: RELU
}
layers {
  bottom: "conv3_2"
  top: "conv3_3"
  name: "conv3_3"
  type: CONVOLUTION
  blobs_lr: 1
  blobs_lr: 2
  weight_decay: 1
  weight_decay: 0
  convolution_param {
    num_output: 256
    pad: 1
    kernel_size: 3
  }
}
layers {
  bottom: "conv3_3"
  top: "conv3_3"
  name: "relu3_3"
  type: RELU
}
layers {
  bottom: "conv3_3"
  top: "pool3"
  name: "pool3"
  type: POOLING
  pooling_param {
    pool: MAX
    kernel_size: 2
    stride: 2
    pad: 1
  }
}
layers {
  bottom: "pool3"
  top: "conv4_1"
  name: "conv4_1"
  type: CONVOLUTION
  blobs_lr: 1
  blobs_lr: 2
  weight_decay: 1
  weight_decay: 0
  convolution_param {
    num_output: 512
    pad: 1
    kernel_size: 3
  }
}
layers {
  bottom: "conv4_1"
  top: "conv4_1"
  name: "relu4_1"
  type: RELU
}
layers {
  bottom: "conv4_1"
  top: "conv4_2"
  name: "conv4_2"
  type: CONVOLUTION
  blobs_lr: 1
  blobs_lr: 2
  weight_decay: 1
  weight_decay: 0
  convolution_param {
    num_output: 512
    pad: 1
    kernel_size: 3
  }
}
layers {
  bottom: "conv4_2"
  top: "conv4_2"
  name: "relu4_2"
  type: RELU
}
layers {
  bottom: "conv4_2"
  top: "conv4_3"
  name: "conv4_3"
  type: CONVOLUTION
  blobs_lr: 1
  blobs_lr: 2
  weight_decay: 1
  weight_decay: 0
  convolution_param {
    num_output: 512
    pad: 1
    kernel_size: 3
  }
}
layers {
  bottom: "conv4_3"
  top: "conv4_3"
  name: "relu4_3"
  type: RELU
}
layers {
  bottom: "conv4_3"
  top: "pool4"
  name: "pool4"
  type: POOLING
  pooling_param {
    pool: MAX
    kernel_size: 2
    stride: 1
  }
}
layers {
  bottom: "pool4"
  top: "conv5_1"
  name: "conv5_1"
  type: CONVOLUTION
  blobs_lr: 1
  blobs_lr: 2
  weight_decay: 1
  weight_decay: 0
  convolution_param {
    num_output: 512
    pad: 2
    kernel_size: 3
    hole: 2
  }
}
layers {
  bottom: "conv5_1"
  top: "conv5_1"
  name: "relu5_1"
  type: RELU
}
layers {
  bottom: "conv5_1"
  top: "conv5_2"
  name: "conv5_2"
  type: CONVOLUTION
  blobs_lr: 1
  blobs_lr: 2
  weight_decay: 1
  weight_decay: 0
  convolution_param {
    num_output: 512
    pad: 2
    kernel_size: 3
    hole: 2
  }
}
layers {
  bottom: "conv5_2"
  top: "conv5_2"
  name: "relu5_2"
  type: RELU
}
layers {
  bottom: "conv5_2"
  top: "conv5_3"
  name: "conv5_3"
  type: CONVOLUTION
  blobs_lr: 1
  blobs_lr: 2
  weight_decay: 1
  weight_decay: 0
  convolution_param {
    num_output: 512
    pad: 2
    kernel_size: 3
    hole: 2
  }
}
layers {
  bottom: "conv5_3"
  top: "conv5_3"
  name: "relu5_3"
  type: RELU
}
layers {
  bottom: "conv5_3"
  top: "pool5"
  name: "pool5"
  type: POOLING
  pooling_param {
    pool: MAX
    kernel_size: 3
    stride: 1
    pad: 1
  }
}
layers {
  bottom: "pool5"
  top: "fc6"
  name: "fc6"
  type: CONVOLUTION
  blobs_lr: 1
  blobs_lr: 2
  weight_decay: 1
  weight_decay: 0
  convolution_param {
    num_output: 4096
    pad: 6
    kernel_size: 4
    hole: 4
  }
  strict_dim: false
}
layers {
  bottom: "fc6"
  top: "fc6"
  name: "relu6"
  type: RELU
}
layers {
  bottom: "fc6"
  top: "fc6"
  name: "drop6"
  type: DROPOUT
  dropout_param {
    dropout_ratio: 0.5
  }
}
layers {
  bottom: "fc6"
  top: "fc7"
  name: "fc7"
  type: CONVOLUTION
  blobs_lr: 1
  blobs_lr: 2
  weight_decay: 1
  weight_decay: 0
  convolution_param {
    num_output: 4096
    kernel_size: 1
  }
  strict_dim: false
}
layers {
  bottom: "fc7"
  top: "fc7"
  name: "relu7"
  type: RELU
}
layers {
  bottom: "fc7"
  top: "fc7"
  name: "drop7"
  type: DROPOUT
  dropout_param {
    dropout_ratio: 0.5
  }
}
layers {
  bottom: "fc7"
  top: "fc8_pascal"
  name: "fc8_pascal"
  type: CONVOLUTION
  blobs_lr: 10
  blobs_lr: 20
  weight_decay: 1
  weight_decay: 0
  convolution_param {
    num_output: 21
    kernel_size: 1
    weight_filler {
      type: "gaussian"
      std: 0.01
    }
    bias_filler {
      type: "constant"
      value: 0
    }
  }
  strict_dim: false
}
layers {
  bottom: "label"
  top: "label_shrink"
  name: "label_shrink"
  type: INTERP
  interp_param {
    shrink_factor: 8
    pad_beg: -1
    pad_end: 0
  }
}
layers {
  bottom: "fc8_pascal"
  bottom: "label_shrink"
  name: "loss"
  type: SOFTMAX_LOSS
  include {
    phase: TRAIN
  }
  softmaxloss_param {
    ignore_label: 255
  }
}
layers {
  bottom: "fc8_pascal"
  bottom: "label_shrink"
  top: "accuracy"
  name: "accuracy"
  type: SEG_ACCURACY
  seg_accuracy_param {
    ignore_label: 255
  }
}
state {
  phase: TRAIN
}
I0813 18:32:26.419450  5457 layer_factory.hpp:78] Creating layer data
I0813 18:32:26.419477  5457 net.cpp:67] Creating Layer data
I0813 18:32:26.419491  5457 net.cpp:356] data -> data
I0813 18:32:26.419513  5457 net.cpp:356] data -> label
I0813 18:32:26.419529  5457 net.cpp:356] data -> (automatic)
I0813 18:32:26.419543  5457 net.cpp:96] Setting up data
I0813 18:32:26.419555  5457 image_seg_data_layer.cpp:45] Opening file voc12/list/train_aug.txt
I0813 18:32:26.429822  5457 image_seg_data_layer.cpp:62] Shuffling data
I0813 18:32:26.431654  5457 image_seg_data_layer.cpp:67] A total of 10582 images.
I0813 18:32:26.434427  5457 image_seg_data_layer.cpp:113] output data size: 20,3,306,306
I0813 18:32:26.434445  5457 image_seg_data_layer.cpp:117] output label size: 20,1,306,306
I0813 18:32:26.434463  5457 image_seg_data_layer.cpp:121] output data_dim size: 20,1,1,2
I0813 18:32:26.444582  5457 net.cpp:103] Top shape: 20 3 306 306 (5618160)
I0813 18:32:26.444622  5457 net.cpp:103] Top shape: 20 1 306 306 (1872720)
I0813 18:32:26.444641  5457 net.cpp:103] Top shape: 20 1 1 2 (40)
I0813 18:32:26.444656  5457 layer_factory.hpp:78] Creating layer conv1_1
I0813 18:32:26.444680  5457 net.cpp:67] Creating Layer conv1_1
I0813 18:32:26.444695  5457 net.cpp:394] conv1_1 <- data
I0813 18:32:26.444717  5457 net.cpp:356] conv1_1 -> conv1_1
I0813 18:32:26.444736  5457 net.cpp:96] Setting up conv1_1
I0813 18:32:26.444814  5457 net.cpp:103] Top shape: 20 64 306 306 (119854080)
I0813 18:32:26.444839  5457 layer_factory.hpp:78] Creating layer relu1_1
I0813 18:32:26.444859  5457 net.cpp:67] Creating Layer relu1_1
I0813 18:32:26.444875  5457 net.cpp:394] relu1_1 <- conv1_1
I0813 18:32:26.444893  5457 net.cpp:345] relu1_1 -> conv1_1 (in-place)
I0813 18:32:26.444911  5457 net.cpp:96] Setting up relu1_1
I0813 18:32:26.444929  5457 net.cpp:103] Top shape: 20 64 306 306 (119854080)
I0813 18:32:26.444946  5457 layer_factory.hpp:78] Creating layer conv1_2
I0813 18:32:26.444963  5457 net.cpp:67] Creating Layer conv1_2
I0813 18:32:26.444977  5457 net.cpp:394] conv1_2 <- conv1_1
I0813 18:32:26.444996  5457 net.cpp:356] conv1_2 -> conv1_2
I0813 18:32:26.445015  5457 net.cpp:96] Setting up conv1_2
I0813 18:32:26.445309  5457 net.cpp:103] Top shape: 20 64 306 306 (119854080)
I0813 18:32:26.445336  5457 layer_factory.hpp:78] Creating layer relu1_2
I0813 18:32:26.445355  5457 net.cpp:67] Creating Layer relu1_2
I0813 18:32:26.445371  5457 net.cpp:394] relu1_2 <- conv1_2
I0813 18:32:26.445394  5457 net.cpp:345] relu1_2 -> conv1_2 (in-place)
I0813 18:32:26.445415  5457 net.cpp:96] Setting up relu1_2
I0813 18:32:26.445432  5457 net.cpp:103] Top shape: 20 64 306 306 (119854080)
I0813 18:32:26.445448  5457 layer_factory.hpp:78] Creating layer pool1
I0813 18:32:26.445469  5457 net.cpp:67] Creating Layer pool1
I0813 18:32:26.445485  5457 net.cpp:394] pool1 <- conv1_2
I0813 18:32:26.445509  5457 net.cpp:356] pool1 -> pool1
I0813 18:32:26.445529  5457 net.cpp:96] Setting up pool1
I0813 18:32:26.445564  5457 net.cpp:103] Top shape: 20 64 154 154 (30356480)
I0813 18:32:26.445577  5457 layer_factory.hpp:78] Creating layer conv2_1
I0813 18:32:26.445595  5457 net.cpp:67] Creating Layer conv2_1
I0813 18:32:26.445611  5457 net.cpp:394] conv2_1 <- pool1
I0813 18:32:26.445632  5457 net.cpp:356] conv2_1 -> conv2_1
I0813 18:32:26.445652  5457 net.cpp:96] Setting up conv2_1
I0813 18:32:26.445870  5457 net.cpp:103] Top shape: 20 128 154 154 (60712960)
I0813 18:32:26.445894  5457 layer_factory.hpp:78] Creating layer relu2_1
I0813 18:32:26.445915  5457 net.cpp:67] Creating Layer relu2_1
I0813 18:32:26.445932  5457 net.cpp:394] relu2_1 <- conv2_1
I0813 18:32:26.445956  5457 net.cpp:345] relu2_1 -> conv2_1 (in-place)
I0813 18:32:26.445972  5457 net.cpp:96] Setting up relu2_1
I0813 18:32:26.445987  5457 net.cpp:103] Top shape: 20 128 154 154 (60712960)
I0813 18:32:26.446003  5457 layer_factory.hpp:78] Creating layer conv2_2
I0813 18:32:26.446023  5457 net.cpp:67] Creating Layer conv2_2
I0813 18:32:26.446038  5457 net.cpp:394] conv2_2 <- conv2_1
I0813 18:32:26.446058  5457 net.cpp:356] conv2_2 -> conv2_2
I0813 18:32:26.446077  5457 net.cpp:96] Setting up conv2_2
I0813 18:32:26.446468  5457 net.cpp:103] Top shape: 20 128 154 154 (60712960)
I0813 18:32:26.446491  5457 layer_factory.hpp:78] Creating layer relu2_2
I0813 18:32:26.446511  5457 net.cpp:67] Creating Layer relu2_2
I0813 18:32:26.446527  5457 net.cpp:394] relu2_2 <- conv2_2
I0813 18:32:26.446547  5457 net.cpp:345] relu2_2 -> conv2_2 (in-place)
I0813 18:32:26.446581  5457 net.cpp:96] Setting up relu2_2
I0813 18:32:26.446599  5457 net.cpp:103] Top shape: 20 128 154 154 (60712960)
I0813 18:32:26.446619  5457 layer_factory.hpp:78] Creating layer pool2
I0813 18:32:26.446640  5457 net.cpp:67] Creating Layer pool2
I0813 18:32:26.446660  5457 net.cpp:394] pool2 <- conv2_2
I0813 18:32:26.446681  5457 net.cpp:356] pool2 -> pool2
I0813 18:32:26.446702  5457 net.cpp:96] Setting up pool2
I0813 18:32:26.446722  5457 net.cpp:103] Top shape: 20 128 78 78 (15575040)
I0813 18:32:26.446739  5457 layer_factory.hpp:78] Creating layer conv3_1
I0813 18:32:26.446764  5457 net.cpp:67] Creating Layer conv3_1
I0813 18:32:26.446782  5457 net.cpp:394] conv3_1 <- pool2
I0813 18:32:26.446801  5457 net.cpp:356] conv3_1 -> conv3_1
I0813 18:32:26.446825  5457 net.cpp:96] Setting up conv3_1
I0813 18:32:26.447566  5457 net.cpp:103] Top shape: 20 256 78 78 (31150080)
I0813 18:32:26.447595  5457 layer_factory.hpp:78] Creating layer relu3_1
I0813 18:32:26.447615  5457 net.cpp:67] Creating Layer relu3_1
I0813 18:32:26.447633  5457 net.cpp:394] relu3_1 <- conv3_1
I0813 18:32:26.447655  5457 net.cpp:345] relu3_1 -> conv3_1 (in-place)
I0813 18:32:26.447675  5457 net.cpp:96] Setting up relu3_1
I0813 18:32:26.447692  5457 net.cpp:103] Top shape: 20 256 78 78 (31150080)
I0813 18:32:26.447708  5457 layer_factory.hpp:78] Creating layer conv3_2
I0813 18:32:26.447731  5457 net.cpp:67] Creating Layer conv3_2
I0813 18:32:26.447746  5457 net.cpp:394] conv3_2 <- conv3_1
I0813 18:32:26.447770  5457 net.cpp:356] conv3_2 -> conv3_2
I0813 18:32:26.447793  5457 net.cpp:96] Setting up conv3_2
I0813 18:32:26.449204  5457 net.cpp:103] Top shape: 20 256 78 78 (31150080)
I0813 18:32:26.449244  5457 layer_factory.hpp:78] Creating layer relu3_2
I0813 18:32:26.449264  5457 net.cpp:67] Creating Layer relu3_2
I0813 18:32:26.449280  5457 net.cpp:394] relu3_2 <- conv3_2
I0813 18:32:26.449300  5457 net.cpp:345] relu3_2 -> conv3_2 (in-place)
I0813 18:32:26.449316  5457 net.cpp:96] Setting up relu3_2
I0813 18:32:26.449331  5457 net.cpp:103] Top shape: 20 256 78 78 (31150080)
I0813 18:32:26.449347  5457 layer_factory.hpp:78] Creating layer conv3_3
I0813 18:32:26.449367  5457 net.cpp:67] Creating Layer conv3_3
I0813 18:32:26.449381  5457 net.cpp:394] conv3_3 <- conv3_2
I0813 18:32:26.449401  5457 net.cpp:356] conv3_3 -> conv3_3
I0813 18:32:26.449419  5457 net.cpp:96] Setting up conv3_3
I0813 18:32:26.450471  5457 net.cpp:103] Top shape: 20 256 78 78 (31150080)
I0813 18:32:26.450492  5457 layer_factory.hpp:78] Creating layer relu3_3
I0813 18:32:26.450512  5457 net.cpp:67] Creating Layer relu3_3
I0813 18:32:26.450530  5457 net.cpp:394] relu3_3 <- conv3_3
I0813 18:32:26.450552  5457 net.cpp:345] relu3_3 -> conv3_3 (in-place)
I0813 18:32:26.450570  5457 net.cpp:96] Setting up relu3_3
I0813 18:32:26.450585  5457 net.cpp:103] Top shape: 20 256 78 78 (31150080)
I0813 18:32:26.450600  5457 layer_factory.hpp:78] Creating layer pool3
I0813 18:32:26.450618  5457 net.cpp:67] Creating Layer pool3
I0813 18:32:26.450633  5457 net.cpp:394] pool3 <- conv3_3
I0813 18:32:26.450650  5457 net.cpp:356] pool3 -> pool3
I0813 18:32:26.450670  5457 net.cpp:96] Setting up pool3
I0813 18:32:26.450685  5457 net.cpp:103] Top shape: 20 256 40 40 (8192000)
I0813 18:32:26.450700  5457 layer_factory.hpp:78] Creating layer conv4_1
I0813 18:32:26.450717  5457 net.cpp:67] Creating Layer conv4_1
I0813 18:32:26.450732  5457 net.cpp:394] conv4_1 <- pool3
I0813 18:32:26.450752  5457 net.cpp:356] conv4_1 -> conv4_1
I0813 18:32:26.450770  5457 net.cpp:96] Setting up conv4_1
I0813 18:32:26.453052  5457 net.cpp:103] Top shape: 20 512 40 40 (16384000)
I0813 18:32:26.453084  5457 layer_factory.hpp:78] Creating layer relu4_1
I0813 18:32:26.453102  5457 net.cpp:67] Creating Layer relu4_1
I0813 18:32:26.453147  5457 net.cpp:394] relu4_1 <- conv4_1
I0813 18:32:26.453168  5457 net.cpp:345] relu4_1 -> conv4_1 (in-place)
I0813 18:32:26.453189  5457 net.cpp:96] Setting up relu4_1
I0813 18:32:26.453217  5457 net.cpp:103] Top shape: 20 512 40 40 (16384000)
I0813 18:32:26.453258  5457 layer_factory.hpp:78] Creating layer conv4_2
I0813 18:32:26.453275  5457 net.cpp:67] Creating Layer conv4_2
I0813 18:32:26.453290  5457 net.cpp:394] conv4_2 <- conv4_1
I0813 18:32:26.453311  5457 net.cpp:356] conv4_2 -> conv4_2
I0813 18:32:26.453330  5457 net.cpp:96] Setting up conv4_2
I0813 18:32:26.457859  5457 net.cpp:103] Top shape: 20 512 40 40 (16384000)
I0813 18:32:26.457917  5457 layer_factory.hpp:78] Creating layer relu4_2
I0813 18:32:26.457936  5457 net.cpp:67] Creating Layer relu4_2
I0813 18:32:26.457986  5457 net.cpp:394] relu4_2 <- conv4_2
I0813 18:32:26.458009  5457 net.cpp:345] relu4_2 -> conv4_2 (in-place)
I0813 18:32:26.458030  5457 net.cpp:96] Setting up relu4_2
I0813 18:32:26.458046  5457 net.cpp:103] Top shape: 20 512 40 40 (16384000)
I0813 18:32:26.458062  5457 layer_factory.hpp:78] Creating layer conv4_3
I0813 18:32:26.458081  5457 net.cpp:67] Creating Layer conv4_3
I0813 18:32:26.458096  5457 net.cpp:394] conv4_3 <- conv4_2
I0813 18:32:26.458113  5457 net.cpp:356] conv4_3 -> conv4_3
I0813 18:32:26.458132  5457 net.cpp:96] Setting up conv4_3
I0813 18:32:26.462271  5457 net.cpp:103] Top shape: 20 512 40 40 (16384000)
I0813 18:32:26.462316  5457 layer_factory.hpp:78] Creating layer relu4_3
I0813 18:32:26.462332  5457 net.cpp:67] Creating Layer relu4_3
I0813 18:32:26.462373  5457 net.cpp:394] relu4_3 <- conv4_3
I0813 18:32:26.462400  5457 net.cpp:345] relu4_3 -> conv4_3 (in-place)
I0813 18:32:26.462421  5457 net.cpp:96] Setting up relu4_3
I0813 18:32:26.462437  5457 net.cpp:103] Top shape: 20 512 40 40 (16384000)
I0813 18:32:26.462453  5457 layer_factory.hpp:78] Creating layer pool4
I0813 18:32:26.462472  5457 net.cpp:67] Creating Layer pool4
I0813 18:32:26.462486  5457 net.cpp:394] pool4 <- conv4_3
I0813 18:32:26.462505  5457 net.cpp:356] pool4 -> pool4
I0813 18:32:26.462527  5457 net.cpp:96] Setting up pool4
I0813 18:32:26.462543  5457 net.cpp:103] Top shape: 20 512 39 39 (15575040)
I0813 18:32:26.462558  5457 layer_factory.hpp:78] Creating layer conv5_1
I0813 18:32:26.462575  5457 net.cpp:67] Creating Layer conv5_1
I0813 18:32:26.462589  5457 net.cpp:394] conv5_1 <- pool4
I0813 18:32:26.462610  5457 net.cpp:356] conv5_1 -> conv5_1
I0813 18:32:26.462626  5457 net.cpp:96] Setting up conv5_1
I0813 18:32:26.466719  5457 net.cpp:103] Top shape: 20 512 39 39 (15575040)
I0813 18:32:26.466755  5457 layer_factory.hpp:78] Creating layer relu5_1
I0813 18:32:26.466794  5457 net.cpp:67] Creating Layer relu5_1
I0813 18:32:26.466812  5457 net.cpp:394] relu5_1 <- conv5_1
I0813 18:32:26.466832  5457 net.cpp:345] relu5_1 -> conv5_1 (in-place)
I0813 18:32:26.466850  5457 net.cpp:96] Setting up relu5_1
I0813 18:32:26.466864  5457 net.cpp:103] Top shape: 20 512 39 39 (15575040)
I0813 18:32:26.466878  5457 layer_factory.hpp:78] Creating layer conv5_2
I0813 18:32:26.466895  5457 net.cpp:67] Creating Layer conv5_2
I0813 18:32:26.466909  5457 net.cpp:394] conv5_2 <- conv5_1
I0813 18:32:26.466929  5457 net.cpp:356] conv5_2 -> conv5_2
I0813 18:32:26.466948  5457 net.cpp:96] Setting up conv5_2
I0813 18:32:26.471272  5457 net.cpp:103] Top shape: 20 512 39 39 (15575040)
I0813 18:32:26.471307  5457 layer_factory.hpp:78] Creating layer relu5_2
I0813 18:32:26.471349  5457 net.cpp:67] Creating Layer relu5_2
I0813 18:32:26.471365  5457 net.cpp:394] relu5_2 <- conv5_2
I0813 18:32:26.471387  5457 net.cpp:345] relu5_2 -> conv5_2 (in-place)
I0813 18:32:26.471405  5457 net.cpp:96] Setting up relu5_2
I0813 18:32:26.471420  5457 net.cpp:103] Top shape: 20 512 39 39 (15575040)
I0813 18:32:26.471434  5457 layer_factory.hpp:78] Creating layer conv5_3
I0813 18:32:26.471451  5457 net.cpp:67] Creating Layer conv5_3
I0813 18:32:26.471465  5457 net.cpp:394] conv5_3 <- conv5_2
I0813 18:32:26.471488  5457 net.cpp:356] conv5_3 -> conv5_3
I0813 18:32:26.471506  5457 net.cpp:96] Setting up conv5_3
I0813 18:32:26.475803  5457 net.cpp:103] Top shape: 20 512 39 39 (15575040)
I0813 18:32:26.475844  5457 layer_factory.hpp:78] Creating layer relu5_3
I0813 18:32:26.475890  5457 net.cpp:67] Creating Layer relu5_3
I0813 18:32:26.475908  5457 net.cpp:394] relu5_3 <- conv5_3
I0813 18:32:26.475956  5457 net.cpp:345] relu5_3 -> conv5_3 (in-place)
I0813 18:32:26.475976  5457 net.cpp:96] Setting up relu5_3
I0813 18:32:26.475991  5457 net.cpp:103] Top shape: 20 512 39 39 (15575040)
I0813 18:32:26.476006  5457 layer_factory.hpp:78] Creating layer pool5
I0813 18:32:26.476023  5457 net.cpp:67] Creating Layer pool5
I0813 18:32:26.476037  5457 net.cpp:394] pool5 <- conv5_3
I0813 18:32:26.476057  5457 net.cpp:356] pool5 -> pool5
I0813 18:32:26.476074  5457 net.cpp:96] Setting up pool5
I0813 18:32:26.476089  5457 net.cpp:103] Top shape: 20 512 39 39 (15575040)
I0813 18:32:26.476104  5457 layer_factory.hpp:78] Creating layer fc6
I0813 18:32:26.476125  5457 net.cpp:67] Creating Layer fc6
I0813 18:32:26.476138  5457 net.cpp:394] fc6 <- pool5
I0813 18:32:26.476156  5457 net.cpp:356] fc6 -> fc6
I0813 18:32:26.476173  5457 net.cpp:96] Setting up fc6
I0813 18:32:26.536056  5457 net.cpp:103] Top shape: 20 4096 39 39 (124600320)
I0813 18:32:26.536103  5457 layer_factory.hpp:78] Creating layer relu6
I0813 18:32:26.536123  5457 net.cpp:67] Creating Layer relu6
I0813 18:32:26.536135  5457 net.cpp:394] relu6 <- fc6
I0813 18:32:26.536152  5457 net.cpp:345] relu6 -> fc6 (in-place)
I0813 18:32:26.536195  5457 net.cpp:96] Setting up relu6
I0813 18:32:26.536213  5457 net.cpp:103] Top shape: 20 4096 39 39 (124600320)
I0813 18:32:26.536227  5457 layer_factory.hpp:78] Creating layer drop6
I0813 18:32:26.536250  5457 net.cpp:67] Creating Layer drop6
I0813 18:32:26.536265  5457 net.cpp:394] drop6 <- fc6
I0813 18:32:26.536284  5457 net.cpp:345] drop6 -> fc6 (in-place)
I0813 18:32:26.536304  5457 net.cpp:96] Setting up drop6
I0813 18:32:26.536324  5457 net.cpp:103] Top shape: 20 4096 39 39 (124600320)
I0813 18:32:26.536340  5457 layer_factory.hpp:78] Creating layer fc7
I0813 18:32:26.536360  5457 net.cpp:67] Creating Layer fc7
I0813 18:32:26.536375  5457 net.cpp:394] fc7 <- fc6
I0813 18:32:26.536393  5457 net.cpp:356] fc7 -> fc7
I0813 18:32:26.536412  5457 net.cpp:96] Setting up fc7
I0813 18:32:26.565855  5457 net.cpp:103] Top shape: 20 4096 39 39 (124600320)
I0813 18:32:26.565908  5457 layer_factory.hpp:78] Creating layer relu7
I0813 18:32:26.565959  5457 net.cpp:67] Creating Layer relu7
I0813 18:32:26.565974  5457 net.cpp:394] relu7 <- fc7
I0813 18:32:26.565991  5457 net.cpp:345] relu7 -> fc7 (in-place)
I0813 18:32:26.566015  5457 net.cpp:96] Setting up relu7
I0813 18:32:26.566033  5457 net.cpp:103] Top shape: 20 4096 39 39 (124600320)
I0813 18:32:26.566050  5457 layer_factory.hpp:78] Creating layer drop7
I0813 18:32:26.566073  5457 net.cpp:67] Creating Layer drop7
I0813 18:32:26.566092  5457 net.cpp:394] drop7 <- fc7
I0813 18:32:26.566109  5457 net.cpp:345] drop7 -> fc7 (in-place)
I0813 18:32:26.566128  5457 net.cpp:96] Setting up drop7
I0813 18:32:26.566145  5457 net.cpp:103] Top shape: 20 4096 39 39 (124600320)
I0813 18:32:26.566161  5457 layer_factory.hpp:78] Creating layer fc8_pascal
I0813 18:32:26.566180  5457 net.cpp:67] Creating Layer fc8_pascal
I0813 18:32:26.566195  5457 net.cpp:394] fc8_pascal <- fc7
I0813 18:32:26.566212  5457 net.cpp:356] fc8_pascal -> fc8_pascal
I0813 18:32:26.566233  5457 net.cpp:96] Setting up fc8_pascal
I0813 18:32:26.569133  5457 net.cpp:103] Top shape: 20 21 39 39 (638820)
I0813 18:32:26.569159  5457 layer_factory.hpp:78] Creating layer fc8_pascal_fc8_pascal_0_split
I0813 18:32:26.569178  5457 net.cpp:67] Creating Layer fc8_pascal_fc8_pascal_0_split
I0813 18:32:26.569205  5457 net.cpp:394] fc8_pascal_fc8_pascal_0_split <- fc8_pascal
I0813 18:32:26.569226  5457 net.cpp:356] fc8_pascal_fc8_pascal_0_split -> fc8_pascal_fc8_pascal_0_split_0
I0813 18:32:26.569249  5457 net.cpp:356] fc8_pascal_fc8_pascal_0_split -> fc8_pascal_fc8_pascal_0_split_1
I0813 18:32:26.569269  5457 net.cpp:96] Setting up fc8_pascal_fc8_pascal_0_split
I0813 18:32:26.569289  5457 net.cpp:103] Top shape: 20 21 39 39 (638820)
I0813 18:32:26.569305  5457 net.cpp:103] Top shape: 20 21 39 39 (638820)
I0813 18:32:26.569321  5457 layer_factory.hpp:78] Creating layer label_shrink
I0813 18:32:26.569372  5457 net.cpp:67] Creating Layer label_shrink
I0813 18:32:26.569391  5457 net.cpp:394] label_shrink <- label
I0813 18:32:26.569411  5457 net.cpp:356] label_shrink -> label_shrink
I0813 18:32:26.569433  5457 net.cpp:96] Setting up label_shrink
I0813 18:32:26.569453  5457 net.cpp:103] Top shape: 20 1 39 39 (30420)
I0813 18:32:26.569470  5457 layer_factory.hpp:78] Creating layer label_shrink_label_shrink_0_split
I0813 18:32:26.569486  5457 net.cpp:67] Creating Layer label_shrink_label_shrink_0_split
I0813 18:32:26.569502  5457 net.cpp:394] label_shrink_label_shrink_0_split <- label_shrink
I0813 18:32:26.569520  5457 net.cpp:356] label_shrink_label_shrink_0_split -> label_shrink_label_shrink_0_split_0
I0813 18:32:26.569540  5457 net.cpp:356] label_shrink_label_shrink_0_split -> label_shrink_label_shrink_0_split_1
I0813 18:32:26.569557  5457 net.cpp:96] Setting up label_shrink_label_shrink_0_split
I0813 18:32:26.569573  5457 net.cpp:103] Top shape: 20 1 39 39 (30420)
I0813 18:32:26.569589  5457 net.cpp:103] Top shape: 20 1 39 39 (30420)
I0813 18:32:26.569605  5457 layer_factory.hpp:78] Creating layer loss
I0813 18:32:26.569629  5457 net.cpp:67] Creating Layer loss
I0813 18:32:26.569643  5457 net.cpp:394] loss <- fc8_pascal_fc8_pascal_0_split_0
I0813 18:32:26.569660  5457 net.cpp:394] loss <- label_shrink_label_shrink_0_split_0
I0813 18:32:26.569680  5457 net.cpp:356] loss -> (automatic)
I0813 18:32:26.569699  5457 net.cpp:96] Setting up loss
I0813 18:32:26.569720  5457 softmax_loss_layer.cpp:40] Weight_Loss file is not provided. Assign all one to it.
I0813 18:32:26.569741  5457 net.cpp:103] Top shape: 1 1 1 1 (1)
I0813 18:32:26.569756  5457 net.cpp:109]     with loss weight 1
I0813 18:32:26.569793  5457 layer_factory.hpp:78] Creating layer accuracy
I0813 18:32:26.569816  5457 net.cpp:67] Creating Layer accuracy
I0813 18:32:26.569831  5457 net.cpp:394] accuracy <- fc8_pascal_fc8_pascal_0_split_1
I0813 18:32:26.569849  5457 net.cpp:394] accuracy <- label_shrink_label_shrink_0_split_1
I0813 18:32:26.569865  5457 net.cpp:356] accuracy -> accuracy
I0813 18:32:26.569883  5457 net.cpp:96] Setting up accuracy
I0813 18:32:26.569910  5457 net.cpp:103] Top shape: 1 1 1 3 (3)
I0813 18:32:26.569924  5457 net.cpp:172] accuracy does not need backward computation.
I0813 18:32:26.569939  5457 net.cpp:170] loss needs backward computation.
I0813 18:32:26.569954  5457 net.cpp:172] label_shrink_label_shrink_0_split does not need backward computation.
I0813 18:32:26.569970  5457 net.cpp:172] label_shrink does not need backward computation.
I0813 18:32:26.569985  5457 net.cpp:170] fc8_pascal_fc8_pascal_0_split needs backward computation.
…
