…
I0814 12:29:12.995410 26665 net.cpp:275] The NetState phase (0) differed from the phase (1) specified by a rule in layer fc8_mat
I0814 12:29:12.995606 26665 net.cpp:39] Initializing net from parameters: 
name: "vgg128_noup"
layers {
  top: "data"
  top: "label"
  name: "data"
  type: IMAGE_SEG_DATA
  image_data_param {
    source: "voc12/list/train_aug.txt"
    batch_size: 20
    shuffle: true
    root_folder: "/media/Work_SSD/ali/VOCdevkit/VOC2012"
    label_type: PIXEL
  }
  include {
    phase: TRAIN
  }
  transform_param {
    mirror: true
    crop_size: 306
    mean_value: 104.008
    mean_value: 116.669
    mean_value: 122.675
  }
}
layers {
  bottom: "data"
  top: "conv1_1"
  name: "conv1_1"
  type: CONVOLUTION
  blobs_lr: 1
  blobs_lr: 2
  weight_decay: 1
  weight_decay: 0
  convolution_param {
    num_output: 64
    pad: 1
    kernel_size: 3
  }
}
layers {
  bottom: "conv1_1"
  top: "conv1_1"
  name: "relu1_1"
  type: RELU
}
layers {
  bottom: "conv1_1"
  top: "conv1_2"
  name: "conv1_2"
  type: CONVOLUTION
  blobs_lr: 1
  blobs_lr: 2
  weight_decay: 1
  weight_decay: 0
  convolution_param {
    num_output: 64
    pad: 1
    kernel_size: 3
  }
}
layers {
  bottom: "conv1_2"
  top: "conv1_2"
  name: "relu1_2"
  type: RELU
}
layers {
  bottom: "conv1_2"
  top: "pool1"
  name: "pool1"
  type: POOLING
  pooling_param {
    pool: MAX
    kernel_size: 2
    stride: 2
    pad: 1
  }
}
layers {
  bottom: "pool1"
  top: "conv2_1"
  name: "conv2_1"
  type: CONVOLUTION
  blobs_lr: 1
  blobs_lr: 2
  weight_decay: 1
  weight_decay: 0
  convolution_param {
    num_output: 128
    pad: 1
    kernel_size: 3
  }
}
layers {
  bottom: "conv2_1"
  top: "conv2_1"
  name: "relu2_1"
  type: RELU
}
layers {
  bottom: "conv2_1"
  top: "conv2_2"
  name: "conv2_2"
  type: CONVOLUTION
  blobs_lr: 1
  blobs_lr: 2
  weight_decay: 1
  weight_decay: 0
  convolution_param {
    num_output: 128
    pad: 1
    kernel_size: 3
  }
}
layers {
  bottom: "conv2_2"
  top: "conv2_2"
  name: "relu2_2"
  type: RELU
}
layers {
  bottom: "conv2_2"
  top: "pool2"
  name: "pool2"
  type: POOLING
  pooling_param {
    pool: MAX
    kernel_size: 2
    stride: 2
    pad: 1
  }
}
layers {
  bottom: "pool2"
  top: "conv3_1"
  name: "conv3_1"
  type: CONVOLUTION
  blobs_lr: 1
  blobs_lr: 2
  weight_decay: 1
  weight_decay: 0
  convolution_param {
    num_output: 256
    pad: 1
    kernel_size: 3
  }
}
layers {
  bottom: "conv3_1"
  top: "conv3_1"
  name: "relu3_1"
  type: RELU
}
layers {
  bottom: "conv3_1"
  top: "conv3_2"
  name: "conv3_2"
  type: CONVOLUTION
  blobs_lr: 1
  blobs_lr: 2
  weight_decay: 1
  weight_decay: 0
  convolution_param {
    num_output: 256
    pad: 1
    kernel_size: 3
  }
}
layers {
  bottom: "conv3_2"
  top: "conv3_2"
  name: "relu3_2"
  type: RELU
}
layers {
  bottom: "conv3_2"
  top: "conv3_3"
  name: "conv3_3"
  type: CONVOLUTION
  blobs_lr: 1
  blobs_lr: 2
  weight_decay: 1
  weight_decay: 0
  convolution_param {
    num_output: 256
    pad: 1
    kernel_size: 3
  }
}
layers {
  bottom: "conv3_3"
  top: "conv3_3"
  name: "relu3_3"
  type: RELU
}
layers {
  bottom: "conv3_3"
  top: "pool3"
  name: "pool3"
  type: POOLING
  pooling_param {
    pool: MAX
    kernel_size: 2
    stride: 2
    pad: 1
  }
}
layers {
  bottom: "pool3"
  top: "conv4_1"
  name: "conv4_1"
  type: CONVOLUTION
  blobs_lr: 1
  blobs_lr: 2
  weight_decay: 1
  weight_decay: 0
  convolution_param {
    num_output: 512
    pad: 1
    kernel_size: 3
  }
}
layers {
  bottom: "conv4_1"
  top: "conv4_1"
  name: "relu4_1"
  type: RELU
}
layers {
  bottom: "conv4_1"
  top: "conv4_2"
  name: "conv4_2"
  type: CONVOLUTION
  blobs_lr: 1
  blobs_lr: 2
  weight_decay: 1
  weight_decay: 0
  convolution_param {
    num_output: 512
    pad: 1
    kernel_size: 3
  }
}
layers {
  bottom: "conv4_2"
  top: "conv4_2"
  name: "relu4_2"
  type: RELU
}
layers {
  bottom: "conv4_2"
  top: "conv4_3"
  name: "conv4_3"
  type: CONVOLUTION
  blobs_lr: 1
  blobs_lr: 2
  weight_decay: 1
  weight_decay: 0
  convolution_param {
    num_output: 512
    pad: 1
    kernel_size: 3
  }
}
layers {
  bottom: "conv4_3"
  top: "conv4_3"
  name: "relu4_3"
  type: RELU
}
layers {
  bottom: "conv4_3"
  top: "pool4"
  name: "pool4"
  type: POOLING
  pooling_param {
    pool: MAX
    kernel_size: 2
    stride: 1
  }
}
layers {
  bottom: "pool4"
  top: "conv5_1"
  name: "conv5_1"
  type: CONVOLUTION
  blobs_lr: 1
  blobs_lr: 2
  weight_decay: 1
  weight_decay: 0
  convolution_param {
    num_output: 512
    pad: 2
    kernel_size: 3
    hole: 2
  }
}
layers {
  bottom: "conv5_1"
  top: "conv5_1"
  name: "relu5_1"
  type: RELU
}
layers {
  bottom: "conv5_1"
  top: "conv5_2"
  name: "conv5_2"
  type: CONVOLUTION
  blobs_lr: 1
  blobs_lr: 2
  weight_decay: 1
  weight_decay: 0
  convolution_param {
    num_output: 512
    pad: 2
    kernel_size: 3
    hole: 2
  }
}
layers {
  bottom: "conv5_2"
  top: "conv5_2"
  name: "relu5_2"
  type: RELU
}
layers {
  bottom: "conv5_2"
  top: "conv5_3"
  name: "conv5_3"
  type: CONVOLUTION
  blobs_lr: 1
  blobs_lr: 2
  weight_decay: 1
  weight_decay: 0
  convolution_param {
    num_output: 512
    pad: 2
    kernel_size: 3
    hole: 2
  }
}
layers {
  bottom: "conv5_3"
  top: "conv5_3"
  name: "relu5_3"
  type: RELU
}
layers {
  bottom: "conv5_3"
  top: "pool5"
  name: "pool5"
  type: POOLING
  pooling_param {
    pool: MAX
    kernel_size: 3
    stride: 1
    pad: 1
  }
}
layers {
  bottom: "pool5"
  top: "fc6"
  name: "fc6"
  type: CONVOLUTION
  blobs_lr: 1
  blobs_lr: 2
  weight_decay: 1
  weight_decay: 0
  convolution_param {
    num_output: 4096
    pad: 6
    kernel_size: 4
    hole: 4
  }
  strict_dim: false
}
layers {
  bottom: "fc6"
  top: "fc6"
  name: "relu6"
  type: RELU
}
layers {
  bottom: "fc6"
  top: "fc6"
  name: "drop6"
  type: DROPOUT
  dropout_param {
    dropout_ratio: 0.5
  }
}
layers {
  bottom: "fc6"
  top: "fc7"
  name: "fc7"
  type: CONVOLUTION
  blobs_lr: 1
  blobs_lr: 2
  weight_decay: 1
  weight_decay: 0
  convolution_param {
    num_output: 4096
    kernel_size: 1
  }
  strict_dim: false
}
layers {
  bottom: "fc7"
  top: "fc7"
  name: "relu7"
  type: RELU
}
layers {
  bottom: "fc7"
  top: "fc7"
  name: "drop7"
  type: DROPOUT
  dropout_param {
    dropout_ratio: 0.5
  }
}
layers {
  bottom: "fc7"
  top: "fc8_pascal"
  name: "fc8_pascal"
  type: CONVOLUTION
  blobs_lr: 10
  blobs_lr: 20
  weight_decay: 1
  weight_decay: 0
  convolution_param {
    num_output: 21
    kernel_size: 1
    weight_filler {
      type: "gaussian"
      std: 0.01
    }
    bias_filler {
      type: "constant"
      value: 0
    }
  }
  strict_dim: false
}
layers {
  bottom: "label"
  top: "label_shrink"
  name: "label_shrink"
  type: INTERP
  interp_param {
    shrink_factor: 8
    pad_beg: -1
    pad_end: 0
  }
}
layers {
  bottom: "fc8_pascal"
  bottom: "label_shrink"
  name: "loss"
  type: SOFTMAX_LOSS
  include {
    phase: TRAIN
  }
  softmaxloss_param {
    ignore_label: 255
  }
}
layers {
  bottom: "fc8_pascal"
  bottom: "label_shrink"
  top: "accuracy"
  name: "accuracy"
  type: SEG_ACCURACY
  seg_accuracy_param {
    ignore_label: 255
  }
}
state {
  phase: TRAIN
}
I0814 12:29:12.998270 26665 layer_factory.hpp:78] Creating layer data
I0814 12:29:12.998301 26665 net.cpp:67] Creating Layer data
I0814 12:29:12.998319 26665 net.cpp:356] data -> data
I0814 12:29:12.998347 26665 net.cpp:356] data -> label
I0814 12:29:12.998370 26665 net.cpp:356] data -> (automatic)
I0814 12:29:12.998388 26665 net.cpp:96] Setting up data
I0814 12:29:12.998405 26665 image_seg_data_layer.cpp:45] Opening file voc12/list/train_aug.txt
I0814 12:29:13.008227 26665 image_seg_data_layer.cpp:62] Shuffling data
I0814 12:29:13.010035 26665 image_seg_data_layer.cpp:67] A total of 10582 images.
I0814 12:29:13.012795 26665 image_seg_data_layer.cpp:113] output data size: 20,3,306,306
I0814 12:29:13.012814 26665 image_seg_data_layer.cpp:117] output label size: 20,1,306,306
I0814 12:29:13.012838 26665 image_seg_data_layer.cpp:121] output data_dim size: 20,1,1,2
I0814 12:29:13.023351 26665 net.cpp:103] Top shape: 20 3 306 306 (5618160)
I0814 12:29:13.023370 26665 net.cpp:103] Top shape: 20 1 306 306 (1872720)
I0814 12:29:13.023393 26665 net.cpp:103] Top shape: 20 1 1 2 (40)
I0814 12:29:13.023413 26665 layer_factory.hpp:78] Creating layer conv1_1
I0814 12:29:13.023435 26665 net.cpp:67] Creating Layer conv1_1
I0814 12:29:13.023452 26665 net.cpp:394] conv1_1 <- data
I0814 12:29:13.023473 26665 net.cpp:356] conv1_1 -> conv1_1
I0814 12:29:13.023494 26665 net.cpp:96] Setting up conv1_1
I0814 12:29:13.023571 26665 net.cpp:103] Top shape: 20 64 306 306 (119854080)
I0814 12:29:13.023597 26665 layer_factory.hpp:78] Creating layer relu1_1
I0814 12:29:13.023615 26665 net.cpp:67] Creating Layer relu1_1
I0814 12:29:13.023632 26665 net.cpp:394] relu1_1 <- conv1_1
I0814 12:29:13.023649 26665 net.cpp:345] relu1_1 -> conv1_1 (in-place)
I0814 12:29:13.023668 26665 net.cpp:96] Setting up relu1_1
I0814 12:29:13.023685 26665 net.cpp:103] Top shape: 20 64 306 306 (119854080)
I0814 12:29:13.023702 26665 layer_factory.hpp:78] Creating layer conv1_2
I0814 12:29:13.023721 26665 net.cpp:67] Creating Layer conv1_2
I0814 12:29:13.023738 26665 net.cpp:394] conv1_2 <- conv1_1
I0814 12:29:13.023761 26665 net.cpp:356] conv1_2 -> conv1_2
I0814 12:29:13.023784 26665 net.cpp:96] Setting up conv1_2
I0814 12:29:13.024016 26665 net.cpp:103] Top shape: 20 64 306 306 (119854080)
I0814 12:29:13.024045 26665 layer_factory.hpp:78] Creating layer relu1_2
I0814 12:29:13.024067 26665 net.cpp:67] Creating Layer relu1_2
I0814 12:29:13.024082 26665 net.cpp:394] relu1_2 <- conv1_2
I0814 12:29:13.024104 26665 net.cpp:345] relu1_2 -> conv1_2 (in-place)
I0814 12:29:13.024124 26665 net.cpp:96] Setting up relu1_2
I0814 12:29:13.024142 26665 net.cpp:103] Top shape: 20 64 306 306 (119854080)
I0814 12:29:13.024159 26665 layer_factory.hpp:78] Creating layer pool1
I0814 12:29:13.024179 26665 net.cpp:67] Creating Layer pool1
I0814 12:29:13.024197 26665 net.cpp:394] pool1 <- conv1_2
I0814 12:29:13.024224 26665 net.cpp:356] pool1 -> pool1
I0814 12:29:13.024243 26665 net.cpp:96] Setting up pool1
I0814 12:29:13.024267 26665 net.cpp:103] Top shape: 20 64 154 154 (30356480)
I0814 12:29:13.024281 26665 layer_factory.hpp:78] Creating layer conv2_1
I0814 12:29:13.024302 26665 net.cpp:67] Creating Layer conv2_1
I0814 12:29:13.024317 26665 net.cpp:394] conv2_1 <- pool1
I0814 12:29:13.024338 26665 net.cpp:356] conv2_1 -> conv2_1
I0814 12:29:13.024355 26665 net.cpp:96] Setting up conv2_1
I0814 12:29:13.024544 26665 net.cpp:103] Top shape: 20 128 154 154 (60712960)
I0814 12:29:13.024571 26665 layer_factory.hpp:78] Creating layer relu2_1
I0814 12:29:13.024595 26665 net.cpp:67] Creating Layer relu2_1
I0814 12:29:13.024615 26665 net.cpp:394] relu2_1 <- conv2_1
I0814 12:29:13.024643 26665 net.cpp:345] relu2_1 -> conv2_1 (in-place)
I0814 12:29:13.024665 26665 net.cpp:96] Setting up relu2_1
I0814 12:29:13.024694 26665 net.cpp:103] Top shape: 20 128 154 154 (60712960)
I0814 12:29:13.024713 26665 layer_factory.hpp:78] Creating layer conv2_2
I0814 12:29:13.024735 26665 net.cpp:67] Creating Layer conv2_2
I0814 12:29:13.024752 26665 net.cpp:394] conv2_2 <- conv2_1
I0814 12:29:13.024776 26665 net.cpp:356] conv2_2 -> conv2_2
I0814 12:29:13.024797 26665 net.cpp:96] Setting up conv2_2
I0814 12:29:13.025214 26665 net.cpp:103] Top shape: 20 128 154 154 (60712960)
I0814 12:29:13.025239 26665 layer_factory.hpp:78] Creating layer relu2_2
I0814 12:29:13.025259 26665 net.cpp:67] Creating Layer relu2_2
I0814 12:29:13.025279 26665 net.cpp:394] relu2_2 <- conv2_2
I0814 12:29:13.025301 26665 net.cpp:345] relu2_2 -> conv2_2 (in-place)
I0814 12:29:13.025351 26665 net.cpp:96] Setting up relu2_2
I0814 12:29:13.025367 26665 net.cpp:103] Top shape: 20 128 154 154 (60712960)
I0814 12:29:13.025394 26665 layer_factory.hpp:78] Creating layer pool2
I0814 12:29:13.025411 26665 net.cpp:67] Creating Layer pool2
I0814 12:29:13.025427 26665 net.cpp:394] pool2 <- conv2_2
I0814 12:29:13.025447 26665 net.cpp:356] pool2 -> pool2
I0814 12:29:13.025465 26665 net.cpp:96] Setting up pool2
I0814 12:29:13.025483 26665 net.cpp:103] Top shape: 20 128 78 78 (15575040)
I0814 12:29:13.025499 26665 layer_factory.hpp:78] Creating layer conv3_1
I0814 12:29:13.025517 26665 net.cpp:67] Creating Layer conv3_1
I0814 12:29:13.025533 26665 net.cpp:394] conv3_1 <- pool2
I0814 12:29:13.025555 26665 net.cpp:356] conv3_1 -> conv3_1
I0814 12:29:13.025573 26665 net.cpp:96] Setting up conv3_1
I0814 12:29:13.026510 26665 net.cpp:103] Top shape: 20 256 78 78 (31150080)
I0814 12:29:13.026532 26665 layer_factory.hpp:78] Creating layer relu3_1
I0814 12:29:13.026551 26665 net.cpp:67] Creating Layer relu3_1
I0814 12:29:13.026567 26665 net.cpp:394] relu3_1 <- conv3_1
I0814 12:29:13.026589 26665 net.cpp:345] relu3_1 -> conv3_1 (in-place)
I0814 12:29:13.026607 26665 net.cpp:96] Setting up relu3_1
I0814 12:29:13.026625 26665 net.cpp:103] Top shape: 20 256 78 78 (31150080)
I0814 12:29:13.026643 26665 layer_factory.hpp:78] Creating layer conv3_2
I0814 12:29:13.026666 26665 net.cpp:67] Creating Layer conv3_2
I0814 12:29:13.026682 26665 net.cpp:394] conv3_2 <- conv3_1
I0814 12:29:13.026703 26665 net.cpp:356] conv3_2 -> conv3_2
I0814 12:29:13.026723 26665 net.cpp:96] Setting up conv3_2
I0814 12:29:13.028100 26665 net.cpp:103] Top shape: 20 256 78 78 (31150080)
I0814 12:29:13.028123 26665 layer_factory.hpp:78] Creating layer relu3_2
I0814 12:29:13.028141 26665 net.cpp:67] Creating Layer relu3_2
I0814 12:29:13.028156 26665 net.cpp:394] relu3_2 <- conv3_2
I0814 12:29:13.028177 26665 net.cpp:345] relu3_2 -> conv3_2 (in-place)
I0814 12:29:13.028193 26665 net.cpp:96] Setting up relu3_2
I0814 12:29:13.028208 26665 net.cpp:103] Top shape: 20 256 78 78 (31150080)
I0814 12:29:13.028224 26665 layer_factory.hpp:78] Creating layer conv3_3
I0814 12:29:13.028240 26665 net.cpp:67] Creating Layer conv3_3
I0814 12:29:13.028254 26665 net.cpp:394] conv3_3 <- conv3_2
I0814 12:29:13.028272 26665 net.cpp:356] conv3_3 -> conv3_3
I0814 12:29:13.028290 26665 net.cpp:96] Setting up conv3_3
I0814 12:29:13.029367 26665 net.cpp:103] Top shape: 20 256 78 78 (31150080)
I0814 12:29:13.029394 26665 layer_factory.hpp:78] Creating layer relu3_3
I0814 12:29:13.029431 26665 net.cpp:67] Creating Layer relu3_3
I0814 12:29:13.029448 26665 net.cpp:394] relu3_3 <- conv3_3
I0814 12:29:13.029467 26665 net.cpp:345] relu3_3 -> conv3_3 (in-place)
I0814 12:29:13.029486 26665 net.cpp:96] Setting up relu3_3
I0814 12:29:13.029502 26665 net.cpp:103] Top shape: 20 256 78 78 (31150080)
I0814 12:29:13.029517 26665 layer_factory.hpp:78] Creating layer pool3
I0814 12:29:13.029533 26665 net.cpp:67] Creating Layer pool3
I0814 12:29:13.029547 26665 net.cpp:394] pool3 <- conv3_3
I0814 12:29:13.029566 26665 net.cpp:356] pool3 -> pool3
I0814 12:29:13.029583 26665 net.cpp:96] Setting up pool3
I0814 12:29:13.029600 26665 net.cpp:103] Top shape: 20 256 40 40 (8192000)
I0814 12:29:13.029615 26665 layer_factory.hpp:78] Creating layer conv4_1
I0814 12:29:13.029638 26665 net.cpp:67] Creating Layer conv4_1
I0814 12:29:13.029650 26665 net.cpp:394] conv4_1 <- pool3
I0814 12:29:13.029670 26665 net.cpp:356] conv4_1 -> conv4_1
I0814 12:29:13.029687 26665 net.cpp:96] Setting up conv4_1
I0814 12:29:13.031924 26665 net.cpp:103] Top shape: 20 512 40 40 (16384000)
I0814 12:29:13.031960 26665 layer_factory.hpp:78] Creating layer relu4_1
I0814 12:29:13.031975 26665 net.cpp:67] Creating Layer relu4_1
I0814 12:29:13.032008 26665 net.cpp:394] relu4_1 <- conv4_1
I0814 12:29:13.032030 26665 net.cpp:345] relu4_1 -> conv4_1 (in-place)
I0814 12:29:13.032050 26665 net.cpp:96] Setting up relu4_1
I0814 12:29:13.032066 26665 net.cpp:103] Top shape: 20 512 40 40 (16384000)
I0814 12:29:13.032105 26665 layer_factory.hpp:78] Creating layer conv4_2
I0814 12:29:13.032124 26665 net.cpp:67] Creating Layer conv4_2
I0814 12:29:13.032137 26665 net.cpp:394] conv4_2 <- conv4_1
I0814 12:29:13.032169 26665 net.cpp:356] conv4_2 -> conv4_2
I0814 12:29:13.032187 26665 net.cpp:96] Setting up conv4_2
I0814 12:29:13.036753 26665 net.cpp:103] Top shape: 20 512 40 40 (16384000)
I0814 12:29:13.036787 26665 layer_factory.hpp:78] Creating layer relu4_2
I0814 12:29:13.036828 26665 net.cpp:67] Creating Layer relu4_2
I0814 12:29:13.036844 26665 net.cpp:394] relu4_2 <- conv4_2
I0814 12:29:13.036864 26665 net.cpp:345] relu4_2 -> conv4_2 (in-place)
I0814 12:29:13.036883 26665 net.cpp:96] Setting up relu4_2
I0814 12:29:13.036898 26665 net.cpp:103] Top shape: 20 512 40 40 (16384000)
I0814 12:29:13.036916 26665 layer_factory.hpp:78] Creating layer conv4_3
I0814 12:29:13.036932 26665 net.cpp:67] Creating Layer conv4_3
I0814 12:29:13.036947 26665 net.cpp:394] conv4_3 <- conv4_2
I0814 12:29:13.036964 26665 net.cpp:356] conv4_3 -> conv4_3
I0814 12:29:13.036983 26665 net.cpp:96] Setting up conv4_3
I0814 12:29:13.041393 26665 net.cpp:103] Top shape: 20 512 40 40 (16384000)
I0814 12:29:13.041427 26665 layer_factory.hpp:78] Creating layer relu4_3
I0814 12:29:13.041445 26665 net.cpp:67] Creating Layer relu4_3
I0814 12:29:13.041458 26665 net.cpp:394] relu4_3 <- conv4_3
I0814 12:29:13.041501 26665 net.cpp:345] relu4_3 -> conv4_3 (in-place)
I0814 12:29:13.041523 26665 net.cpp:96] Setting up relu4_3
I0814 12:29:13.041540 26665 net.cpp:103] Top shape: 20 512 40 40 (16384000)
I0814 12:29:13.041553 26665 layer_factory.hpp:78] Creating layer pool4
I0814 12:29:13.041571 26665 net.cpp:67] Creating Layer pool4
I0814 12:29:13.041584 26665 net.cpp:394] pool4 <- conv4_3
I0814 12:29:13.041604 26665 net.cpp:356] pool4 -> pool4
I0814 12:29:13.041625 26665 net.cpp:96] Setting up pool4
I0814 12:29:13.041642 26665 net.cpp:103] Top shape: 20 512 39 39 (15575040)
I0814 12:29:13.041657 26665 layer_factory.hpp:78] Creating layer conv5_1
I0814 12:29:13.041678 26665 net.cpp:67] Creating Layer conv5_1
I0814 12:29:13.041692 26665 net.cpp:394] conv5_1 <- pool4
I0814 12:29:13.041710 26665 net.cpp:356] conv5_1 -> conv5_1
I0814 12:29:13.041728 26665 net.cpp:96] Setting up conv5_1
I0814 12:29:13.046072 26665 net.cpp:103] Top shape: 20 512 39 39 (15575040)
I0814 12:29:13.046105 26665 layer_factory.hpp:78] Creating layer relu5_1
I0814 12:29:13.046121 26665 net.cpp:67] Creating Layer relu5_1
I0814 12:29:13.046164 26665 net.cpp:394] relu5_1 <- conv5_1
I0814 12:29:13.046182 26665 net.cpp:345] relu5_1 -> conv5_1 (in-place)
I0814 12:29:13.046205 26665 net.cpp:96] Setting up relu5_1
I0814 12:29:13.046222 26665 net.cpp:103] Top shape: 20 512 39 39 (15575040)
I0814 12:29:13.046238 26665 layer_factory.hpp:78] Creating layer conv5_2
I0814 12:29:13.046259 26665 net.cpp:67] Creating Layer conv5_2
I0814 12:29:13.046272 26665 net.cpp:394] conv5_2 <- conv5_1
I0814 12:29:13.046290 26665 net.cpp:356] conv5_2 -> conv5_2
I0814 12:29:13.046308 26665 net.cpp:96] Setting up conv5_2
I0814 12:29:13.050671 26665 net.cpp:103] Top shape: 20 512 39 39 (15575040)
I0814 12:29:13.050712 26665 layer_factory.hpp:78] Creating layer relu5_2
I0814 12:29:13.050729 26665 net.cpp:67] Creating Layer relu5_2
I0814 12:29:13.050742 26665 net.cpp:394] relu5_2 <- conv5_2
I0814 12:29:13.050761 26665 net.cpp:345] relu5_2 -> conv5_2 (in-place)
I0814 12:29:13.050806 26665 net.cpp:96] Setting up relu5_2
I0814 12:29:13.050825 26665 net.cpp:103] Top shape: 20 512 39 39 (15575040)
I0814 12:29:13.050838 26665 layer_factory.hpp:78] Creating layer conv5_3
I0814 12:29:13.050858 26665 net.cpp:67] Creating Layer conv5_3
I0814 12:29:13.050874 26665 net.cpp:394] conv5_3 <- conv5_2
I0814 12:29:13.050894 26665 net.cpp:356] conv5_3 -> conv5_3
I0814 12:29:13.050915 26665 net.cpp:96] Setting up conv5_3
I0814 12:29:13.055104 26665 net.cpp:103] Top shape: 20 512 39 39 (15575040)
I0814 12:29:13.055135 26665 layer_factory.hpp:78] Creating layer relu5_3
I0814 12:29:13.055152 26665 net.cpp:67] Creating Layer relu5_3
I0814 12:29:13.055166 26665 net.cpp:394] relu5_3 <- conv5_3
I0814 12:29:13.055212 26665 net.cpp:345] relu5_3 -> conv5_3 (in-place)
I0814 12:29:13.055250 26665 net.cpp:96] Setting up relu5_3
I0814 12:29:13.055268 26665 net.cpp:103] Top shape: 20 512 39 39 (15575040)
I0814 12:29:13.055284 26665 layer_factory.hpp:78] Creating layer pool5
I0814 12:29:13.055305 26665 net.cpp:67] Creating Layer pool5
I0814 12:29:13.055318 26665 net.cpp:394] pool5 <- conv5_3
I0814 12:29:13.055336 26665 net.cpp:356] pool5 -> pool5
I0814 12:29:13.055356 26665 net.cpp:96] Setting up pool5
I0814 12:29:13.055374 26665 net.cpp:103] Top shape: 20 512 39 39 (15575040)
I0814 12:29:13.055389 26665 layer_factory.hpp:78] Creating layer fc6
I0814 12:29:13.055414 26665 net.cpp:67] Creating Layer fc6
I0814 12:29:13.055428 26665 net.cpp:394] fc6 <- pool5
I0814 12:29:13.055449 26665 net.cpp:356] fc6 -> fc6
I0814 12:29:13.055465 26665 net.cpp:96] Setting up fc6
I0814 12:29:13.115937 26665 net.cpp:103] Top shape: 20 4096 39 39 (124600320)
I0814 12:29:13.115979 26665 layer_factory.hpp:78] Creating layer relu6
I0814 12:29:13.115998 26665 net.cpp:67] Creating Layer relu6
I0814 12:29:13.116040 26665 net.cpp:394] relu6 <- fc6
I0814 12:29:13.116060 26665 net.cpp:345] relu6 -> fc6 (in-place)
I0814 12:29:13.116080 26665 net.cpp:96] Setting up relu6
I0814 12:29:13.116097 26665 net.cpp:103] Top shape: 20 4096 39 39 (124600320)
I0814 12:29:13.116114 26665 layer_factory.hpp:78] Creating layer drop6
I0814 12:29:13.116139 26665 net.cpp:67] Creating Layer drop6
I0814 12:29:13.116156 26665 net.cpp:394] drop6 <- fc6
I0814 12:29:13.116174 26665 net.cpp:345] drop6 -> fc6 (in-place)
I0814 12:29:13.116194 26665 net.cpp:96] Setting up drop6
I0814 12:29:13.116214 26665 net.cpp:103] Top shape: 20 4096 39 39 (124600320)
I0814 12:29:13.116230 26665 layer_factory.hpp:78] Creating layer fc7
I0814 12:29:13.116247 26665 net.cpp:67] Creating Layer fc7
I0814 12:29:13.116262 26665 net.cpp:394] fc7 <- fc6
I0814 12:29:13.116281 26665 net.cpp:356] fc7 -> fc7
I0814 12:29:13.116302 26665 net.cpp:96] Setting up fc7
I0814 12:29:13.146116 26665 net.cpp:103] Top shape: 20 4096 39 39 (124600320)
I0814 12:29:13.146165 26665 layer_factory.hpp:78] Creating layer relu7
I0814 12:29:13.146183 26665 net.cpp:67] Creating Layer relu7
I0814 12:29:13.146227 26665 net.cpp:394] relu7 <- fc7
I0814 12:29:13.146247 26665 net.cpp:345] relu7 -> fc7 (in-place)
I0814 12:29:13.146270 26665 net.cpp:96] Setting up relu7
I0814 12:29:13.146286 26665 net.cpp:103] Top shape: 20 4096 39 39 (124600320)
I0814 12:29:13.146303 26665 layer_factory.hpp:78] Creating layer drop7
I0814 12:29:13.146322 26665 net.cpp:67] Creating Layer drop7
I0814 12:29:13.146337 26665 net.cpp:394] drop7 <- fc7
I0814 12:29:13.146353 26665 net.cpp:345] drop7 -> fc7 (in-place)
I0814 12:29:13.146370 26665 net.cpp:96] Setting up drop7
I0814 12:29:13.146389 26665 net.cpp:103] Top shape: 20 4096 39 39 (124600320)
I0814 12:29:13.146404 26665 layer_factory.hpp:78] Creating layer fc8_pascal
I0814 12:29:13.146423 26665 net.cpp:67] Creating Layer fc8_pascal
I0814 12:29:13.146436 26665 net.cpp:394] fc8_pascal <- fc7
I0814 12:29:13.146455 26665 net.cpp:356] fc8_pascal -> fc8_pascal
I0814 12:29:13.146474 26665 net.cpp:96] Setting up fc8_pascal
I0814 12:29:13.149338 26665 net.cpp:103] Top shape: 20 21 39 39 (638820)
I0814 12:29:13.149358 26665 layer_factory.hpp:78] Creating layer fc8_pascal_fc8_pascal_0_split
I0814 12:29:13.149387 26665 net.cpp:67] Creating Layer fc8_pascal_fc8_pascal_0_split
I0814 12:29:13.149405 26665 net.cpp:394] fc8_pascal_fc8_pascal_0_split <- fc8_pascal
I0814 12:29:13.149427 26665 net.cpp:356] fc8_pascal_fc8_pascal_0_split -> fc8_pascal_fc8_pascal_0_split_0
I0814 12:29:13.149449 26665 net.cpp:356] fc8_pascal_fc8_pascal_0_split -> fc8_pascal_fc8_pascal_0_split_1
I0814 12:29:13.149471 26665 net.cpp:96] Setting up fc8_pascal_fc8_pascal_0_split
I0814 12:29:13.149490 26665 net.cpp:103] Top shape: 20 21 39 39 (638820)
I0814 12:29:13.149507 26665 net.cpp:103] Top shape: 20 21 39 39 (638820)
I0814 12:29:13.149523 26665 layer_factory.hpp:78] Creating layer label_shrink
I0814 12:29:13.149575 26665 net.cpp:67] Creating Layer label_shrink
I0814 12:29:13.149595 26665 net.cpp:394] label_shrink <- label
I0814 12:29:13.149613 26665 net.cpp:356] label_shrink -> label_shrink
I0814 12:29:13.149633 26665 net.cpp:96] Setting up label_shrink
I0814 12:29:13.149655 26665 net.cpp:103] Top shape: 20 1 39 39 (30420)
I0814 12:29:13.149672 26665 layer_factory.hpp:78] Creating layer label_shrink_label_shrink_0_split
I0814 12:29:13.149688 26665 net.cpp:67] Creating Layer label_shrink_label_shrink_0_split
I0814 12:29:13.149701 26665 net.cpp:394] label_shrink_label_shrink_0_split <- label_shrink
I0814 12:29:13.149719 26665 net.cpp:356] label_shrink_label_shrink_0_split -> label_shrink_label_shrink_0_split_0
I0814 12:29:13.149741 26665 net.cpp:356] label_shrink_label_shrink_0_split -> label_shrink_label_shrink_0_split_1
I0814 12:29:13.149761 26665 net.cpp:96] Setting up label_shrink_label_shrink_0_split
I0814 12:29:13.149778 26665 net.cpp:103] Top shape: 20 1 39 39 (30420)
I0814 12:29:13.149794 26665 net.cpp:103] Top shape: 20 1 39 39 (30420)
I0814 12:29:13.149809 26665 layer_factory.hpp:78] Creating layer loss
I0814 12:29:13.149834 26665 net.cpp:67] Creating Layer loss
I0814 12:29:13.149849 26665 net.cpp:394] loss <- fc8_pascal_fc8_pascal_0_split_0
I0814 12:29:13.149865 26665 net.cpp:394] loss <- label_shrink_label_shrink_0_split_0
I0814 12:29:13.149886 26665 net.cpp:356] loss -> (automatic)
I0814 12:29:13.149905 26665 net.cpp:96] Setting up loss
I0814 12:29:13.149930 26665 softmax_loss_layer.cpp:40] Weight_Loss file is not provided. Assign all one to it.
I0814 12:29:13.149950 26665 net.cpp:103] Top shape: 1 1 1 1 (1)
I0814 12:29:13.149966 26665 net.cpp:109]     with loss weight 1
I0814 12:29:13.150007 26665 layer_factory.hpp:78] Creating layer accuracy
I0814 12:29:13.150033 26665 net.cpp:67] Creating Layer accuracy
I0814 12:29:13.150049 26665 net.cpp:394] accuracy <- fc8_pascal_fc8_pascal_0_split_1
I0814 12:29:13.150068 26665 net.cpp:394] accuracy <- label_shrink_label_shrink_0_split_1
I0814 12:29:13.150087 26665 net.cpp:356] accuracy -> accuracy
I0814 12:29:13.150106 26665 net.cpp:96] Setting up accuracy
I0814 12:29:13.150133 26665 net.cpp:103] Top shape: 1 1 1 3 (3)
I0814 12:29:13.150149 26665 net.cpp:172] accuracy does not need backward computation.
I0814 12:29:13.150163 26665 net.cpp:170] loss needs backward computation.
I0814 12:29:13.150178 26665 net.cpp:172] label_shrink_label_shrink_0_split does not need backward computation.
I0814 12:29:13.150194 26665 net.cpp:172] label_shrink does not need backward computation.
I0814 12:29:13.150208 26665 net.cpp:170] fc8_pascal_fc8_pascal_0_split needs backward computation.
…
