…
I0813 17:20:55.948427  4512 net.cpp:275] The NetState phase (0) differed from the phase (1) specified by a rule in layer fc8_mat
I0813 17:20:55.948655  4512 net.cpp:39] Initializing net from parameters: 
name: "vgg128_noup"
layers {
  top: "data"
  top: "label"
  name: "data"
  type: IMAGE_SEG_DATA
  image_data_param {
    source: "voc12/list/train_aug.txt"
    batch_size: 20
    shuffle: true
    root_folder: "/media/Work_SSD/ali/VOCdevkit/VOC2012"
    label_type: PIXEL
  }
  include {
    phase: TRAIN
  }
  transform_param {
    mirror: true
    crop_size: 306
    mean_value: 104.008
    mean_value: 116.669
    mean_value: 122.675
  }
}
layers {
  bottom: "data"
  top: "conv1_1"
  name: "conv1_1"
  type: CONVOLUTION
  blobs_lr: 1
  blobs_lr: 2
  weight_decay: 1
  weight_decay: 0
  convolution_param {
    num_output: 64
    pad: 1
    kernel_size: 3
  }
}
layers {
  bottom: "conv1_1"
  top: "conv1_1"
  name: "relu1_1"
  type: RELU
}
layers {
  bottom: "conv1_1"
  top: "conv1_2"
  name: "conv1_2"
  type: CONVOLUTION
  blobs_lr: 1
  blobs_lr: 2
  weight_decay: 1
  weight_decay: 0
  convolution_param {
    num_output: 64
    pad: 1
    kernel_size: 3
  }
}
layers {
  bottom: "conv1_2"
  top: "conv1_2"
  name: "relu1_2"
  type: RELU
}
layers {
  bottom: "conv1_2"
  top: "pool1"
  name: "pool1"
  type: POOLING
  pooling_param {
    pool: MAX
    kernel_size: 2
    stride: 2
    pad: 1
  }
}
layers {
  bottom: "pool1"
  top: "conv2_1"
  name: "conv2_1"
  type: CONVOLUTION
  blobs_lr: 1
  blobs_lr: 2
  weight_decay: 1
  weight_decay: 0
  convolution_param {
    num_output: 128
    pad: 1
    kernel_size: 3
  }
}
layers {
  bottom: "conv2_1"
  top: "conv2_1"
  name: "relu2_1"
  type: RELU
}
layers {
  bottom: "conv2_1"
  top: "conv2_2"
  name: "conv2_2"
  type: CONVOLUTION
  blobs_lr: 1
  blobs_lr: 2
  weight_decay: 1
  weight_decay: 0
  convolution_param {
    num_output: 128
    pad: 1
    kernel_size: 3
  }
}
layers {
  bottom: "conv2_2"
  top: "conv2_2"
  name: "relu2_2"
  type: RELU
}
layers {
  bottom: "conv2_2"
  top: "pool2"
  name: "pool2"
  type: POOLING
  pooling_param {
    pool: MAX
    kernel_size: 2
    stride: 2
    pad: 1
  }
}
layers {
  bottom: "pool2"
  top: "conv3_1"
  name: "conv3_1"
  type: CONVOLUTION
  blobs_lr: 1
  blobs_lr: 2
  weight_decay: 1
  weight_decay: 0
  convolution_param {
    num_output: 256
    pad: 1
    kernel_size: 3
  }
}
layers {
  bottom: "conv3_1"
  top: "conv3_1"
  name: "relu3_1"
  type: RELU
}
layers {
  bottom: "conv3_1"
  top: "conv3_2"
  name: "conv3_2"
  type: CONVOLUTION
  blobs_lr: 1
  blobs_lr: 2
  weight_decay: 1
  weight_decay: 0
  convolution_param {
    num_output: 256
    pad: 1
    kernel_size: 3
  }
}
layers {
  bottom: "conv3_2"
  top: "conv3_2"
  name: "relu3_2"
  type: RELU
}
layers {
  bottom: "conv3_2"
  top: "conv3_3"
  name: "conv3_3"
  type: CONVOLUTION
  blobs_lr: 1
  blobs_lr: 2
  weight_decay: 1
  weight_decay: 0
  convolution_param {
    num_output: 256
    pad: 1
    kernel_size: 3
  }
}
layers {
  bottom: "conv3_3"
  top: "conv3_3"
  name: "relu3_3"
  type: RELU
}
layers {
  bottom: "conv3_3"
  top: "pool3"
  name: "pool3"
  type: POOLING
  pooling_param {
    pool: MAX
    kernel_size: 2
    stride: 2
    pad: 1
  }
}
layers {
  bottom: "pool3"
  top: "conv4_1"
  name: "conv4_1"
  type: CONVOLUTION
  blobs_lr: 1
  blobs_lr: 2
  weight_decay: 1
  weight_decay: 0
  convolution_param {
    num_output: 512
    pad: 1
    kernel_size: 3
  }
}
layers {
  bottom: "conv4_1"
  top: "conv4_1"
  name: "relu4_1"
  type: RELU
}
layers {
  bottom: "conv4_1"
  top: "conv4_2"
  name: "conv4_2"
  type: CONVOLUTION
  blobs_lr: 1
  blobs_lr: 2
  weight_decay: 1
  weight_decay: 0
  convolution_param {
    num_output: 512
    pad: 1
    kernel_size: 3
  }
}
layers {
  bottom: "conv4_2"
  top: "conv4_2"
  name: "relu4_2"
  type: RELU
}
layers {
  bottom: "conv4_2"
  top: "conv4_3"
  name: "conv4_3"
  type: CONVOLUTION
  blobs_lr: 1
  blobs_lr: 2
  weight_decay: 1
  weight_decay: 0
  convolution_param {
    num_output: 512
    pad: 1
    kernel_size: 3
  }
}
layers {
  bottom: "conv4_3"
  top: "conv4_3"
  name: "relu4_3"
  type: RELU
}
layers {
  bottom: "conv4_3"
  top: "pool4"
  name: "pool4"
  type: POOLING
  pooling_param {
    pool: MAX
    kernel_size: 2
    stride: 1
  }
}
layers {
  bottom: "pool4"
  top: "conv5_1"
  name: "conv5_1"
  type: CONVOLUTION
  blobs_lr: 1
  blobs_lr: 2
  weight_decay: 1
  weight_decay: 0
  convolution_param {
    num_output: 512
    pad: 2
    kernel_size: 3
    hole: 2
  }
}
layers {
  bottom: "conv5_1"
  top: "conv5_1"
  name: "relu5_1"
  type: RELU
}
layers {
  bottom: "conv5_1"
  top: "conv5_2"
  name: "conv5_2"
  type: CONVOLUTION
  blobs_lr: 1
  blobs_lr: 2
  weight_decay: 1
  weight_decay: 0
  convolution_param {
    num_output: 512
    pad: 2
    kernel_size: 3
    hole: 2
  }
}
layers {
  bottom: "conv5_2"
  top: "conv5_2"
  name: "relu5_2"
  type: RELU
}
layers {
  bottom: "conv5_2"
  top: "conv5_3"
  name: "conv5_3"
  type: CONVOLUTION
  blobs_lr: 1
  blobs_lr: 2
  weight_decay: 1
  weight_decay: 0
  convolution_param {
    num_output: 512
    pad: 2
    kernel_size: 3
    hole: 2
  }
}
layers {
  bottom: "conv5_3"
  top: "conv5_3"
  name: "relu5_3"
  type: RELU
}
layers {
  bottom: "conv5_3"
  top: "pool5"
  name: "pool5"
  type: POOLING
  pooling_param {
    pool: MAX
    kernel_size: 3
    stride: 1
    pad: 1
  }
}
layers {
  bottom: "pool5"
  top: "fc6"
  name: "fc6"
  type: CONVOLUTION
  blobs_lr: 1
  blobs_lr: 2
  weight_decay: 1
  weight_decay: 0
  convolution_param {
    num_output: 4096
    pad: 6
    kernel_size: 4
    hole: 4
  }
  strict_dim: false
}
layers {
  bottom: "fc6"
  top: "fc6"
  name: "relu6"
  type: RELU
}
layers {
  bottom: "fc6"
  top: "fc6"
  name: "drop6"
  type: DROPOUT
  dropout_param {
    dropout_ratio: 0.5
  }
}
layers {
  bottom: "fc6"
  top: "fc7"
  name: "fc7"
  type: CONVOLUTION
  blobs_lr: 1
  blobs_lr: 2
  weight_decay: 1
  weight_decay: 0
  convolution_param {
    num_output: 4096
    kernel_size: 1
  }
  strict_dim: false
}
layers {
  bottom: "fc7"
  top: "fc7"
  name: "relu7"
  type: RELU
}
layers {
  bottom: "fc7"
  top: "fc7"
  name: "drop7"
  type: DROPOUT
  dropout_param {
    dropout_ratio: 0.5
  }
}
layers {
  bottom: "fc7"
  top: "fc8_pascal"
  name: "fc8_pascal"
  type: CONVOLUTION
  blobs_lr: 10
  blobs_lr: 20
  weight_decay: 1
  weight_decay: 0
  convolution_param {
    num_output: 21
    kernel_size: 1
    weight_filler {
      type: "gaussian"
      std: 0.01
    }
    bias_filler {
      type: "constant"
      value: 0
    }
  }
  strict_dim: false
}
layers {
  bottom: "label"
  top: "label_shrink"
  name: "label_shrink"
  type: INTERP
  interp_param {
    shrink_factor: 8
    pad_beg: -1
    pad_end: 0
  }
}
layers {
  bottom: "fc8_pascal"
  bottom: "label_shrink"
  name: "loss"
  type: SOFTMAX_LOSS
  include {
    phase: TRAIN
  }
  softmaxloss_param {
    ignore_label: 255
  }
}
layers {
  bottom: "fc8_pascal"
  bottom: "label_shrink"
  top: "accuracy"
  name: "accuracy"
  type: SEG_ACCURACY
  seg_accuracy_param {
    ignore_label: 255
  }
}
state {
  phase: TRAIN
}
I0813 17:20:55.951556  4512 layer_factory.hpp:78] Creating layer data
I0813 17:20:55.951586  4512 net.cpp:67] Creating Layer data
I0813 17:20:55.951601  4512 net.cpp:356] data -> data
I0813 17:20:55.951625  4512 net.cpp:356] data -> label
I0813 17:20:55.951643  4512 net.cpp:356] data -> (automatic)
I0813 17:20:55.951656  4512 net.cpp:96] Setting up data
I0813 17:20:55.951671  4512 image_seg_data_layer.cpp:45] Opening file voc12/list/train_aug.txt
I0813 17:20:55.962785  4512 image_seg_data_layer.cpp:62] Shuffling data
I0813 17:20:55.964813  4512 image_seg_data_layer.cpp:67] A total of 10582 images.
I0813 17:20:55.966970  4512 image_seg_data_layer.cpp:113] output data size: 20,3,306,306
I0813 17:20:55.966986  4512 image_seg_data_layer.cpp:117] output label size: 20,1,306,306
I0813 17:20:55.966995  4512 image_seg_data_layer.cpp:121] output data_dim size: 20,1,1,2
I0813 17:20:55.978724  4512 net.cpp:103] Top shape: 20 3 306 306 (5618160)
I0813 17:20:55.978741  4512 net.cpp:103] Top shape: 20 1 306 306 (1872720)
I0813 17:20:55.978750  4512 net.cpp:103] Top shape: 20 1 1 2 (40)
I0813 17:20:55.978760  4512 layer_factory.hpp:78] Creating layer conv1_1
I0813 17:20:55.978775  4512 net.cpp:67] Creating Layer conv1_1
I0813 17:20:55.978786  4512 net.cpp:394] conv1_1 <- data
I0813 17:20:55.978801  4512 net.cpp:356] conv1_1 -> conv1_1
I0813 17:20:55.978814  4512 net.cpp:96] Setting up conv1_1
I0813 17:20:55.978901  4512 net.cpp:103] Top shape: 20 64 306 306 (119854080)
I0813 17:20:55.978924  4512 layer_factory.hpp:78] Creating layer relu1_1
I0813 17:20:55.978935  4512 net.cpp:67] Creating Layer relu1_1
I0813 17:20:55.978948  4512 net.cpp:394] relu1_1 <- conv1_1
I0813 17:20:55.978979  4512 net.cpp:345] relu1_1 -> conv1_1 (in-place)
I0813 17:20:55.979001  4512 net.cpp:96] Setting up relu1_1
I0813 17:20:55.979014  4512 net.cpp:103] Top shape: 20 64 306 306 (119854080)
I0813 17:20:55.979024  4512 layer_factory.hpp:78] Creating layer conv1_2
I0813 17:20:55.979038  4512 net.cpp:67] Creating Layer conv1_2
I0813 17:20:55.979049  4512 net.cpp:394] conv1_2 <- conv1_1
I0813 17:20:55.979066  4512 net.cpp:356] conv1_2 -> conv1_2
I0813 17:20:55.979084  4512 net.cpp:96] Setting up conv1_2
I0813 17:20:55.979292  4512 net.cpp:103] Top shape: 20 64 306 306 (119854080)
I0813 17:20:55.979316  4512 layer_factory.hpp:78] Creating layer relu1_2
I0813 17:20:55.979329  4512 net.cpp:67] Creating Layer relu1_2
I0813 17:20:55.979341  4512 net.cpp:394] relu1_2 <- conv1_2
I0813 17:20:55.979360  4512 net.cpp:345] relu1_2 -> conv1_2 (in-place)
I0813 17:20:55.979377  4512 net.cpp:96] Setting up relu1_2
I0813 17:20:55.979393  4512 net.cpp:103] Top shape: 20 64 306 306 (119854080)
I0813 17:20:55.979405  4512 layer_factory.hpp:78] Creating layer pool1
I0813 17:20:55.979421  4512 net.cpp:67] Creating Layer pool1
I0813 17:20:55.979436  4512 net.cpp:394] pool1 <- conv1_2
I0813 17:20:55.979451  4512 net.cpp:356] pool1 -> pool1
I0813 17:20:55.979467  4512 net.cpp:96] Setting up pool1
I0813 17:20:55.979506  4512 net.cpp:103] Top shape: 20 64 154 154 (30356480)
I0813 17:20:55.979521  4512 layer_factory.hpp:78] Creating layer conv2_1
I0813 17:20:55.979537  4512 net.cpp:67] Creating Layer conv2_1
I0813 17:20:55.979552  4512 net.cpp:394] conv2_1 <- pool1
I0813 17:20:55.979578  4512 net.cpp:356] conv2_1 -> conv2_1
I0813 17:20:55.979594  4512 net.cpp:96] Setting up conv2_1
I0813 17:20:55.979835  4512 net.cpp:103] Top shape: 20 128 154 154 (60712960)
I0813 17:20:55.979856  4512 layer_factory.hpp:78] Creating layer relu2_1
I0813 17:20:55.979878  4512 net.cpp:67] Creating Layer relu2_1
I0813 17:20:55.979894  4512 net.cpp:394] relu2_1 <- conv2_1
I0813 17:20:55.979910  4512 net.cpp:345] relu2_1 -> conv2_1 (in-place)
I0813 17:20:55.979925  4512 net.cpp:96] Setting up relu2_1
I0813 17:20:55.979938  4512 net.cpp:103] Top shape: 20 128 154 154 (60712960)
I0813 17:20:55.979948  4512 layer_factory.hpp:78] Creating layer conv2_2
I0813 17:20:55.979964  4512 net.cpp:67] Creating Layer conv2_2
I0813 17:20:55.979976  4512 net.cpp:394] conv2_2 <- conv2_1
I0813 17:20:55.979990  4512 net.cpp:356] conv2_2 -> conv2_2
I0813 17:20:55.980005  4512 net.cpp:96] Setting up conv2_2
I0813 17:20:55.980414  4512 net.cpp:103] Top shape: 20 128 154 154 (60712960)
I0813 17:20:55.980438  4512 layer_factory.hpp:78] Creating layer relu2_2
I0813 17:20:55.980455  4512 net.cpp:67] Creating Layer relu2_2
I0813 17:20:55.980469  4512 net.cpp:394] relu2_2 <- conv2_2
I0813 17:20:55.980484  4512 net.cpp:345] relu2_2 -> conv2_2 (in-place)
I0813 17:20:55.980520  4512 net.cpp:96] Setting up relu2_2
I0813 17:20:55.980532  4512 net.cpp:103] Top shape: 20 128 154 154 (60712960)
I0813 17:20:55.980547  4512 layer_factory.hpp:78] Creating layer pool2
I0813 17:20:55.980563  4512 net.cpp:67] Creating Layer pool2
I0813 17:20:55.980578  4512 net.cpp:394] pool2 <- conv2_2
I0813 17:20:55.980598  4512 net.cpp:356] pool2 -> pool2
I0813 17:20:55.980618  4512 net.cpp:96] Setting up pool2
I0813 17:20:55.980630  4512 net.cpp:103] Top shape: 20 128 78 78 (15575040)
I0813 17:20:55.980643  4512 layer_factory.hpp:78] Creating layer conv3_1
I0813 17:20:55.980654  4512 net.cpp:67] Creating Layer conv3_1
I0813 17:20:55.980667  4512 net.cpp:394] conv3_1 <- pool2
I0813 17:20:55.980680  4512 net.cpp:356] conv3_1 -> conv3_1
I0813 17:20:55.980692  4512 net.cpp:96] Setting up conv3_1
I0813 17:20:55.981493  4512 net.cpp:103] Top shape: 20 256 78 78 (31150080)
I0813 17:20:55.981521  4512 layer_factory.hpp:78] Creating layer relu3_1
I0813 17:20:55.981539  4512 net.cpp:67] Creating Layer relu3_1
I0813 17:20:55.981550  4512 net.cpp:394] relu3_1 <- conv3_1
I0813 17:20:55.981566  4512 net.cpp:345] relu3_1 -> conv3_1 (in-place)
I0813 17:20:55.981582  4512 net.cpp:96] Setting up relu3_1
I0813 17:20:55.981598  4512 net.cpp:103] Top shape: 20 256 78 78 (31150080)
I0813 17:20:55.981613  4512 layer_factory.hpp:78] Creating layer conv3_2
I0813 17:20:55.981629  4512 net.cpp:67] Creating Layer conv3_2
I0813 17:20:55.981643  4512 net.cpp:394] conv3_2 <- conv3_1
I0813 17:20:55.981662  4512 net.cpp:356] conv3_2 -> conv3_2
I0813 17:20:55.981675  4512 net.cpp:96] Setting up conv3_2
I0813 17:20:55.983275  4512 net.cpp:103] Top shape: 20 256 78 78 (31150080)
I0813 17:20:55.983314  4512 layer_factory.hpp:78] Creating layer relu3_2
I0813 17:20:55.983330  4512 net.cpp:67] Creating Layer relu3_2
I0813 17:20:55.983341  4512 net.cpp:394] relu3_2 <- conv3_2
I0813 17:20:55.983355  4512 net.cpp:345] relu3_2 -> conv3_2 (in-place)
I0813 17:20:55.983367  4512 net.cpp:96] Setting up relu3_2
I0813 17:20:55.983378  4512 net.cpp:103] Top shape: 20 256 78 78 (31150080)
I0813 17:20:55.983389  4512 layer_factory.hpp:78] Creating layer conv3_3
I0813 17:20:55.983403  4512 net.cpp:67] Creating Layer conv3_3
I0813 17:20:55.983415  4512 net.cpp:394] conv3_3 <- conv3_2
I0813 17:20:55.983428  4512 net.cpp:356] conv3_3 -> conv3_3
I0813 17:20:55.983440  4512 net.cpp:96] Setting up conv3_3
I0813 17:20:55.984634  4512 net.cpp:103] Top shape: 20 256 78 78 (31150080)
I0813 17:20:55.984657  4512 layer_factory.hpp:78] Creating layer relu3_3
I0813 17:20:55.984673  4512 net.cpp:67] Creating Layer relu3_3
I0813 17:20:55.984685  4512 net.cpp:394] relu3_3 <- conv3_3
I0813 17:20:55.984700  4512 net.cpp:345] relu3_3 -> conv3_3 (in-place)
I0813 17:20:55.984714  4512 net.cpp:96] Setting up relu3_3
I0813 17:20:55.984725  4512 net.cpp:103] Top shape: 20 256 78 78 (31150080)
I0813 17:20:55.984736  4512 layer_factory.hpp:78] Creating layer pool3
I0813 17:20:55.984748  4512 net.cpp:67] Creating Layer pool3
I0813 17:20:55.984760  4512 net.cpp:394] pool3 <- conv3_3
I0813 17:20:55.984772  4512 net.cpp:356] pool3 -> pool3
I0813 17:20:55.984786  4512 net.cpp:96] Setting up pool3
I0813 17:20:55.984798  4512 net.cpp:103] Top shape: 20 256 40 40 (8192000)
I0813 17:20:55.984809  4512 layer_factory.hpp:78] Creating layer conv4_1
I0813 17:20:55.984822  4512 net.cpp:67] Creating Layer conv4_1
I0813 17:20:55.984833  4512 net.cpp:394] conv4_1 <- pool3
I0813 17:20:55.984848  4512 net.cpp:356] conv4_1 -> conv4_1
I0813 17:20:55.984861  4512 net.cpp:96] Setting up conv4_1
I0813 17:20:55.987347  4512 net.cpp:103] Top shape: 20 512 40 40 (16384000)
I0813 17:20:55.987381  4512 layer_factory.hpp:78] Creating layer relu4_1
I0813 17:20:55.987411  4512 net.cpp:67] Creating Layer relu4_1
I0813 17:20:55.987424  4512 net.cpp:394] relu4_1 <- conv4_1
I0813 17:20:55.987440  4512 net.cpp:345] relu4_1 -> conv4_1 (in-place)
I0813 17:20:55.987455  4512 net.cpp:96] Setting up relu4_1
I0813 17:20:55.987468  4512 net.cpp:103] Top shape: 20 512 40 40 (16384000)
I0813 17:20:55.987505  4512 layer_factory.hpp:78] Creating layer conv4_2
I0813 17:20:55.987519  4512 net.cpp:67] Creating Layer conv4_2
I0813 17:20:55.987530  4512 net.cpp:394] conv4_2 <- conv4_1
I0813 17:20:55.987545  4512 net.cpp:356] conv4_2 -> conv4_2
I0813 17:20:55.987560  4512 net.cpp:96] Setting up conv4_2
I0813 17:20:55.992486  4512 net.cpp:103] Top shape: 20 512 40 40 (16384000)
I0813 17:20:55.992529  4512 layer_factory.hpp:78] Creating layer relu4_2
I0813 17:20:55.992576  4512 net.cpp:67] Creating Layer relu4_2
I0813 17:20:55.992597  4512 net.cpp:394] relu4_2 <- conv4_2
I0813 17:20:55.992622  4512 net.cpp:345] relu4_2 -> conv4_2 (in-place)
I0813 17:20:55.992645  4512 net.cpp:96] Setting up relu4_2
I0813 17:20:55.992660  4512 net.cpp:103] Top shape: 20 512 40 40 (16384000)
I0813 17:20:55.992677  4512 layer_factory.hpp:78] Creating layer conv4_3
I0813 17:20:55.992701  4512 net.cpp:67] Creating Layer conv4_3
I0813 17:20:55.992715  4512 net.cpp:394] conv4_3 <- conv4_2
I0813 17:20:55.992736  4512 net.cpp:356] conv4_3 -> conv4_3
I0813 17:20:55.992758  4512 net.cpp:96] Setting up conv4_3
I0813 17:20:55.997473  4512 net.cpp:103] Top shape: 20 512 40 40 (16384000)
I0813 17:20:55.997514  4512 layer_factory.hpp:78] Creating layer relu4_3
I0813 17:20:55.997534  4512 net.cpp:67] Creating Layer relu4_3
I0813 17:20:55.997586  4512 net.cpp:394] relu4_3 <- conv4_3
I0813 17:20:55.997612  4512 net.cpp:345] relu4_3 -> conv4_3 (in-place)
I0813 17:20:55.997637  4512 net.cpp:96] Setting up relu4_3
I0813 17:20:55.997654  4512 net.cpp:103] Top shape: 20 512 40 40 (16384000)
I0813 17:20:55.997673  4512 layer_factory.hpp:78] Creating layer pool4
I0813 17:20:55.997694  4512 net.cpp:67] Creating Layer pool4
I0813 17:20:55.997712  4512 net.cpp:394] pool4 <- conv4_3
I0813 17:20:55.997730  4512 net.cpp:356] pool4 -> pool4
I0813 17:20:55.997755  4512 net.cpp:96] Setting up pool4
I0813 17:20:55.997774  4512 net.cpp:103] Top shape: 20 512 39 39 (15575040)
I0813 17:20:55.997792  4512 layer_factory.hpp:78] Creating layer conv5_1
I0813 17:20:55.997812  4512 net.cpp:67] Creating Layer conv5_1
I0813 17:20:55.997829  4512 net.cpp:394] conv5_1 <- pool4
I0813 17:20:55.997853  4512 net.cpp:356] conv5_1 -> conv5_1
I0813 17:20:55.997874  4512 net.cpp:96] Setting up conv5_1
I0813 17:20:56.002715  4512 net.cpp:103] Top shape: 20 512 39 39 (15575040)
I0813 17:20:56.002769  4512 layer_factory.hpp:78] Creating layer relu5_1
I0813 17:20:56.002787  4512 net.cpp:67] Creating Layer relu5_1
I0813 17:20:56.002835  4512 net.cpp:394] relu5_1 <- conv5_1
I0813 17:20:56.002861  4512 net.cpp:345] relu5_1 -> conv5_1 (in-place)
I0813 17:20:56.002885  4512 net.cpp:96] Setting up relu5_1
I0813 17:20:56.002903  4512 net.cpp:103] Top shape: 20 512 39 39 (15575040)
I0813 17:20:56.002920  4512 layer_factory.hpp:78] Creating layer conv5_2
I0813 17:20:56.002941  4512 net.cpp:67] Creating Layer conv5_2
I0813 17:20:56.002959  4512 net.cpp:394] conv5_2 <- conv5_1
I0813 17:20:56.003001  4512 net.cpp:356] conv5_2 -> conv5_2
I0813 17:20:56.003022  4512 net.cpp:96] Setting up conv5_2
I0813 17:20:56.007896  4512 net.cpp:103] Top shape: 20 512 39 39 (15575040)
I0813 17:20:56.007948  4512 layer_factory.hpp:78] Creating layer relu5_2
I0813 17:20:56.007969  4512 net.cpp:67] Creating Layer relu5_2
I0813 17:20:56.007988  4512 net.cpp:394] relu5_2 <- conv5_2
I0813 17:20:56.008039  4512 net.cpp:345] relu5_2 -> conv5_2 (in-place)
I0813 17:20:56.008065  4512 net.cpp:96] Setting up relu5_2
I0813 17:20:56.008085  4512 net.cpp:103] Top shape: 20 512 39 39 (15575040)
I0813 17:20:56.008102  4512 layer_factory.hpp:78] Creating layer conv5_3
I0813 17:20:56.008122  4512 net.cpp:67] Creating Layer conv5_3
I0813 17:20:56.008143  4512 net.cpp:394] conv5_3 <- conv5_2
I0813 17:20:56.008172  4512 net.cpp:356] conv5_3 -> conv5_3
I0813 17:20:56.008194  4512 net.cpp:96] Setting up conv5_3
I0813 17:20:56.012950  4512 net.cpp:103] Top shape: 20 512 39 39 (15575040)
I0813 17:20:56.012996  4512 layer_factory.hpp:78] Creating layer relu5_3
I0813 17:20:56.013018  4512 net.cpp:67] Creating Layer relu5_3
I0813 17:20:56.013062  4512 net.cpp:394] relu5_3 <- conv5_3
I0813 17:20:56.013113  4512 net.cpp:345] relu5_3 -> conv5_3 (in-place)
I0813 17:20:56.013140  4512 net.cpp:96] Setting up relu5_3
I0813 17:20:56.013159  4512 net.cpp:103] Top shape: 20 512 39 39 (15575040)
I0813 17:20:56.013175  4512 layer_factory.hpp:78] Creating layer pool5
I0813 17:20:56.013196  4512 net.cpp:67] Creating Layer pool5
I0813 17:20:56.013212  4512 net.cpp:394] pool5 <- conv5_3
I0813 17:20:56.013237  4512 net.cpp:356] pool5 -> pool5
I0813 17:20:56.013258  4512 net.cpp:96] Setting up pool5
I0813 17:20:56.013278  4512 net.cpp:103] Top shape: 20 512 39 39 (15575040)
I0813 17:20:56.013295  4512 layer_factory.hpp:78] Creating layer fc6
I0813 17:20:56.013321  4512 net.cpp:67] Creating Layer fc6
I0813 17:20:56.013337  4512 net.cpp:394] fc6 <- pool5
I0813 17:20:56.013356  4512 net.cpp:356] fc6 -> fc6
I0813 17:20:56.013377  4512 net.cpp:96] Setting up fc6
I0813 17:20:56.080225  4512 net.cpp:103] Top shape: 20 4096 39 39 (124600320)
I0813 17:20:56.080286  4512 layer_factory.hpp:78] Creating layer relu6
I0813 17:20:56.080307  4512 net.cpp:67] Creating Layer relu6
I0813 17:20:56.080358  4512 net.cpp:394] relu6 <- fc6
I0813 17:20:56.080379  4512 net.cpp:345] relu6 -> fc6 (in-place)
I0813 17:20:56.080406  4512 net.cpp:96] Setting up relu6
I0813 17:20:56.080426  4512 net.cpp:103] Top shape: 20 4096 39 39 (124600320)
I0813 17:20:56.080447  4512 layer_factory.hpp:78] Creating layer drop6
I0813 17:20:56.080476  4512 net.cpp:67] Creating Layer drop6
I0813 17:20:56.080494  4512 net.cpp:394] drop6 <- fc6
I0813 17:20:56.080517  4512 net.cpp:345] drop6 -> fc6 (in-place)
I0813 17:20:56.080539  4512 net.cpp:96] Setting up drop6
I0813 17:20:56.080561  4512 net.cpp:103] Top shape: 20 4096 39 39 (124600320)
I0813 17:20:56.080581  4512 layer_factory.hpp:78] Creating layer fc7
I0813 17:20:56.080602  4512 net.cpp:67] Creating Layer fc7
I0813 17:20:56.080618  4512 net.cpp:394] fc7 <- fc6
I0813 17:20:56.080638  4512 net.cpp:356] fc7 -> fc7
I0813 17:20:56.080662  4512 net.cpp:96] Setting up fc7
I0813 17:20:56.113730  4512 net.cpp:103] Top shape: 20 4096 39 39 (124600320)
I0813 17:20:56.113785  4512 layer_factory.hpp:78] Creating layer relu7
I0813 17:20:56.113804  4512 net.cpp:67] Creating Layer relu7
I0813 17:20:56.113852  4512 net.cpp:394] relu7 <- fc7
I0813 17:20:56.113872  4512 net.cpp:345] relu7 -> fc7 (in-place)
I0813 17:20:56.113896  4512 net.cpp:96] Setting up relu7
I0813 17:20:56.113919  4512 net.cpp:103] Top shape: 20 4096 39 39 (124600320)
I0813 17:20:56.113942  4512 layer_factory.hpp:78] Creating layer drop7
I0813 17:20:56.113962  4512 net.cpp:67] Creating Layer drop7
I0813 17:20:56.113981  4512 net.cpp:394] drop7 <- fc7
I0813 17:20:56.114003  4512 net.cpp:345] drop7 -> fc7 (in-place)
I0813 17:20:56.114023  4512 net.cpp:96] Setting up drop7
I0813 17:20:56.114043  4512 net.cpp:103] Top shape: 20 4096 39 39 (124600320)
I0813 17:20:56.114063  4512 layer_factory.hpp:78] Creating layer fc8_pascal
I0813 17:20:56.114084  4512 net.cpp:67] Creating Layer fc8_pascal
I0813 17:20:56.114104  4512 net.cpp:394] fc8_pascal <- fc7
I0813 17:20:56.114125  4512 net.cpp:356] fc8_pascal -> fc8_pascal
I0813 17:20:56.114145  4512 net.cpp:96] Setting up fc8_pascal
I0813 17:20:56.117362  4512 net.cpp:103] Top shape: 20 21 39 39 (638820)
I0813 17:20:56.117384  4512 layer_factory.hpp:78] Creating layer fc8_pascal_fc8_pascal_0_split
I0813 17:20:56.117419  4512 net.cpp:67] Creating Layer fc8_pascal_fc8_pascal_0_split
I0813 17:20:56.117442  4512 net.cpp:394] fc8_pascal_fc8_pascal_0_split <- fc8_pascal
I0813 17:20:56.117465  4512 net.cpp:356] fc8_pascal_fc8_pascal_0_split -> fc8_pascal_fc8_pascal_0_split_0
I0813 17:20:56.117493  4512 net.cpp:356] fc8_pascal_fc8_pascal_0_split -> fc8_pascal_fc8_pascal_0_split_1
I0813 17:20:56.117517  4512 net.cpp:96] Setting up fc8_pascal_fc8_pascal_0_split
I0813 17:20:56.117540  4512 net.cpp:103] Top shape: 20 21 39 39 (638820)
I0813 17:20:56.117558  4512 net.cpp:103] Top shape: 20 21 39 39 (638820)
I0813 17:20:56.117575  4512 layer_factory.hpp:78] Creating layer label_shrink
I0813 17:20:56.117632  4512 net.cpp:67] Creating Layer label_shrink
I0813 17:20:56.117653  4512 net.cpp:394] label_shrink <- label
I0813 17:20:56.117674  4512 net.cpp:356] label_shrink -> label_shrink
I0813 17:20:56.117696  4512 net.cpp:96] Setting up label_shrink
I0813 17:20:56.117717  4512 net.cpp:103] Top shape: 20 1 39 39 (30420)
I0813 17:20:56.117735  4512 layer_factory.hpp:78] Creating layer label_shrink_label_shrink_0_split
I0813 17:20:56.117754  4512 net.cpp:67] Creating Layer label_shrink_label_shrink_0_split
I0813 17:20:56.117775  4512 net.cpp:394] label_shrink_label_shrink_0_split <- label_shrink
I0813 17:20:56.117797  4512 net.cpp:356] label_shrink_label_shrink_0_split -> label_shrink_label_shrink_0_split_0
I0813 17:20:56.117818  4512 net.cpp:356] label_shrink_label_shrink_0_split -> label_shrink_label_shrink_0_split_1
I0813 17:20:56.117840  4512 net.cpp:96] Setting up label_shrink_label_shrink_0_split
I0813 17:20:56.117858  4512 net.cpp:103] Top shape: 20 1 39 39 (30420)
I0813 17:20:56.117877  4512 net.cpp:103] Top shape: 20 1 39 39 (30420)
I0813 17:20:56.117893  4512 layer_factory.hpp:78] Creating layer loss
I0813 17:20:56.117919  4512 net.cpp:67] Creating Layer loss
I0813 17:20:56.117936  4512 net.cpp:394] loss <- fc8_pascal_fc8_pascal_0_split_0
I0813 17:20:56.117956  4512 net.cpp:394] loss <- label_shrink_label_shrink_0_split_0
I0813 17:20:56.117981  4512 net.cpp:356] loss -> (automatic)
I0813 17:20:56.118001  4512 net.cpp:96] Setting up loss
I0813 17:20:56.118026  4512 softmax_loss_layer.cpp:40] Weight_Loss file is not provided. Assign all one to it.
I0813 17:20:56.118049  4512 net.cpp:103] Top shape: 1 1 1 1 (1)
I0813 17:20:56.118065  4512 net.cpp:109]     with loss weight 1
I0813 17:20:56.118105  4512 layer_factory.hpp:78] Creating layer accuracy
I0813 17:20:56.118129  4512 net.cpp:67] Creating Layer accuracy
I0813 17:20:56.118144  4512 net.cpp:394] accuracy <- fc8_pascal_fc8_pascal_0_split_1
I0813 17:20:56.118163  4512 net.cpp:394] accuracy <- label_shrink_label_shrink_0_split_1
I0813 17:20:56.118185  4512 net.cpp:356] accuracy -> accuracy
I0813 17:20:56.118207  4512 net.cpp:96] Setting up accuracy
I0813 17:20:56.118237  4512 net.cpp:103] Top shape: 1 1 1 3 (3)
I0813 17:20:56.118252  4512 net.cpp:172] accuracy does not need backward computation.
I0813 17:20:56.118268  4512 net.cpp:170] loss needs backward computation.
I0813 17:20:56.118284  4512 net.cpp:172] label_shrink_label_shrink_0_split does not need backward computation.
I0813 17:20:56.118301  4512 net.cpp:172] label_shrink does not need backward computation.
I0813 17:20:56.118319  4512 net.cpp:170] fc8_pascal_fc8_pascal_0_split needs backward computation.
…
