…
I0813 11:34:13.427341 31963 net.cpp:275] The NetState phase (1) differed from the phase (0) specified by a rule in layer accuracy
I0813 11:34:13.427541 31963 net.cpp:39] Initializing net from parameters: 
name: "vgg128_noup"
layers {
  top: "data"
  name: "data"
  type: IMAGE_SEG_DATA
  image_data_param {
    source: "voc12/list/val.txt"
    batch_size: 1
    root_folder: "/media/Work_SSD/ali/VOCdevkit/VOC2012"
    has_label: false
  }
  include {
    phase: TEST
  }
  transform_param {
    mirror: false
    crop_size: 514
    mean_value: 104.008
    mean_value: 116.669
    mean_value: 122.675
  }
}
layers {
  bottom: "data"
  top: "conv1_1"
  name: "conv1_1"
  type: CONVOLUTION
  blobs_lr: 1
  blobs_lr: 2
  weight_decay: 1
  weight_decay: 0
  convolution_param {
    num_output: 64
    pad: 1
    kernel_size: 3
  }
}
layers {
  bottom: "conv1_1"
  top: "conv1_1"
  name: "relu1_1"
  type: RELU
}
layers {
  bottom: "conv1_1"
  top: "conv1_2"
  name: "conv1_2"
  type: CONVOLUTION
  blobs_lr: 1
  blobs_lr: 2
  weight_decay: 1
  weight_decay: 0
  convolution_param {
    num_output: 64
    pad: 1
    kernel_size: 3
  }
}
layers {
  bottom: "conv1_2"
  top: "conv1_2"
  name: "relu1_2"
  type: RELU
}
layers {
  bottom: "conv1_2"
  top: "pool1"
  name: "pool1"
  type: POOLING
  pooling_param {
    pool: MAX
    kernel_size: 2
    stride: 2
    pad: 1
  }
}
layers {
  bottom: "pool1"
  top: "conv2_1"
  name: "conv2_1"
  type: CONVOLUTION
  blobs_lr: 1
  blobs_lr: 2
  weight_decay: 1
  weight_decay: 0
  convolution_param {
    num_output: 128
    pad: 1
    kernel_size: 3
  }
}
layers {
  bottom: "conv2_1"
  top: "conv2_1"
  name: "relu2_1"
  type: RELU
}
layers {
  bottom: "conv2_1"
  top: "conv2_2"
  name: "conv2_2"
  type: CONVOLUTION
  blobs_lr: 1
  blobs_lr: 2
  weight_decay: 1
  weight_decay: 0
  convolution_param {
    num_output: 128
    pad: 1
    kernel_size: 3
  }
}
layers {
  bottom: "conv2_2"
  top: "conv2_2"
  name: "relu2_2"
  type: RELU
}
layers {
  bottom: "conv2_2"
  top: "pool2"
  name: "pool2"
  type: POOLING
  pooling_param {
    pool: MAX
    kernel_size: 2
    stride: 2
    pad: 1
  }
}
layers {
  bottom: "pool2"
  top: "conv3_1"
  name: "conv3_1"
  type: CONVOLUTION
  blobs_lr: 1
  blobs_lr: 2
  weight_decay: 1
  weight_decay: 0
  convolution_param {
    num_output: 256
    pad: 1
    kernel_size: 3
  }
}
layers {
  bottom: "conv3_1"
  top: "conv3_1"
  name: "relu3_1"
  type: RELU
}
layers {
  bottom: "conv3_1"
  top: "conv3_2"
  name: "conv3_2"
  type: CONVOLUTION
  blobs_lr: 1
  blobs_lr: 2
  weight_decay: 1
  weight_decay: 0
  convolution_param {
    num_output: 256
    pad: 1
    kernel_size: 3
  }
}
layers {
  bottom: "conv3_2"
  top: "conv3_2"
  name: "relu3_2"
  type: RELU
}
layers {
  bottom: "conv3_2"
  top: "conv3_3"
  name: "conv3_3"
  type: CONVOLUTION
  blobs_lr: 1
  blobs_lr: 2
  weight_decay: 1
  weight_decay: 0
  convolution_param {
    num_output: 256
    pad: 1
    kernel_size: 3
  }
}
layers {
  bottom: "conv3_3"
  top: "conv3_3"
  name: "relu3_3"
  type: RELU
}
layers {
  bottom: "conv3_3"
  top: "pool3"
  name: "pool3"
  type: POOLING
  pooling_param {
    pool: MAX
    kernel_size: 2
    stride: 2
    pad: 1
  }
}
layers {
  bottom: "pool3"
  top: "conv4_1"
  name: "conv4_1"
  type: CONVOLUTION
  blobs_lr: 1
  blobs_lr: 2
  weight_decay: 1
  weight_decay: 0
  convolution_param {
    num_output: 512
    pad: 1
    kernel_size: 3
  }
}
layers {
  bottom: "conv4_1"
  top: "conv4_1"
  name: "relu4_1"
  type: RELU
}
layers {
  bottom: "conv4_1"
  top: "conv4_2"
  name: "conv4_2"
  type: CONVOLUTION
  blobs_lr: 1
  blobs_lr: 2
  weight_decay: 1
  weight_decay: 0
  convolution_param {
    num_output: 512
    pad: 1
    kernel_size: 3
  }
}
layers {
  bottom: "conv4_2"
  top: "conv4_2"
  name: "relu4_2"
  type: RELU
}
layers {
  bottom: "conv4_2"
  top: "conv4_3"
  name: "conv4_3"
  type: CONVOLUTION
  blobs_lr: 1
  blobs_lr: 2
  weight_decay: 1
  weight_decay: 0
  convolution_param {
    num_output: 512
    pad: 1
    kernel_size: 3
  }
}
layers {
  bottom: "conv4_3"
  top: "conv4_3"
  name: "relu4_3"
  type: RELU
}
layers {
  bottom: "conv4_3"
  top: "pool4"
  name: "pool4"
  type: POOLING
  pooling_param {
    pool: MAX
    kernel_size: 2
    stride: 1
    pad: 1
  }
}
layers {
  bottom: "pool4"
  top: "conv5_1"
  name: "conv5_1"
  type: CONVOLUTION
  blobs_lr: 1
  blobs_lr: 2
  weight_decay: 1
  weight_decay: 0
  convolution_param {
    num_output: 512
    pad: 2
    kernel_size: 3
    hole: 2
  }
}
layers {
  bottom: "conv5_1"
  top: "conv5_1"
  name: "relu5_1"
  type: RELU
}
layers {
  bottom: "conv5_1"
  top: "conv5_2"
  name: "conv5_2"
  type: CONVOLUTION
  blobs_lr: 1
  blobs_lr: 2
  weight_decay: 1
  weight_decay: 0
  convolution_param {
    num_output: 512
    pad: 2
    kernel_size: 3
    hole: 2
  }
}
layers {
  bottom: "conv5_2"
  top: "conv5_2"
  name: "relu5_2"
  type: RELU
}
layers {
  bottom: "conv5_2"
  top: "conv5_3"
  name: "conv5_3"
  type: CONVOLUTION
  blobs_lr: 1
  blobs_lr: 2
  weight_decay: 1
  weight_decay: 0
  convolution_param {
    num_output: 512
    pad: 2
    kernel_size: 3
    hole: 2
  }
}
layers {
  bottom: "conv5_3"
  top: "conv5_3"
  name: "relu5_3"
  type: RELU
}
layers {
  bottom: "conv5_3"
  top: "pool5"
  name: "pool5"
  type: POOLING
  pooling_param {
    pool: MAX
    kernel_size: 3
    stride: 1
    pad: 1
  }
}
layers {
  bottom: "pool5"
  top: "fc6"
  name: "fc6"
  type: CONVOLUTION
  blobs_lr: 1
  blobs_lr: 2
  weight_decay: 1
  weight_decay: 0
  convolution_param {
    num_output: 4096
    pad: 6
    kernel_size: 4
    hole: 4
  }
  strict_dim: false
}
layers {
  bottom: "fc6"
  top: "fc6"
  name: "relu6"
  type: RELU
}
layers {
  bottom: "fc6"
  top: "fc6"
  name: "drop6"
  type: DROPOUT
  dropout_param {
    dropout_ratio: 0.5
  }
}
layers {
  bottom: "fc6"
  top: "fc7"
  name: "fc7"
  type: CONVOLUTION
  blobs_lr: 1
  blobs_lr: 2
  weight_decay: 1
  weight_decay: 0
  convolution_param {
    num_output: 4096
    kernel_size: 1
  }
  strict_dim: false
}
layers {
  bottom: "fc7"
  top: "fc7"
  name: "relu7"
  type: RELU
}
layers {
  bottom: "fc7"
  top: "fc7"
  name: "drop7"
  type: DROPOUT
  dropout_param {
    dropout_ratio: 0.5
  }
}
layers {
  bottom: "fc7"
  top: "fc8_pascal"
  name: "fc8_pascal"
  type: CONVOLUTION
  blobs_lr: 10
  blobs_lr: 20
  weight_decay: 1
  weight_decay: 0
  convolution_param {
    num_output: 21
    kernel_size: 1
    weight_filler {
      type: "gaussian"
      std: 0.01
    }
    bias_filler {
      type: "constant"
      value: 0
    }
  }
  strict_dim: false
}
layers {
  bottom: "fc8_pascal"
  top: "fc8_interp"
  name: "fc8_interp"
  type: INTERP
  interp_param {
    zoom_factor: 8
  }
}
layers {
  bottom: "fc8_interp"
  top: "fc8_crop"
  name: "fc8_crop"
  type: PADDING
  padding_param {
    pad_beg: -7
    pad_end: -8
  }
}
layers {
  bottom: "fc8_crop"
  name: "fc8_crop_mat"
  type: MAT_WRITE
  include {
    phase: TEST
  }
  mat_write_param {
    prefix: "voc12/features/vgg128_noup/val/fc8/"
    source: "voc12/list/val_id.txt"
    strip: 0
    period: 1
  }
}
I0813 11:34:13.429481 31963 layer_factory.hpp:78] Creating layer data
I0813 11:34:13.429507 31963 net.cpp:67] Creating Layer data
I0813 11:34:13.429522 31963 net.cpp:356] data -> data
I0813 11:34:13.429544 31963 net.cpp:356] data -> (automatic)
I0813 11:34:13.429559 31963 net.cpp:356] data -> (automatic)
I0813 11:34:13.429571 31963 net.cpp:96] Setting up data
I0813 11:34:13.429585 31963 image_seg_data_layer.cpp:45] Opening file voc12/list/val.txt
I0813 11:34:13.430966 31963 image_seg_data_layer.cpp:67] A total of 1449 images.
I0813 11:34:13.432900 31963 image_seg_data_layer.cpp:113] output data size: 1,3,514,514
I0813 11:34:13.432929 31963 image_seg_data_layer.cpp:117] output label size: 1,1,514,514
I0813 11:34:13.432939 31963 image_seg_data_layer.cpp:121] output data_dim size: 1,1,1,2
I0813 11:34:13.434483 31963 net.cpp:103] Top shape: 1 3 514 514 (792588)
I0813 11:34:13.434509 31963 net.cpp:103] Top shape: 1 1 514 514 (264196)
I0813 11:34:13.434520 31963 net.cpp:103] Top shape: 1 1 1 2 (2)
I0813 11:34:13.434540 31963 layer_factory.hpp:78] Creating layer conv1_1
I0813 11:34:13.434566 31963 net.cpp:67] Creating Layer conv1_1
I0813 11:34:13.434581 31963 net.cpp:394] conv1_1 <- data
I0813 11:34:13.434593 31963 net.cpp:356] conv1_1 -> conv1_1
I0813 11:34:13.434612 31963 net.cpp:96] Setting up conv1_1
I0813 11:34:13.435298 31963 net.cpp:103] Top shape: 1 64 514 514 (16908544)
I0813 11:34:13.435334 31963 layer_factory.hpp:78] Creating layer relu1_1
I0813 11:34:13.435361 31963 net.cpp:67] Creating Layer relu1_1
I0813 11:34:13.435376 31963 net.cpp:394] relu1_1 <- conv1_1
I0813 11:34:13.435390 31963 net.cpp:345] relu1_1 -> conv1_1 (in-place)
I0813 11:34:13.435408 31963 net.cpp:96] Setting up relu1_1
I0813 11:34:13.435422 31963 net.cpp:103] Top shape: 1 64 514 514 (16908544)
I0813 11:34:13.435436 31963 layer_factory.hpp:78] Creating layer conv1_2
I0813 11:34:13.435451 31963 net.cpp:67] Creating Layer conv1_2
I0813 11:34:13.435463 31963 net.cpp:394] conv1_2 <- conv1_1
I0813 11:34:13.435475 31963 net.cpp:356] conv1_2 -> conv1_2
I0813 11:34:13.435490 31963 net.cpp:96] Setting up conv1_2
I0813 11:34:13.436329 31963 net.cpp:103] Top shape: 1 64 514 514 (16908544)
I0813 11:34:13.436352 31963 layer_factory.hpp:78] Creating layer relu1_2
I0813 11:34:13.436367 31963 net.cpp:67] Creating Layer relu1_2
I0813 11:34:13.436379 31963 net.cpp:394] relu1_2 <- conv1_2
I0813 11:34:13.436391 31963 net.cpp:345] relu1_2 -> conv1_2 (in-place)
I0813 11:34:13.436404 31963 net.cpp:96] Setting up relu1_2
I0813 11:34:13.436415 31963 net.cpp:103] Top shape: 1 64 514 514 (16908544)
I0813 11:34:13.436429 31963 layer_factory.hpp:78] Creating layer pool1
I0813 11:34:13.436444 31963 net.cpp:67] Creating Layer pool1
I0813 11:34:13.436455 31963 net.cpp:394] pool1 <- conv1_2
I0813 11:34:13.436467 31963 net.cpp:356] pool1 -> pool1
I0813 11:34:13.436480 31963 net.cpp:96] Setting up pool1
I0813 11:34:13.436511 31963 net.cpp:103] Top shape: 1 64 258 258 (4260096)
I0813 11:34:13.436527 31963 layer_factory.hpp:78] Creating layer conv2_1
I0813 11:34:13.436540 31963 net.cpp:67] Creating Layer conv2_1
I0813 11:34:13.436552 31963 net.cpp:394] conv2_1 <- pool1
I0813 11:34:13.436563 31963 net.cpp:356] conv2_1 -> conv2_1
I0813 11:34:13.436578 31963 net.cpp:96] Setting up conv2_1
I0813 11:34:13.436712 31963 net.cpp:103] Top shape: 1 128 258 258 (8520192)
I0813 11:34:13.436735 31963 layer_factory.hpp:78] Creating layer relu2_1
I0813 11:34:13.436753 31963 net.cpp:67] Creating Layer relu2_1
I0813 11:34:13.436765 31963 net.cpp:394] relu2_1 <- conv2_1
I0813 11:34:13.436782 31963 net.cpp:345] relu2_1 -> conv2_1 (in-place)
I0813 11:34:13.436797 31963 net.cpp:96] Setting up relu2_1
I0813 11:34:13.436810 31963 net.cpp:103] Top shape: 1 128 258 258 (8520192)
I0813 11:34:13.436825 31963 layer_factory.hpp:78] Creating layer conv2_2
I0813 11:34:13.436841 31963 net.cpp:67] Creating Layer conv2_2
I0813 11:34:13.436853 31963 net.cpp:394] conv2_2 <- conv2_1
I0813 11:34:13.436867 31963 net.cpp:356] conv2_2 -> conv2_2
I0813 11:34:13.436883 31963 net.cpp:96] Setting up conv2_2
I0813 11:34:13.437376 31963 net.cpp:103] Top shape: 1 128 258 258 (8520192)
I0813 11:34:13.437398 31963 layer_factory.hpp:78] Creating layer relu2_2
I0813 11:34:13.437414 31963 net.cpp:67] Creating Layer relu2_2
I0813 11:34:13.437433 31963 net.cpp:394] relu2_2 <- conv2_2
I0813 11:34:13.437449 31963 net.cpp:345] relu2_2 -> conv2_2 (in-place)
I0813 11:34:13.437465 31963 net.cpp:96] Setting up relu2_2
I0813 11:34:13.437477 31963 net.cpp:103] Top shape: 1 128 258 258 (8520192)
I0813 11:34:13.437489 31963 layer_factory.hpp:78] Creating layer pool2
I0813 11:34:13.437500 31963 net.cpp:67] Creating Layer pool2
I0813 11:34:13.437511 31963 net.cpp:394] pool2 <- conv2_2
I0813 11:34:13.437525 31963 net.cpp:356] pool2 -> pool2
I0813 11:34:13.437541 31963 net.cpp:96] Setting up pool2
I0813 11:34:13.437554 31963 net.cpp:103] Top shape: 1 128 130 130 (2163200)
I0813 11:34:13.437566 31963 layer_factory.hpp:78] Creating layer conv3_1
I0813 11:34:13.437578 31963 net.cpp:67] Creating Layer conv3_1
I0813 11:34:13.437602 31963 net.cpp:394] conv3_1 <- pool2
I0813 11:34:13.437618 31963 net.cpp:356] conv3_1 -> conv3_1
I0813 11:34:13.437631 31963 net.cpp:96] Setting up conv3_1
I0813 11:34:13.438593 31963 net.cpp:103] Top shape: 1 256 130 130 (4326400)
I0813 11:34:13.438613 31963 layer_factory.hpp:78] Creating layer relu3_1
I0813 11:34:13.438627 31963 net.cpp:67] Creating Layer relu3_1
I0813 11:34:13.438637 31963 net.cpp:394] relu3_1 <- conv3_1
I0813 11:34:13.438652 31963 net.cpp:345] relu3_1 -> conv3_1 (in-place)
I0813 11:34:13.438664 31963 net.cpp:96] Setting up relu3_1
I0813 11:34:13.438675 31963 net.cpp:103] Top shape: 1 256 130 130 (4326400)
I0813 11:34:13.438688 31963 layer_factory.hpp:78] Creating layer conv3_2
I0813 11:34:13.438704 31963 net.cpp:67] Creating Layer conv3_2
I0813 11:34:13.438719 31963 net.cpp:394] conv3_2 <- conv3_1
I0813 11:34:13.438733 31963 net.cpp:356] conv3_2 -> conv3_2
I0813 11:34:13.438746 31963 net.cpp:96] Setting up conv3_2
I0813 11:34:13.439966 31963 net.cpp:103] Top shape: 1 256 130 130 (4326400)
I0813 11:34:13.439997 31963 layer_factory.hpp:78] Creating layer relu3_2
I0813 11:34:13.440011 31963 net.cpp:67] Creating Layer relu3_2
I0813 11:34:13.440023 31963 net.cpp:394] relu3_2 <- conv3_2
I0813 11:34:13.440035 31963 net.cpp:345] relu3_2 -> conv3_2 (in-place)
I0813 11:34:13.440048 31963 net.cpp:96] Setting up relu3_2
I0813 11:34:13.440059 31963 net.cpp:103] Top shape: 1 256 130 130 (4326400)
I0813 11:34:13.440070 31963 layer_factory.hpp:78] Creating layer conv3_3
I0813 11:34:13.440085 31963 net.cpp:67] Creating Layer conv3_3
I0813 11:34:13.440096 31963 net.cpp:394] conv3_3 <- conv3_2
I0813 11:34:13.440109 31963 net.cpp:356] conv3_3 -> conv3_3
I0813 11:34:13.440122 31963 net.cpp:96] Setting up conv3_3
I0813 11:34:13.441274 31963 net.cpp:103] Top shape: 1 256 130 130 (4326400)
I0813 11:34:13.441296 31963 layer_factory.hpp:78] Creating layer relu3_3
I0813 11:34:13.441313 31963 net.cpp:67] Creating Layer relu3_3
I0813 11:34:13.441325 31963 net.cpp:394] relu3_3 <- conv3_3
I0813 11:34:13.441339 31963 net.cpp:345] relu3_3 -> conv3_3 (in-place)
I0813 11:34:13.441351 31963 net.cpp:96] Setting up relu3_3
I0813 11:34:13.441362 31963 net.cpp:103] Top shape: 1 256 130 130 (4326400)
I0813 11:34:13.441373 31963 layer_factory.hpp:78] Creating layer pool3
I0813 11:34:13.441385 31963 net.cpp:67] Creating Layer pool3
I0813 11:34:13.441396 31963 net.cpp:394] pool3 <- conv3_3
I0813 11:34:13.441411 31963 net.cpp:356] pool3 -> pool3
I0813 11:34:13.441426 31963 net.cpp:96] Setting up pool3
I0813 11:34:13.441437 31963 net.cpp:103] Top shape: 1 256 66 66 (1115136)
I0813 11:34:13.441449 31963 layer_factory.hpp:78] Creating layer conv4_1
I0813 11:34:13.441462 31963 net.cpp:67] Creating Layer conv4_1
I0813 11:34:13.441472 31963 net.cpp:394] conv4_1 <- pool3
I0813 11:34:13.441485 31963 net.cpp:356] conv4_1 -> conv4_1
I0813 11:34:13.441498 31963 net.cpp:96] Setting up conv4_1
I0813 11:34:13.443845 31963 net.cpp:103] Top shape: 1 512 66 66 (2230272)
I0813 11:34:13.443887 31963 layer_factory.hpp:78] Creating layer relu4_1
I0813 11:34:13.443919 31963 net.cpp:67] Creating Layer relu4_1
I0813 11:34:13.443933 31963 net.cpp:394] relu4_1 <- conv4_1
I0813 11:34:13.443956 31963 net.cpp:345] relu4_1 -> conv4_1 (in-place)
I0813 11:34:13.443972 31963 net.cpp:96] Setting up relu4_1
I0813 11:34:13.443984 31963 net.cpp:103] Top shape: 1 512 66 66 (2230272)
I0813 11:34:13.443995 31963 layer_factory.hpp:78] Creating layer conv4_2
I0813 11:34:13.444007 31963 net.cpp:67] Creating Layer conv4_2
I0813 11:34:13.444018 31963 net.cpp:394] conv4_2 <- conv4_1
I0813 11:34:13.444031 31963 net.cpp:356] conv4_2 -> conv4_2
I0813 11:34:13.444044 31963 net.cpp:96] Setting up conv4_2
I0813 11:34:13.448976 31963 net.cpp:103] Top shape: 1 512 66 66 (2230272)
I0813 11:34:13.449023 31963 layer_factory.hpp:78] Creating layer relu4_2
I0813 11:34:13.449049 31963 net.cpp:67] Creating Layer relu4_2
I0813 11:34:13.449064 31963 net.cpp:394] relu4_2 <- conv4_2
I0813 11:34:13.449079 31963 net.cpp:345] relu4_2 -> conv4_2 (in-place)
I0813 11:34:13.449095 31963 net.cpp:96] Setting up relu4_2
I0813 11:34:13.449131 31963 net.cpp:103] Top shape: 1 512 66 66 (2230272)
I0813 11:34:13.449143 31963 layer_factory.hpp:78] Creating layer conv4_3
I0813 11:34:13.449157 31963 net.cpp:67] Creating Layer conv4_3
I0813 11:34:13.449169 31963 net.cpp:394] conv4_3 <- conv4_2
I0813 11:34:13.449182 31963 net.cpp:356] conv4_3 -> conv4_3
I0813 11:34:13.449195 31963 net.cpp:96] Setting up conv4_3
I0813 11:34:13.453423 31963 net.cpp:103] Top shape: 1 512 66 66 (2230272)
I0813 11:34:13.453466 31963 layer_factory.hpp:78] Creating layer relu4_3
I0813 11:34:13.453485 31963 net.cpp:67] Creating Layer relu4_3
I0813 11:34:13.453496 31963 net.cpp:394] relu4_3 <- conv4_3
I0813 11:34:13.453510 31963 net.cpp:345] relu4_3 -> conv4_3 (in-place)
I0813 11:34:13.453523 31963 net.cpp:96] Setting up relu4_3
I0813 11:34:13.453534 31963 net.cpp:103] Top shape: 1 512 66 66 (2230272)
I0813 11:34:13.453546 31963 layer_factory.hpp:78] Creating layer pool4
I0813 11:34:13.453558 31963 net.cpp:67] Creating Layer pool4
I0813 11:34:13.453569 31963 net.cpp:394] pool4 <- conv4_3
I0813 11:34:13.453583 31963 net.cpp:356] pool4 -> pool4
I0813 11:34:13.453599 31963 net.cpp:96] Setting up pool4
I0813 11:34:13.453613 31963 net.cpp:103] Top shape: 1 512 67 67 (2298368)
I0813 11:34:13.453624 31963 layer_factory.hpp:78] Creating layer conv5_1
I0813 11:34:13.453636 31963 net.cpp:67] Creating Layer conv5_1
I0813 11:34:13.453647 31963 net.cpp:394] conv5_1 <- pool4
I0813 11:34:13.453660 31963 net.cpp:356] conv5_1 -> conv5_1
I0813 11:34:13.453673 31963 net.cpp:96] Setting up conv5_1
I0813 11:34:13.457876 31963 net.cpp:103] Top shape: 1 512 67 67 (2298368)
I0813 11:34:13.457904 31963 layer_factory.hpp:78] Creating layer relu5_1
I0813 11:34:13.457931 31963 net.cpp:67] Creating Layer relu5_1
I0813 11:34:13.457942 31963 net.cpp:394] relu5_1 <- conv5_1
I0813 11:34:13.457960 31963 net.cpp:345] relu5_1 -> conv5_1 (in-place)
I0813 11:34:13.457975 31963 net.cpp:96] Setting up relu5_1
I0813 11:34:13.457986 31963 net.cpp:103] Top shape: 1 512 67 67 (2298368)
I0813 11:34:13.457996 31963 layer_factory.hpp:78] Creating layer conv5_2
I0813 11:34:13.458009 31963 net.cpp:67] Creating Layer conv5_2
I0813 11:34:13.458019 31963 net.cpp:394] conv5_2 <- conv5_1
I0813 11:34:13.458031 31963 net.cpp:356] conv5_2 -> conv5_2
I0813 11:34:13.458045 31963 net.cpp:96] Setting up conv5_2
I0813 11:34:13.462321 31963 net.cpp:103] Top shape: 1 512 67 67 (2298368)
I0813 11:34:13.462363 31963 layer_factory.hpp:78] Creating layer relu5_2
I0813 11:34:13.462379 31963 net.cpp:67] Creating Layer relu5_2
I0813 11:34:13.462391 31963 net.cpp:394] relu5_2 <- conv5_2
I0813 11:34:13.462406 31963 net.cpp:345] relu5_2 -> conv5_2 (in-place)
I0813 11:34:13.462420 31963 net.cpp:96] Setting up relu5_2
I0813 11:34:13.462431 31963 net.cpp:103] Top shape: 1 512 67 67 (2298368)
I0813 11:34:13.462442 31963 layer_factory.hpp:78] Creating layer conv5_3
I0813 11:34:13.462455 31963 net.cpp:67] Creating Layer conv5_3
I0813 11:34:13.462466 31963 net.cpp:394] conv5_3 <- conv5_2
I0813 11:34:13.462477 31963 net.cpp:356] conv5_3 -> conv5_3
I0813 11:34:13.462491 31963 net.cpp:96] Setting up conv5_3
I0813 11:34:13.466728 31963 net.cpp:103] Top shape: 1 512 67 67 (2298368)
I0813 11:34:13.466758 31963 layer_factory.hpp:78] Creating layer relu5_3
I0813 11:34:13.466781 31963 net.cpp:67] Creating Layer relu5_3
I0813 11:34:13.466794 31963 net.cpp:394] relu5_3 <- conv5_3
I0813 11:34:13.466809 31963 net.cpp:345] relu5_3 -> conv5_3 (in-place)
I0813 11:34:13.466825 31963 net.cpp:96] Setting up relu5_3
I0813 11:34:13.466835 31963 net.cpp:103] Top shape: 1 512 67 67 (2298368)
I0813 11:34:13.466846 31963 layer_factory.hpp:78] Creating layer pool5
I0813 11:34:13.466859 31963 net.cpp:67] Creating Layer pool5
I0813 11:34:13.466871 31963 net.cpp:394] pool5 <- conv5_3
I0813 11:34:13.466882 31963 net.cpp:356] pool5 -> pool5
I0813 11:34:13.466895 31963 net.cpp:96] Setting up pool5
I0813 11:34:13.466908 31963 net.cpp:103] Top shape: 1 512 67 67 (2298368)
I0813 11:34:13.466919 31963 layer_factory.hpp:78] Creating layer fc6
I0813 11:34:13.466935 31963 net.cpp:67] Creating Layer fc6
I0813 11:34:13.466991 31963 net.cpp:394] fc6 <- pool5
I0813 11:34:13.467010 31963 net.cpp:356] fc6 -> fc6
I0813 11:34:13.467023 31963 net.cpp:96] Setting up fc6
I0813 11:34:13.525337 31963 net.cpp:103] Top shape: 1 4096 67 67 (18386944)
I0813 11:34:13.525401 31963 layer_factory.hpp:78] Creating layer relu6
I0813 11:34:13.525416 31963 net.cpp:67] Creating Layer relu6
I0813 11:34:13.525457 31963 net.cpp:394] relu6 <- fc6
I0813 11:34:13.525471 31963 net.cpp:345] relu6 -> fc6 (in-place)
I0813 11:34:13.525490 31963 net.cpp:96] Setting up relu6
I0813 11:34:13.525499 31963 net.cpp:103] Top shape: 1 4096 67 67 (18386944)
I0813 11:34:13.525512 31963 layer_factory.hpp:78] Creating layer drop6
I0813 11:34:13.525527 31963 net.cpp:67] Creating Layer drop6
I0813 11:34:13.525537 31963 net.cpp:394] drop6 <- fc6
I0813 11:34:13.525559 31963 net.cpp:345] drop6 -> fc6 (in-place)
I0813 11:34:13.525570 31963 net.cpp:96] Setting up drop6
I0813 11:34:13.525581 31963 net.cpp:103] Top shape: 1 4096 67 67 (18386944)
I0813 11:34:13.525589 31963 layer_factory.hpp:78] Creating layer fc7
I0813 11:34:13.525600 31963 net.cpp:67] Creating Layer fc7
I0813 11:34:13.525619 31963 net.cpp:394] fc7 <- fc6
I0813 11:34:13.525629 31963 net.cpp:356] fc7 -> fc7
I0813 11:34:13.525641 31963 net.cpp:96] Setting up fc7
I0813 11:34:13.554508 31963 net.cpp:103] Top shape: 1 4096 67 67 (18386944)
I0813 11:34:13.554566 31963 layer_factory.hpp:78] Creating layer relu7
I0813 11:34:13.554585 31963 net.cpp:67] Creating Layer relu7
I0813 11:34:13.554630 31963 net.cpp:394] relu7 <- fc7
I0813 11:34:13.554652 31963 net.cpp:345] relu7 -> fc7 (in-place)
I0813 11:34:13.554674 31963 net.cpp:96] Setting up relu7
I0813 11:34:13.554689 31963 net.cpp:103] Top shape: 1 4096 67 67 (18386944)
I0813 11:34:13.554705 31963 layer_factory.hpp:78] Creating layer drop7
I0813 11:34:13.554728 31963 net.cpp:67] Creating Layer drop7
I0813 11:34:13.554743 31963 net.cpp:394] drop7 <- fc7
I0813 11:34:13.554761 31963 net.cpp:345] drop7 -> fc7 (in-place)
I0813 11:34:13.554780 31963 net.cpp:96] Setting up drop7
I0813 11:34:13.554795 31963 net.cpp:103] Top shape: 1 4096 67 67 (18386944)
I0813 11:34:13.554811 31963 layer_factory.hpp:78] Creating layer fc8_pascal
I0813 11:34:13.554831 31963 net.cpp:67] Creating Layer fc8_pascal
I0813 11:34:13.554847 31963 net.cpp:394] fc8_pascal <- fc7
I0813 11:34:13.554864 31963 net.cpp:356] fc8_pascal -> fc8_pascal
I0813 11:34:13.554883 31963 net.cpp:96] Setting up fc8_pascal
I0813 11:34:13.557919 31963 net.cpp:103] Top shape: 1 21 67 67 (94269)
I0813 11:34:13.557941 31963 layer_factory.hpp:78] Creating layer fc8_interp
I0813 11:34:13.557970 31963 net.cpp:67] Creating Layer fc8_interp
I0813 11:34:13.557986 31963 net.cpp:394] fc8_interp <- fc8_pascal
I0813 11:34:13.558009 31963 net.cpp:356] fc8_interp -> fc8_interp
I0813 11:34:13.558028 31963 net.cpp:96] Setting up fc8_interp
I0813 11:34:13.558049 31963 net.cpp:103] Top shape: 1 21 529 529 (5876661)
I0813 11:34:13.558065 31963 layer_factory.hpp:78] Creating layer fc8_crop
I0813 11:34:13.558085 31963 net.cpp:67] Creating Layer fc8_crop
I0813 11:34:13.558101 31963 net.cpp:394] fc8_crop <- fc8_interp
I0813 11:34:13.558120 31963 net.cpp:356] fc8_crop -> fc8_crop
I0813 11:34:13.558137 31963 net.cpp:96] Setting up fc8_crop
I0813 11:34:13.558156 31963 net.cpp:103] Top shape: 1 21 514 514 (5548116)
I0813 11:34:13.558171 31963 layer_factory.hpp:78] Creating layer fc8_crop_mat
I0813 11:34:13.558193 31963 net.cpp:67] Creating Layer fc8_crop_mat
I0813 11:34:13.558207 31963 net.cpp:394] fc8_crop_mat <- fc8_crop
I0813 11:34:13.558224 31963 net.cpp:96] Setting up fc8_crop_mat
I0813 11:34:13.559190 31963 mat_write_layer.cpp:32] MatWrite will save a maximum of 1449 files.
I0813 11:34:13.559209 31963 net.cpp:172] fc8_crop_mat does not need backward computation.
…
