…
I0814 17:49:22.826418  2056 net.cpp:275] The NetState phase (1) differed from the phase (0) specified by a rule in layer accuracy
I0814 17:49:22.826640  2056 net.cpp:39] Initializing net from parameters: 
name: "vgg128_noup"
layers {
  top: "data"
  name: "data"
  type: IMAGE_SEG_DATA
  image_data_param {
    source: "voc12/list/val.txt"
    batch_size: 1
    root_folder: "/media/Work_SSD/ali/VOCdevkit/VOC2012"
    has_label: false
  }
  include {
    phase: TEST
  }
  transform_param {
    mirror: false
    crop_size: 514
    mean_value: 104.008
    mean_value: 116.669
    mean_value: 122.675
  }
}
layers {
  bottom: "data"
  top: "conv1_1"
  name: "conv1_1"
  type: CONVOLUTION
  blobs_lr: 1
  blobs_lr: 2
  weight_decay: 1
  weight_decay: 0
  convolution_param {
    num_output: 64
    pad: 1
    kernel_size: 3
  }
}
layers {
  bottom: "conv1_1"
  top: "conv1_1"
  name: "relu1_1"
  type: RELU
}
layers {
  bottom: "conv1_1"
  top: "conv1_2"
  name: "conv1_2"
  type: CONVOLUTION
  blobs_lr: 1
  blobs_lr: 2
  weight_decay: 1
  weight_decay: 0
  convolution_param {
    num_output: 64
    pad: 1
    kernel_size: 3
  }
}
layers {
  bottom: "conv1_2"
  top: "conv1_2"
  name: "relu1_2"
  type: RELU
}
layers {
  bottom: "conv1_2"
  top: "pool1"
  name: "pool1"
  type: POOLING
  pooling_param {
    pool: MAX
    kernel_size: 2
    stride: 2
    pad: 1
  }
}
layers {
  bottom: "pool1"
  top: "conv2_1"
  name: "conv2_1"
  type: CONVOLUTION
  blobs_lr: 1
  blobs_lr: 2
  weight_decay: 1
  weight_decay: 0
  convolution_param {
    num_output: 128
    pad: 1
    kernel_size: 3
  }
}
layers {
  bottom: "conv2_1"
  top: "conv2_1"
  name: "relu2_1"
  type: RELU
}
layers {
  bottom: "conv2_1"
  top: "conv2_2"
  name: "conv2_2"
  type: CONVOLUTION
  blobs_lr: 1
  blobs_lr: 2
  weight_decay: 1
  weight_decay: 0
  convolution_param {
    num_output: 128
    pad: 1
    kernel_size: 3
  }
}
layers {
  bottom: "conv2_2"
  top: "conv2_2"
  name: "relu2_2"
  type: RELU
}
layers {
  bottom: "conv2_2"
  top: "pool2"
  name: "pool2"
  type: POOLING
  pooling_param {
    pool: MAX
    kernel_size: 2
    stride: 2
    pad: 1
  }
}
layers {
  bottom: "pool2"
  top: "conv3_1"
  name: "conv3_1"
  type: CONVOLUTION
  blobs_lr: 1
  blobs_lr: 2
  weight_decay: 1
  weight_decay: 0
  convolution_param {
    num_output: 256
    pad: 1
    kernel_size: 3
  }
}
layers {
  bottom: "conv3_1"
  top: "conv3_1"
  name: "relu3_1"
  type: RELU
}
layers {
  bottom: "conv3_1"
  top: "conv3_2"
  name: "conv3_2"
  type: CONVOLUTION
  blobs_lr: 1
  blobs_lr: 2
  weight_decay: 1
  weight_decay: 0
  convolution_param {
    num_output: 256
    pad: 1
    kernel_size: 3
  }
}
layers {
  bottom: "conv3_2"
  top: "conv3_2"
  name: "relu3_2"
  type: RELU
}
layers {
  bottom: "conv3_2"
  top: "conv3_3"
  name: "conv3_3"
  type: CONVOLUTION
  blobs_lr: 1
  blobs_lr: 2
  weight_decay: 1
  weight_decay: 0
  convolution_param {
    num_output: 256
    pad: 1
    kernel_size: 3
  }
}
layers {
  bottom: "conv3_3"
  top: "conv3_3"
  name: "relu3_3"
  type: RELU
}
layers {
  bottom: "conv3_3"
  top: "pool3"
  name: "pool3"
  type: POOLING
  pooling_param {
    pool: MAX
    kernel_size: 2
    stride: 2
    pad: 1
  }
}
layers {
  bottom: "pool3"
  top: "conv4_1"
  name: "conv4_1"
  type: CONVOLUTION
  blobs_lr: 1
  blobs_lr: 2
  weight_decay: 1
  weight_decay: 0
  convolution_param {
    num_output: 512
    pad: 1
    kernel_size: 3
  }
}
layers {
  bottom: "conv4_1"
  top: "conv4_1"
  name: "relu4_1"
  type: RELU
}
layers {
  bottom: "conv4_1"
  top: "conv4_2"
  name: "conv4_2"
  type: CONVOLUTION
  blobs_lr: 1
  blobs_lr: 2
  weight_decay: 1
  weight_decay: 0
  convolution_param {
    num_output: 512
    pad: 1
    kernel_size: 3
  }
}
layers {
  bottom: "conv4_2"
  top: "conv4_2"
  name: "relu4_2"
  type: RELU
}
layers {
  bottom: "conv4_2"
  top: "conv4_3"
  name: "conv4_3"
  type: CONVOLUTION
  blobs_lr: 1
  blobs_lr: 2
  weight_decay: 1
  weight_decay: 0
  convolution_param {
    num_output: 512
    pad: 1
    kernel_size: 3
  }
}
layers {
  bottom: "conv4_3"
  top: "conv4_3"
  name: "relu4_3"
  type: RELU
}
layers {
  bottom: "conv4_3"
  top: "pool4"
  name: "pool4"
  type: POOLING
  pooling_param {
    pool: MAX
    kernel_size: 2
    stride: 1
    pad: 1
  }
}
layers {
  bottom: "pool4"
  top: "conv5_1"
  name: "conv5_1"
  type: CONVOLUTION
  blobs_lr: 1
  blobs_lr: 2
  weight_decay: 1
  weight_decay: 0
  convolution_param {
    num_output: 512
    pad: 2
    kernel_size: 3
    hole: 2
  }
}
layers {
  bottom: "conv5_1"
  top: "conv5_1"
  name: "relu5_1"
  type: RELU
}
layers {
  bottom: "conv5_1"
  top: "conv5_2"
  name: "conv5_2"
  type: CONVOLUTION
  blobs_lr: 1
  blobs_lr: 2
  weight_decay: 1
  weight_decay: 0
  convolution_param {
    num_output: 512
    pad: 2
    kernel_size: 3
    hole: 2
  }
}
layers {
  bottom: "conv5_2"
  top: "conv5_2"
  name: "relu5_2"
  type: RELU
}
layers {
  bottom: "conv5_2"
  top: "conv5_3"
  name: "conv5_3"
  type: CONVOLUTION
  blobs_lr: 1
  blobs_lr: 2
  weight_decay: 1
  weight_decay: 0
  convolution_param {
    num_output: 512
    pad: 2
    kernel_size: 3
    hole: 2
  }
}
layers {
  bottom: "conv5_3"
  top: "conv5_3"
  name: "relu5_3"
  type: RELU
}
layers {
  bottom: "conv5_3"
  top: "pool5"
  name: "pool5"
  type: POOLING
  pooling_param {
    pool: MAX
    kernel_size: 3
    stride: 1
    pad: 1
  }
}
layers {
  bottom: "pool5"
  top: "fc6"
  name: "fc6"
  type: CONVOLUTION
  blobs_lr: 1
  blobs_lr: 2
  weight_decay: 1
  weight_decay: 0
  convolution_param {
    num_output: 4096
    pad: 6
    kernel_size: 4
    hole: 4
  }
  strict_dim: false
}
layers {
  bottom: "fc6"
  top: "fc6"
  name: "relu6"
  type: RELU
}
layers {
  bottom: "fc6"
  top: "fc6"
  name: "drop6"
  type: DROPOUT
  dropout_param {
    dropout_ratio: 0.5
  }
}
layers {
  bottom: "fc6"
  top: "fc7"
  name: "fc7"
  type: CONVOLUTION
  blobs_lr: 1
  blobs_lr: 2
  weight_decay: 1
  weight_decay: 0
  convolution_param {
    num_output: 4096
    kernel_size: 1
  }
  strict_dim: false
}
layers {
  bottom: "fc7"
  top: "fc7"
  name: "relu7"
  type: RELU
}
layers {
  bottom: "fc7"
  top: "fc7"
  name: "drop7"
  type: DROPOUT
  dropout_param {
    dropout_ratio: 0.5
  }
}
layers {
  bottom: "fc7"
  top: "fc8_pascal"
  name: "fc8_pascal"
  type: CONVOLUTION
  blobs_lr: 10
  blobs_lr: 20
  weight_decay: 1
  weight_decay: 0
  convolution_param {
    num_output: 21
    kernel_size: 1
    weight_filler {
      type: "gaussian"
      std: 0.01
    }
    bias_filler {
      type: "constant"
      value: 0
    }
  }
  strict_dim: false
}
layers {
  bottom: "fc8_pascal"
  top: "fc8_interp"
  name: "fc8_interp"
  type: INTERP
  interp_param {
    zoom_factor: 8
  }
}
layers {
  bottom: "fc8_interp"
  top: "fc8_crop"
  name: "fc8_crop"
  type: PADDING
  padding_param {
    pad_beg: -7
    pad_end: -8
  }
}
layers {
  bottom: "fc8_crop"
  name: "fc8_crop_mat"
  type: MAT_WRITE
  include {
    phase: TEST
  }
  mat_write_param {
    prefix: "voc12/features/vgg128_noup/val/fc8/"
    source: "voc12/list/val_id.txt"
    strip: 0
    period: 1
  }
}
I0814 17:49:22.828563  2056 layer_factory.hpp:78] Creating layer data
I0814 17:49:22.828591  2056 net.cpp:67] Creating Layer data
I0814 17:49:22.828604  2056 net.cpp:356] data -> data
I0814 17:49:22.828627  2056 net.cpp:356] data -> (automatic)
I0814 17:49:22.828640  2056 net.cpp:356] data -> (automatic)
I0814 17:49:22.828652  2056 net.cpp:96] Setting up data
I0814 17:49:22.828665  2056 image_seg_data_layer.cpp:45] Opening file voc12/list/val.txt
I0814 17:49:22.830101  2056 image_seg_data_layer.cpp:67] A total of 1449 images.
I0814 17:49:22.832083  2056 image_seg_data_layer.cpp:113] output data size: 1,3,514,514
I0814 17:49:22.832105  2056 image_seg_data_layer.cpp:117] output label size: 1,1,514,514
I0814 17:49:22.832118  2056 image_seg_data_layer.cpp:121] output data_dim size: 1,1,1,2
I0814 17:49:22.833672  2056 net.cpp:103] Top shape: 1 3 514 514 (792588)
I0814 17:49:22.833691  2056 net.cpp:103] Top shape: 1 1 514 514 (264196)
I0814 17:49:22.833700  2056 net.cpp:103] Top shape: 1 1 1 2 (2)
I0814 17:49:22.833727  2056 layer_factory.hpp:78] Creating layer conv1_1
I0814 17:49:22.833745  2056 net.cpp:67] Creating Layer conv1_1
I0814 17:49:22.833758  2056 net.cpp:394] conv1_1 <- data
I0814 17:49:22.833770  2056 net.cpp:356] conv1_1 -> conv1_1
I0814 17:49:22.833783  2056 net.cpp:96] Setting up conv1_1
I0814 17:49:22.834312  2056 net.cpp:103] Top shape: 1 64 514 514 (16908544)
I0814 17:49:22.834334  2056 layer_factory.hpp:78] Creating layer relu1_1
I0814 17:49:22.834360  2056 net.cpp:67] Creating Layer relu1_1
I0814 17:49:22.834372  2056 net.cpp:394] relu1_1 <- conv1_1
I0814 17:49:22.834381  2056 net.cpp:345] relu1_1 -> conv1_1 (in-place)
I0814 17:49:22.834393  2056 net.cpp:96] Setting up relu1_1
I0814 17:49:22.834404  2056 net.cpp:103] Top shape: 1 64 514 514 (16908544)
I0814 17:49:22.834414  2056 layer_factory.hpp:78] Creating layer conv1_2
I0814 17:49:22.834424  2056 net.cpp:67] Creating Layer conv1_2
I0814 17:49:22.834434  2056 net.cpp:394] conv1_2 <- conv1_1
I0814 17:49:22.834444  2056 net.cpp:356] conv1_2 -> conv1_2
I0814 17:49:22.834455  2056 net.cpp:96] Setting up conv1_2
I0814 17:49:22.834977  2056 net.cpp:103] Top shape: 1 64 514 514 (16908544)
I0814 17:49:22.834995  2056 layer_factory.hpp:78] Creating layer relu1_2
I0814 17:49:22.835007  2056 net.cpp:67] Creating Layer relu1_2
I0814 17:49:22.835019  2056 net.cpp:394] relu1_2 <- conv1_2
I0814 17:49:22.835031  2056 net.cpp:345] relu1_2 -> conv1_2 (in-place)
I0814 17:49:22.835042  2056 net.cpp:96] Setting up relu1_2
I0814 17:49:22.835052  2056 net.cpp:103] Top shape: 1 64 514 514 (16908544)
I0814 17:49:22.835062  2056 layer_factory.hpp:78] Creating layer pool1
I0814 17:49:22.835072  2056 net.cpp:67] Creating Layer pool1
I0814 17:49:22.835080  2056 net.cpp:394] pool1 <- conv1_2
I0814 17:49:22.835091  2056 net.cpp:356] pool1 -> pool1
I0814 17:49:22.835103  2056 net.cpp:96] Setting up pool1
I0814 17:49:22.835119  2056 net.cpp:103] Top shape: 1 64 258 258 (4260096)
I0814 17:49:22.835131  2056 layer_factory.hpp:78] Creating layer conv2_1
I0814 17:49:22.835140  2056 net.cpp:67] Creating Layer conv2_1
I0814 17:49:22.835150  2056 net.cpp:394] conv2_1 <- pool1
I0814 17:49:22.835160  2056 net.cpp:356] conv2_1 -> conv2_1
I0814 17:49:22.835172  2056 net.cpp:96] Setting up conv2_1
I0814 17:49:22.835295  2056 net.cpp:103] Top shape: 1 128 258 258 (8520192)
I0814 17:49:22.835315  2056 layer_factory.hpp:78] Creating layer relu2_1
I0814 17:49:22.835328  2056 net.cpp:67] Creating Layer relu2_1
I0814 17:49:22.835337  2056 net.cpp:394] relu2_1 <- conv2_1
I0814 17:49:22.835346  2056 net.cpp:345] relu2_1 -> conv2_1 (in-place)
I0814 17:49:22.835357  2056 net.cpp:96] Setting up relu2_1
I0814 17:49:22.835367  2056 net.cpp:103] Top shape: 1 128 258 258 (8520192)
I0814 17:49:22.835376  2056 layer_factory.hpp:78] Creating layer conv2_2
I0814 17:49:22.835389  2056 net.cpp:67] Creating Layer conv2_2
I0814 17:49:22.835400  2056 net.cpp:394] conv2_2 <- conv2_1
I0814 17:49:22.835409  2056 net.cpp:356] conv2_2 -> conv2_2
I0814 17:49:22.835422  2056 net.cpp:96] Setting up conv2_2
I0814 17:49:22.835717  2056 net.cpp:103] Top shape: 1 128 258 258 (8520192)
I0814 17:49:22.835734  2056 layer_factory.hpp:78] Creating layer relu2_2
I0814 17:49:22.835746  2056 net.cpp:67] Creating Layer relu2_2
I0814 17:49:22.835757  2056 net.cpp:394] relu2_2 <- conv2_2
I0814 17:49:22.835767  2056 net.cpp:345] relu2_2 -> conv2_2 (in-place)
I0814 17:49:22.835779  2056 net.cpp:96] Setting up relu2_2
I0814 17:49:22.835788  2056 net.cpp:103] Top shape: 1 128 258 258 (8520192)
I0814 17:49:22.835798  2056 layer_factory.hpp:78] Creating layer pool2
I0814 17:49:22.835808  2056 net.cpp:67] Creating Layer pool2
I0814 17:49:22.835816  2056 net.cpp:394] pool2 <- conv2_2
I0814 17:49:22.835831  2056 net.cpp:356] pool2 -> pool2
I0814 17:49:22.835846  2056 net.cpp:96] Setting up pool2
I0814 17:49:22.835858  2056 net.cpp:103] Top shape: 1 128 130 130 (2163200)
I0814 17:49:22.835870  2056 layer_factory.hpp:78] Creating layer conv3_1
I0814 17:49:22.835880  2056 net.cpp:67] Creating Layer conv3_1
I0814 17:49:22.835903  2056 net.cpp:394] conv3_1 <- pool2
I0814 17:49:22.835917  2056 net.cpp:356] conv3_1 -> conv3_1
I0814 17:49:22.835932  2056 net.cpp:96] Setting up conv3_1
I0814 17:49:22.836839  2056 net.cpp:103] Top shape: 1 256 130 130 (4326400)
I0814 17:49:22.836860  2056 layer_factory.hpp:78] Creating layer relu3_1
I0814 17:49:22.836874  2056 net.cpp:67] Creating Layer relu3_1
I0814 17:49:22.836884  2056 net.cpp:394] relu3_1 <- conv3_1
I0814 17:49:22.836896  2056 net.cpp:345] relu3_1 -> conv3_1 (in-place)
I0814 17:49:22.836910  2056 net.cpp:96] Setting up relu3_1
I0814 17:49:22.836920  2056 net.cpp:103] Top shape: 1 256 130 130 (4326400)
I0814 17:49:22.836930  2056 layer_factory.hpp:78] Creating layer conv3_2
I0814 17:49:22.836941  2056 net.cpp:67] Creating Layer conv3_2
I0814 17:49:22.836951  2056 net.cpp:394] conv3_2 <- conv3_1
I0814 17:49:22.836961  2056 net.cpp:356] conv3_2 -> conv3_2
I0814 17:49:22.836971  2056 net.cpp:96] Setting up conv3_2
I0814 17:49:22.838076  2056 net.cpp:103] Top shape: 1 256 130 130 (4326400)
I0814 17:49:22.838098  2056 layer_factory.hpp:78] Creating layer relu3_2
I0814 17:49:22.838117  2056 net.cpp:67] Creating Layer relu3_2
I0814 17:49:22.838130  2056 net.cpp:394] relu3_2 <- conv3_2
I0814 17:49:22.838145  2056 net.cpp:345] relu3_2 -> conv3_2 (in-place)
I0814 17:49:22.838157  2056 net.cpp:96] Setting up relu3_2
I0814 17:49:22.838167  2056 net.cpp:103] Top shape: 1 256 130 130 (4326400)
I0814 17:49:22.838178  2056 layer_factory.hpp:78] Creating layer conv3_3
I0814 17:49:22.838191  2056 net.cpp:67] Creating Layer conv3_3
I0814 17:49:22.838201  2056 net.cpp:394] conv3_3 <- conv3_2
I0814 17:49:22.838212  2056 net.cpp:356] conv3_3 -> conv3_3
I0814 17:49:22.838223  2056 net.cpp:96] Setting up conv3_3
I0814 17:49:22.839323  2056 net.cpp:103] Top shape: 1 256 130 130 (4326400)
I0814 17:49:22.839364  2056 layer_factory.hpp:78] Creating layer relu3_3
I0814 17:49:22.839380  2056 net.cpp:67] Creating Layer relu3_3
I0814 17:49:22.839392  2056 net.cpp:394] relu3_3 <- conv3_3
I0814 17:49:22.839407  2056 net.cpp:345] relu3_3 -> conv3_3 (in-place)
I0814 17:49:22.839419  2056 net.cpp:96] Setting up relu3_3
I0814 17:49:22.839431  2056 net.cpp:103] Top shape: 1 256 130 130 (4326400)
I0814 17:49:22.839442  2056 layer_factory.hpp:78] Creating layer pool3
I0814 17:49:22.839454  2056 net.cpp:67] Creating Layer pool3
I0814 17:49:22.839464  2056 net.cpp:394] pool3 <- conv3_3
I0814 17:49:22.839475  2056 net.cpp:356] pool3 -> pool3
I0814 17:49:22.839488  2056 net.cpp:96] Setting up pool3
I0814 17:49:22.839499  2056 net.cpp:103] Top shape: 1 256 66 66 (1115136)
I0814 17:49:22.839509  2056 layer_factory.hpp:78] Creating layer conv4_1
I0814 17:49:22.839519  2056 net.cpp:67] Creating Layer conv4_1
I0814 17:49:22.839530  2056 net.cpp:394] conv4_1 <- pool3
I0814 17:49:22.839542  2056 net.cpp:356] conv4_1 -> conv4_1
I0814 17:49:22.839555  2056 net.cpp:96] Setting up conv4_1
I0814 17:49:22.841814  2056 net.cpp:103] Top shape: 1 512 66 66 (2230272)
I0814 17:49:22.841835  2056 layer_factory.hpp:78] Creating layer relu4_1
I0814 17:49:22.841847  2056 net.cpp:67] Creating Layer relu4_1
I0814 17:49:22.841856  2056 net.cpp:394] relu4_1 <- conv4_1
I0814 17:49:22.841866  2056 net.cpp:345] relu4_1 -> conv4_1 (in-place)
I0814 17:49:22.841881  2056 net.cpp:96] Setting up relu4_1
I0814 17:49:22.841891  2056 net.cpp:103] Top shape: 1 512 66 66 (2230272)
I0814 17:49:22.841899  2056 layer_factory.hpp:78] Creating layer conv4_2
I0814 17:49:22.841913  2056 net.cpp:67] Creating Layer conv4_2
I0814 17:49:22.841925  2056 net.cpp:394] conv4_2 <- conv4_1
I0814 17:49:22.841938  2056 net.cpp:356] conv4_2 -> conv4_2
I0814 17:49:22.841951  2056 net.cpp:96] Setting up conv4_2
I0814 17:49:22.846348  2056 net.cpp:103] Top shape: 1 512 66 66 (2230272)
I0814 17:49:22.846385  2056 layer_factory.hpp:78] Creating layer relu4_2
I0814 17:49:22.846397  2056 net.cpp:67] Creating Layer relu4_2
I0814 17:49:22.846406  2056 net.cpp:394] relu4_2 <- conv4_2
I0814 17:49:22.846447  2056 net.cpp:345] relu4_2 -> conv4_2 (in-place)
I0814 17:49:22.846462  2056 net.cpp:96] Setting up relu4_2
I0814 17:49:22.846498  2056 net.cpp:103] Top shape: 1 512 66 66 (2230272)
I0814 17:49:22.846505  2056 layer_factory.hpp:78] Creating layer conv4_3
I0814 17:49:22.846520  2056 net.cpp:67] Creating Layer conv4_3
I0814 17:49:22.846531  2056 net.cpp:394] conv4_3 <- conv4_2
I0814 17:49:22.846540  2056 net.cpp:356] conv4_3 -> conv4_3
I0814 17:49:22.846554  2056 net.cpp:96] Setting up conv4_3
I0814 17:49:22.850842  2056 net.cpp:103] Top shape: 1 512 66 66 (2230272)
I0814 17:49:22.850873  2056 layer_factory.hpp:78] Creating layer relu4_3
I0814 17:49:22.850884  2056 net.cpp:67] Creating Layer relu4_3
I0814 17:49:22.850893  2056 net.cpp:394] relu4_3 <- conv4_3
I0814 17:49:22.850903  2056 net.cpp:345] relu4_3 -> conv4_3 (in-place)
I0814 17:49:22.850937  2056 net.cpp:96] Setting up relu4_3
I0814 17:49:22.850950  2056 net.cpp:103] Top shape: 1 512 66 66 (2230272)
I0814 17:49:22.850957  2056 layer_factory.hpp:78] Creating layer pool4
I0814 17:49:22.850973  2056 net.cpp:67] Creating Layer pool4
I0814 17:49:22.850981  2056 net.cpp:394] pool4 <- conv4_3
I0814 17:49:22.851006  2056 net.cpp:356] pool4 -> pool4
I0814 17:49:22.851018  2056 net.cpp:96] Setting up pool4
I0814 17:49:22.851029  2056 net.cpp:103] Top shape: 1 512 67 67 (2298368)
I0814 17:49:22.851045  2056 layer_factory.hpp:78] Creating layer conv5_1
I0814 17:49:22.851059  2056 net.cpp:67] Creating Layer conv5_1
I0814 17:49:22.851069  2056 net.cpp:394] conv5_1 <- pool4
I0814 17:49:22.851083  2056 net.cpp:356] conv5_1 -> conv5_1
I0814 17:49:22.851095  2056 net.cpp:96] Setting up conv5_1
I0814 17:49:22.855404  2056 net.cpp:103] Top shape: 1 512 67 67 (2298368)
I0814 17:49:22.855447  2056 layer_factory.hpp:78] Creating layer relu5_1
I0814 17:49:22.855458  2056 net.cpp:67] Creating Layer relu5_1
I0814 17:49:22.855466  2056 net.cpp:394] relu5_1 <- conv5_1
I0814 17:49:22.855478  2056 net.cpp:345] relu5_1 -> conv5_1 (in-place)
I0814 17:49:22.855509  2056 net.cpp:96] Setting up relu5_1
I0814 17:49:22.855521  2056 net.cpp:103] Top shape: 1 512 67 67 (2298368)
I0814 17:49:22.855532  2056 layer_factory.hpp:78] Creating layer conv5_2
I0814 17:49:22.855545  2056 net.cpp:67] Creating Layer conv5_2
I0814 17:49:22.855553  2056 net.cpp:394] conv5_2 <- conv5_1
I0814 17:49:22.855566  2056 net.cpp:356] conv5_2 -> conv5_2
I0814 17:49:22.855579  2056 net.cpp:96] Setting up conv5_2
I0814 17:49:22.859980  2056 net.cpp:103] Top shape: 1 512 67 67 (2298368)
I0814 17:49:22.860020  2056 layer_factory.hpp:78] Creating layer relu5_2
I0814 17:49:22.860033  2056 net.cpp:67] Creating Layer relu5_2
I0814 17:49:22.860059  2056 net.cpp:394] relu5_2 <- conv5_2
I0814 17:49:22.860076  2056 net.cpp:345] relu5_2 -> conv5_2 (in-place)
I0814 17:49:22.860091  2056 net.cpp:96] Setting up relu5_2
I0814 17:49:22.860102  2056 net.cpp:103] Top shape: 1 512 67 67 (2298368)
I0814 17:49:22.860111  2056 layer_factory.hpp:78] Creating layer conv5_3
I0814 17:49:22.860123  2056 net.cpp:67] Creating Layer conv5_3
I0814 17:49:22.860133  2056 net.cpp:394] conv5_3 <- conv5_2
I0814 17:49:22.860146  2056 net.cpp:356] conv5_3 -> conv5_3
I0814 17:49:22.860160  2056 net.cpp:96] Setting up conv5_3
I0814 17:49:22.864483  2056 net.cpp:103] Top shape: 1 512 67 67 (2298368)
I0814 17:49:22.864512  2056 layer_factory.hpp:78] Creating layer relu5_3
I0814 17:49:22.864524  2056 net.cpp:67] Creating Layer relu5_3
I0814 17:49:22.864558  2056 net.cpp:394] relu5_3 <- conv5_3
I0814 17:49:22.864570  2056 net.cpp:345] relu5_3 -> conv5_3 (in-place)
I0814 17:49:22.864581  2056 net.cpp:96] Setting up relu5_3
I0814 17:49:22.864590  2056 net.cpp:103] Top shape: 1 512 67 67 (2298368)
I0814 17:49:22.864603  2056 layer_factory.hpp:78] Creating layer pool5
I0814 17:49:22.864612  2056 net.cpp:67] Creating Layer pool5
I0814 17:49:22.864620  2056 net.cpp:394] pool5 <- conv5_3
I0814 17:49:22.864634  2056 net.cpp:356] pool5 -> pool5
I0814 17:49:22.864645  2056 net.cpp:96] Setting up pool5
I0814 17:49:22.864657  2056 net.cpp:103] Top shape: 1 512 67 67 (2298368)
I0814 17:49:22.864670  2056 layer_factory.hpp:78] Creating layer fc6
I0814 17:49:22.864686  2056 net.cpp:67] Creating Layer fc6
I0814 17:49:22.864723  2056 net.cpp:394] fc6 <- pool5
I0814 17:49:22.864733  2056 net.cpp:356] fc6 -> fc6
I0814 17:49:22.864745  2056 net.cpp:96] Setting up fc6
I0814 17:49:22.924795  2056 net.cpp:103] Top shape: 1 4096 67 67 (18386944)
I0814 17:49:22.924841  2056 layer_factory.hpp:78] Creating layer relu6
I0814 17:49:22.924856  2056 net.cpp:67] Creating Layer relu6
I0814 17:49:22.924865  2056 net.cpp:394] relu6 <- fc6
I0814 17:49:22.924877  2056 net.cpp:345] relu6 -> fc6 (in-place)
I0814 17:49:22.924890  2056 net.cpp:96] Setting up relu6
I0814 17:49:22.924898  2056 net.cpp:103] Top shape: 1 4096 67 67 (18386944)
I0814 17:49:22.924906  2056 layer_factory.hpp:78] Creating layer drop6
I0814 17:49:22.924950  2056 net.cpp:67] Creating Layer drop6
I0814 17:49:22.924958  2056 net.cpp:394] drop6 <- fc6
I0814 17:49:22.924967  2056 net.cpp:345] drop6 -> fc6 (in-place)
I0814 17:49:22.924975  2056 net.cpp:96] Setting up drop6
I0814 17:49:22.924985  2056 net.cpp:103] Top shape: 1 4096 67 67 (18386944)
I0814 17:49:22.924993  2056 layer_factory.hpp:78] Creating layer fc7
I0814 17:49:22.925004  2056 net.cpp:67] Creating Layer fc7
I0814 17:49:22.925012  2056 net.cpp:394] fc7 <- fc6
I0814 17:49:22.925026  2056 net.cpp:356] fc7 -> fc7
I0814 17:49:22.925037  2056 net.cpp:96] Setting up fc7
I0814 17:49:22.954269  2056 net.cpp:103] Top shape: 1 4096 67 67 (18386944)
I0814 17:49:22.954313  2056 layer_factory.hpp:78] Creating layer relu7
I0814 17:49:22.954329  2056 net.cpp:67] Creating Layer relu7
I0814 17:49:22.954339  2056 net.cpp:394] relu7 <- fc7
I0814 17:49:22.954352  2056 net.cpp:345] relu7 -> fc7 (in-place)
I0814 17:49:22.954365  2056 net.cpp:96] Setting up relu7
I0814 17:49:22.954373  2056 net.cpp:103] Top shape: 1 4096 67 67 (18386944)
I0814 17:49:22.954381  2056 layer_factory.hpp:78] Creating layer drop7
I0814 17:49:22.954392  2056 net.cpp:67] Creating Layer drop7
I0814 17:49:22.954406  2056 net.cpp:394] drop7 <- fc7
I0814 17:49:22.954416  2056 net.cpp:345] drop7 -> fc7 (in-place)
I0814 17:49:22.954426  2056 net.cpp:96] Setting up drop7
I0814 17:49:22.954433  2056 net.cpp:103] Top shape: 1 4096 67 67 (18386944)
I0814 17:49:22.954442  2056 layer_factory.hpp:78] Creating layer fc8_pascal
I0814 17:49:22.954452  2056 net.cpp:67] Creating Layer fc8_pascal
I0814 17:49:22.954460  2056 net.cpp:394] fc8_pascal <- fc7
I0814 17:49:22.954475  2056 net.cpp:356] fc8_pascal -> fc8_pascal
I0814 17:49:22.954486  2056 net.cpp:96] Setting up fc8_pascal
I0814 17:49:22.957677  2056 net.cpp:103] Top shape: 1 21 67 67 (94269)
I0814 17:49:22.957706  2056 layer_factory.hpp:78] Creating layer fc8_interp
I0814 17:49:22.957720  2056 net.cpp:67] Creating Layer fc8_interp
I0814 17:49:22.957741  2056 net.cpp:394] fc8_interp <- fc8_pascal
I0814 17:49:22.957752  2056 net.cpp:356] fc8_interp -> fc8_interp
I0814 17:49:22.957762  2056 net.cpp:96] Setting up fc8_interp
I0814 17:49:22.957777  2056 net.cpp:103] Top shape: 1 21 529 529 (5876661)
I0814 17:49:22.957790  2056 layer_factory.hpp:78] Creating layer fc8_crop
I0814 17:49:22.957803  2056 net.cpp:67] Creating Layer fc8_crop
I0814 17:49:22.957814  2056 net.cpp:394] fc8_crop <- fc8_interp
I0814 17:49:22.957825  2056 net.cpp:356] fc8_crop -> fc8_crop
I0814 17:49:22.957837  2056 net.cpp:96] Setting up fc8_crop
I0814 17:49:22.957849  2056 net.cpp:103] Top shape: 1 21 514 514 (5548116)
I0814 17:49:22.957859  2056 layer_factory.hpp:78] Creating layer fc8_crop_mat
I0814 17:49:22.957875  2056 net.cpp:67] Creating Layer fc8_crop_mat
I0814 17:49:22.957885  2056 net.cpp:394] fc8_crop_mat <- fc8_crop
I0814 17:49:22.957895  2056 net.cpp:96] Setting up fc8_crop_mat
I0814 17:49:22.958905  2056 mat_write_layer.cpp:32] MatWrite will save a maximum of 1449 files.
I0814 17:49:22.958927  2056 net.cpp:172] fc8_crop_mat does not need backward computation.
…
