name: "SegNet"
layers {
  name: "data"
  type: IMAGE_SEG_DATA
  top: "data"
  top: "label"
  image_data_param {
    root_folder: "/home/lcchen/dataset/PASCAL/VOCdevkit/VOC2011"
    source: "examples/segnet/train_file_list.txt"
    batch_size: 1
    max_exp_height = 500
    max_exp_width = 500
  }
  transform_param {
    mean_file: "data/ilsvrc12/imagenet_mean.binaryproto"
    mirror: false
  }
  include: { phase: TRAIN }
}

layers {
  name: "data"
  type: IMAGE_SEG_DATA
  top: "data"
  top: "label"
  image_data_param {
    root_folder: "/home/lcchen/dataset/PASCAL/VOCdevkit/VOC2011"
    source: "examples/segnet/train_file_list.txt"
    batch_size: 1
    max_exp_height = 500
    max_exp_width = 500
  }
  transform_param {
    mean_file: "data/ilsvrc12/imagenet_mean.binaryproto"
    mirror: false
  }
  include: { phase: TEST }
}

layers {
  name: "conv1"
  type: CONVOLUTION
  bottom: "data"
  top: "conv1"
  blobs_lr: 1
  blobs_lr: 2
  convolution_param {
    num_output: 20
    kernel_size: 5
    stride: 1
    weight_filler {
      type: "xavier"
    }
    bias_filler {
      type: "constant"
    }
  }
}
layers {
  name: "pool1"
  type: POOLING
  bottom: "conv1"
  top: "pool1"
  pooling_param {
    pool: MAX
    kernel_size: 2
    stride: 2
  }
}
layers {
  name: "conv2"
  type: CONVOLUTION
  bottom: "pool1"
  top: "conv2"
  blobs_lr: 1
  blobs_lr: 2
  convolution_param {
    num_output: 50
    kernel_size: 5
    stride: 1
    weight_filler {
      type: "xavier"
    }
    bias_filler {
      type: "constant"
    }
  }
}
layers {
  name: "pool2"
  type: POOLING
  bottom: "conv2"
  top: "pool2"
  pooling_param {
    pool: MAX
    kernel_size: 2
    stride: 2
  }
}
layers {
  name: "ip1"
  type: INNER_PRODUCT
  bottom: "pool2"
  top: "ip1"
  blobs_lr: 1
  blobs_lr: 2
  inner_product_param {
    num_output: 500
    weight_filler {
      type: "xavier"
    }
    bias_filler {
      type: "constant"
    }
  }
}
layers {
  name: "relu1"
  type: RELU
  bottom: "ip1"
  top: "ip1"
}
layers {
  name: "ip2"
  type: INNER_PRODUCT
  bottom: "ip1"
  top: "ip2"
  blobs_lr: 1
  blobs_lr: 2
  inner_product_param {
    num_output: 10
    weight_filler {
      type: "xavier"
    }
    bias_filler {
      type: "constant"
    }
  }
}
layers {
  name: "accuracy"
  type: ACCURACY
  bottom: "ip2"
  bottom: "label"
  top: "accuracy"
  include: { phase: TEST }
}
layers {
  name: "loss"
  type: SOFTMAX_LOSS
  bottom: "ip2"
  bottom: "label"
  top: "loss"
}
